model/rl_agent.pth (torch, 53422 bytes, 22 tensors)

conv1.att f4 [1, 8, 8]
00000000: e33e 63be 0a94 86be 6893 1fbe 771a 66be
00000010: d218 0f3f f008 a13e aafe 0f3f db5a cfbb
00000020: 868b d63d 6a66 4f3e f67b 12bf 7965 803d
00000030: e235 47bd 3660 a8be 89f0 f7be 9e14 0f3f
00000040: 5102 f53e eb6a 943e de6d 143f 2c20 83be
00000050: cb9e cdbd 0e67 743e 9658 ccbd 6717 fabd
00000060: 8325 04bf efd1 343e e544 b8be 3fdd 4d3c
00000070: a738 173f cda3 3cbe c89a 3ebe ee55 c43e
00000080: 09da 67be 8648 88bd 2ee6 133f c674 76be
00000090: 45f6 dcbe 4f3f abbe c840 2abe 13b9 8cbe
000000a0: b27d a6be f2dc 793e 2c71 d83d 7529 51be
000000b0: 5882 efbe 8e0a 41be 9599 7dbe 00d2 46be
000000c0: 9e40 0fbf a1f5 0a3e a509 edbe 9c7d ebbe
000000d0: a723 f7be 481c 7e3e e917 bebe 5375 7cbe
000000e0: 4274 f53e 5ae9 a63e 142a b13e ebbe 15bf
000000f0: aa3a e2be d4c4 6ebe 5dd2 013f 75ba 9e3d
-0.22191958 -0.2628482 -0.15583575 -0.22471033 0.5589725 0.3145213 0.5624796 -0.0063279695
0.10475831 0.20253912 -0.572204 0.062693544 -0.04863537 -0.32885903 -0.484257 0.55890834
0.4785333 0.28987822 0.57980144 -0.25610483 -0.10040053 0.23867437 -0.09977834 -0.12211495
-0.5161974 0.17658208 -0.35990062 0.012564956 0.5907082 -0.1842186 -0.18613732 0.3834681
-0.22641768 -0.06654458 0.577731 -0.24067983 -0.4315664 -0.33446738 -0.16626275 -0.2748495
-0.32517773 0.2440069 0.10568461 -0.20425971 -0.46779132 -0.18851683 -0.24765618 -0.19416046
-0.55957973 0.13570262 -0.4629642 -0.4599427 -0.48269388 0.24815476 -0.37127617 -0.2465413
0.4794026 0.32599908 0.34602416 -0.5849444 -0.44185382 -0.23317271 0.50711614 0.077504076

conv1.bias f4 [64]
00000000: 2788 383c be20 de3b 011a 443c d4e8 4a3c
00000010: c256 1abc 366b 4d3c 6a4c 44bb 0b99 5f3c
00000020: 785b 48bc f4a5 17bc fd82 1f3c 03fa 1ebc
00000030: 0163 b43b dbb7 96bb 56a3 043c d36a ca3b
00000040: df44 523c 3573 333c 4b1b 563c 366b 4d3c
00000050: 3580 a7bb 668f 3e3c 0546 cbbb aa9a 38bb
00000060: 395c 2f3c 2742 123a a0b8 413c aff5 8b3b
00000070: 8907 bdbb 0b85 443c 4791 4d3c 8f6e 5b3c
00000080: 5263 b93b c9b0 0ebc 3d9e f93b 4503 533c
00000090: 6111 3f3c 5fd5 59b9 1385 58bb 9e00 d03a
000000a0: 5ba1 ca3b a164 4f3c 3a22 ec3c 8f67 2dbc
000000b0: ed7d 453c 048c e13a 9dd3 403c bca3 483c
000000c0: 61da 363b 9418 413c d6e8 9dbb 7d8e 21bc
000000d0: 6fc8 323c 3138 7f3a 809e 4b3c 27d0 023c
000000e0: 2fdd 4a3b ca56 16bc 6d3d 553c 39d6 523c
000000f0: 0b88 453c 95ab 5c3c 8d71 363c fd7e 8d3c
0.01126293 0.0067788055 0.01196909 0.012384612 -0.009420099 0.012537768 -0.0029952773 0.013647328
-0.012228839 -0.009255875 0.00973582 -0.009703162 0.0055049662 -0.004599554 0.008095583 0.006177285
0.012833803 0.01095276 0.013068031 0.012537768 -0.005111719 0.011630869 -0.0062034153 -0.002816836
0.01070314 0.00055793155 0.011823803 0.004271231 -0.0057687205 0.011994611 0.012546844 0.013393058
0.005657592 -0.008709141 0.0076177404 0.0128791975 0.011661858 -0.0002077422 -0.0033038303 0.0015869325
0.006183786 0.012658269 0.028824914 -0.010583772 0.012053949 0.0017207866 0.011769203 0.012246069
0.002790116 0.011785645 -0.004819016 -0.009860632 0.010912045 0.0009735851 0.012427926 0.007984198
0.003095459 -0.009175966 0.013015133 0.0128684575 0.012056361 0.013468643 0.011135471 0.017272467

conv1.lin_l.weight f4 [64, 2]
00000000: 33f9 713e 30d4 60be a4e9 6cbc 2a6d a0be
00000010: 70a0 7cbe 40b7 8e3d 62b3 8b3d 8ba8 683d
00000020: eb06 bdbd 7e69 973e 81b5 4d3d 9e77 26be
00000030: c61d c3bc 79ef b03d 8d9a e73d fb94 6ebe
00000040: 3469 d03d 468d 15be 6f1c 85be ac12 1dbe
00000050: e7b5 943e a883 843e f8fd 833e 4d2c 443e
00000060: ab54 713e c078 64bd b26c 2dbe 9f76 2b3e
00000070: 2cef 17be a537 60be a739 c9bd d715 af3d
00000080: 94ee 1d3e f4d3 cfbd 77fb 27be c996 bb3c
00000090: 0737 37be 94f1 39be 39df 273e f14d 13bd
000000a0: 7dea 873e 977a 9f3e 42dd b43d b6ea f13d
000000b0: 4fba 763d faaa c43c 8578 b4bc 444b 38bc
000000c0: 112e ea3d c040 963e b23f 93bd 8bcd fcbd
000000d0: c406 91bd 261b 02be f224 4e3d e4b3 6a3e
000000e0: 5799 793e 66c1 f83d 46d2 61be c747 13be
000000f0: cf41 82bd de2e 21bd edad f53c 3648 8ebe
00000100: 2c54 ce3d 188b 7fbe 4012 47be 8e77 7dbe
00000110: 161c 8d3e 902b 9bbe b836 623e 6258 48bc
00000120: a8dd 1bbd 7e5a 453e e6fb a2bc d500 373e
00000130: da87 563e 8ba0 7dbe e63c e33d 9780 953d
00000140: 0b02 913d e936 1e3d 5705 aa3d 9d3c fcbd
00000150: 3335 13bd cdda a03e 797a 423e af0b 28bc
00000160: d429 8cbe 754d 823c 61cf 51be 09cd 6a3e
00000170: 1846 36be 1279 18bc 868c 79bd b8f2 863d
00000180: fbcd 8d3e fd01 f33c 3f63 323e 07c6 803e
00000190: 0d7a 713e 1c40 e1bd fbbd 7abd e4fc 193e
000001a0: d158 9bbd d7b4 1f3e 5bde 8abd 0ea0 56be
000001b0: 3761 053e 29f4 723d 7956 0c3e fcb0 9c3e
000001c0: e1c1 523e a8c9 913e 2e06 933c d4da 8abe
000001d0: 0c54 41be b63c 29be 1db5 87be 882b 10be
000001e0: d42c 8ebe 80b6 86be cb39 36be da01 91be
000001f0: d627 38be ef0d 0a3e 002e 8a3e 4352 c6bd
0.23630218 -0.21955943 -0.014460001 -0.31333286 -0.24670577 0.06968546 0.06821324 0.05680136
-0.09229835 0.29572672 0.050221924 -0.16256568 -0.023817908 0.08639426 0.11308775 -0.23299019
0.10176316 -0.14604673 -0.25998256 -0.15339154 0.2904503 0.25881696 0.257797 0.19157524
0.23567455 -0.05577922 -0.16935995 0.16744469 -0.1483733 -0.21896227 -0.098254494 0.085490875
0.15423042 -0.10147849 -0.1640452 0.022899048 -0.17892085 -0.18158561 0.16393746 -0.035963003
0.26546088 0.31148216 0.08831264 0.11812346 0.06023627 0.02400731 -0.022030124 -0.0112484135
0.11434568 0.29346275 -0.07189883 -0.12343892 -0.070813686 -0.12705669 0.050328203 0.22920185
0.24374901 0.12146263 -0.22052869 -0.1438285 -0.06360208 -0.039351337 0.02999016 -0.27789468
0.10074648 -0.24955404 -0.19440556 -0.24752638 0.2756049 -0.30306673 0.22091186 -0.012228103
-0.038053185 0.19272801 -0.019895505 0.17871411 0.20950261 -0.24768274 0.110956 0.07299917
0.07080468 0.038626585 0.083018 -0.123162486 -0.035939407 0.31416932 0.18992032 -0.010256692
-0.27375662 0.015906075 -0.20489265 0.22929777 -0.17800176 -0.009306209 -0.06092503 0.06589264
0.27696213 0.029664034 0.17420672 0.25151083 0.23581715 -0.10998556 -0.061216336 0.15037876
-0.075853 0.15596329 -0.06780692 -0.20959494 0.13025366 0.05931488 0.13704862 0.30603778
0.20581771 0.28474164 0.017947283 -0.27120078 -0.18879718 -0.16527066 -0.26505366 -0.14079106
-0.27768576 -0.2631111 -0.17795484 -0.28321725 -0.17983946 0.13481878 0.2698822 -0.09683659

conv1.lin_l.bias f4 [64]
00000000: f215 47be 2dc8 c43e b37d acbe a62e a6be
00000010: acaa da3e 4d83 1abf 9437 ab3d 2867 233f
00000020: 774b df3d 2858 3b3e a9d1 cebe 8c34 9fbc
00000030: 2fcd 353d 31f6 2c3e d9d0 903e ccdf 1e3f
00000040: 17e3 06bf 28ae 033d 4c85 b2be f6fc 0bbf
00000050: 12f3 7cbd d9f9 1cbf 9b80 f93e f8f2 a13d
00000060: 096e bdbe 727c bd3e 6a07 28bf 58d9 89be
00000070: 45ec 12be 26c0 16bf beca dfbe acee cebd
00000080: 5cd2 0a3f 8992 2c3f 523f ea3e 04cb d1be
00000090: 0de2 e6be 8edc 1d3f 34ca 7c3e aae5 a63c
000000a0: 75a5 d03d 653e 0ebf fb3d 54be 1b8b 2b3f
000000b0: a3bd 29be c430 0abd 7771 13bf be41 c4be
000000c0: 6ede 3ebc 56d9 dabe ce19 bdbd 4449 8e3e
000000d0: 5d47 2ebf 660e 583e fd04 e9be f29a acbe
000000e0: b0a1 8c3e 3295 0d3f d7d9 37be 9f0d 8ebe
000000f0: d698 20bf d1ca b3be 737f 1bbf 150e 14be
-0.19441965 0.38433972 -0.3368965 -0.32457465 0.42708337 -0.603566 0.0836021 0.6382928
0.10903066 0.18295348 -0.40394333 -0.019434236 0.04438513 0.1689079 0.28284338 0.62060237
-0.5269026 0.03214851 -0.34867322 -0.5468286 -0.061755247 -0.6131874 0.4873093 0.07907671
-0.36998013 0.37009007 -0.6563631 -0.26923633 -0.14347942 -0.58886945 -0.43709368 -0.10104117
0.5422723 0.67411095 0.45751435 -0.409752 -0.45094338 0.61664665 0.2468651 0.020373184
0.101878084 -0.55563956 -0.20726769 0.67009133 -0.16576247 -0.033737913 -0.5759501 -0.38331407
-0.011649711 -0.4274394 -0.092334375 0.27790272 -0.6807764 0.21099243 -0.45511618 -0.33711964
0.27467108 0.5530578 -0.17954193 -0.27744767 -0.6273321 -0.35115674 -0.6074135 -0.14458497

conv1.lin_r.weight f4 [64, 2]
00000000: 16f9 7b3d c9a0 90be 23c3 863e 18bc 413e
00000010: 1e20 97be af77 13be 3736 c63d 0939 9bbd
00000020: ded4 1ebd f751 eabd 1300 783e 8498 2cbe
00000030: f910 803e 71a7 4e3c d742 783d 42dd 703e
00000040: 817f 4bbd 65c8 2fbe 7c43 46bd 9b54 733e
00000050: 6fa4 64be 349a 873d db65 97be 716c 363e
00000060: ea26 e43d 4152 513c aac4 0d3e 711a bebb
00000070: 4ce5 2a3e 7a0d 72be 1697 35bd 7006 093e
00000080: 8bb9 993e fa42 1d3e 9584 60be fd74 6d3e
00000090: 6f58 50bd 6a77 a5bd 964f 8cbe e261 42bd
000000a0: 95d2 573e 01cc 173d 0c40 41be 4906 da3d
000000b0: cb29 a6bd a0f1 8c3e c4fd 85be 040d c3bd
000000c0: 9827 92be 1d5a d8bd 8699 c13d 63d4 9c3e
000000d0: 91eb 813d 7075 923e eea0 713d 1850 323e
000000e0: 9ef5 7d3e 6d9f 7d3e 68d0 2cbe f6ed 8d3e
000000f0: 3307 3b3e 1b5d 10be 0f8b 09be b02a 72be
00000100: 5f0c 8c3d 7dc7 6fbe 1b6f 023e ad05 c33d
00000110: b485 77be 580e 873d bd6f 05bd 1914 0d3e
00000120: 9f2b 313e 7576 99be 559c 8d3e 307f 813e
00000130: 22e4 df3d 4c26 86be eb76 dcbd a0e4 b2bd
00000140: 7ad1 9ebd c420 2e3e ab85 e03d 8794 743e
00000150: 0742 e7bd c0ce cf3d 54a1 db3d 7785 80be
00000160: 74c1 95be 46bf 2abe 6224 523e 2688 8ebe
00000170: 8d60 86be 0a27 273e dd91 263e 47ea 7d3e
00000180: 298d 69be 1970 62be b660 1e3e d33e 863e
00000190: fea3 443e bd71 6d3d 0190 cb3d 9488 923e
000001a0: aa33 47be 022c 0cbe 73f2 573e 1a45 53be
000001b0: b33e 2abe de62 613e 49d6 c23d 6a7f c73d
000001c0: cec3 03be 6944 fdbb 3143 8d3e 1a50 39be
000001d0: 5b45 ef3b 4507 163e 2d21 55be 94ec 953e
000001e0: 733e 1abe 404a 94bd b70f a7bd d632 49be
000001f0: f49e 97be 7e48 2b3e a8d4 c13d e2ed 8ebe
0.061516844 -0.2824767 0.26320753 0.18919408 -0.2951669 -0.14401124 0.096783094 -0.07579238
-0.038777225 -0.11441415 0.24218778 -0.16855055 0.2501295 0.012613163 0.06061062 0.23521903
-0.049682144 -0.17166288 -0.048404202 0.23762743 -0.22328351 0.06621209 -0.29569897 0.17814805
0.11140235 0.0127759585 0.13844553 -0.005801492 0.16689032 -0.23637953 -0.04433354 0.13381362
0.3002437 0.15357581 -0.21925576 0.23189159 -0.050865587 -0.08079417 -0.2740447 -0.04745663
0.21076424 0.037059788 -0.18872088 0.1064573 -0.0811344 0.27528095 -0.2617017 -0.09523967
-0.28545833 -0.10564063 0.094531104 0.30630788 0.06343759 0.28605223 0.058991365 0.17413366
0.24800727 0.24767847 -0.16876376 0.27720612 0.18264465 -0.14098017 -0.13431953 -0.23649096
0.06838297 -0.23415942 0.12737696 0.09522567 -0.24172097 0.06594533 -0.032577265 0.13777198
0.17301796 -0.29973188 0.27658334 0.2529235 0.10932185 -0.26201093 -0.10764869 -0.08735013
-0.07754798 0.17004687 0.10962995 0.23884784 -0.112918906 0.10146856 0.1072413 -0.25101826
-0.29249156 -0.16674528 0.20521691 -0.27838248 -0.26245537 0.16323486 0.1626658 0.24796401
-0.22807755 -0.22113074 0.1546658 0.26219806 0.19203183 0.057969797 0.09939576 0.28619826
-0.19453302 -0.13688663 0.21088581 -0.20631829 -0.1662548 0.22010371 0.09513528 0.09741099
-0.12867662 -0.0077291024 0.27590325 -0.18096963 0.007301969 0.1465121 -0.20813437 0.29282057
-0.15062885 -0.072407246 -0.08157294 -0.19648299 -0.2961346 0.16726872 0.09464389 -0.27915865

conv1.lin_r.bias f4 [64]
00000000: ff05 e9be 4ee6 323f f060 8a3e 67b4 8b3e
00000010: 0a1d d3be c7b5 9ebe 65da cebd 9b6b 04be
00000020: 0115 f8be 0cbb 513d 2308 843d 7c3a a2bd
00000030: 1770 da3d 5a6c 91be 58c6 3e3e 51a8 883e
00000040: 4db1 bebe 0e7e 33bf 70b0 bb3e 54b7 2c3e
00000050: 3a60 bbbe f317 2b3f f7c5 9bbe a5a1 f43e
00000060: bb7f bc3e b1a5 14bf 2893 eb3e 4071 26bf
00000070: 5545 c7be e471 f1bd c008 f4be c609 353f
00000080: 5fc2 06be 00d2 8f3e f7df 20bf be0c cf3e
00000090: 34f9 60be 2f41 0bbf d585 ef3d 227a af3e
000000a0: 28a4 1c3f 7620 ddbe c128 b2be 882f 0b3e
000000b0: 8edc 383e aaff 8d3e 60cf c33e 1731 24be
000000c0: 97e7 c83e 7e76 053f b54a 30be a3ca 003f
000000d0: 1649 af3e e9aa 1f3f eabc cdbe 02c7 b2be
000000e0: 1c74 4bbe 91f6 123d 3a7d dd3e 37ad cebe
000000f0: d540 b53e 78bf 81be b3d7 dc3e 8855 d4bc
-0.45512387 0.6988267 0.27027082 0.27286074 -0.41233093 -0.3099806 -0.10100249 -0.12931673
-0.48453525 0.051203772 0.064468645 -0.07921311 0.10665911 -0.28402978 0.1863035 0.26690915
-0.37244645 -0.7011422 0.3665805 0.16866809 -0.36596853 0.6683342 -0.30424473 0.47779575
0.368162 -0.58065325 0.4601071 -0.65016556 -0.38920084 -0.11789301 -0.47662926 0.7071804
-0.13160084 0.28089905 -0.62841743 0.4043941 -0.21970063 -0.5439634 0.11695448 0.34272867
0.6118798 -0.43188828 -0.34796718 0.1359235 0.18052885 0.2773412 0.38244152 -0.16034351
0.3923919 0.5213393 -0.17215998 0.503092 0.34235448 0.62370163 -0.40183192 -0.34917456
-0.19868511 0.035879675 0.43259603 -0.40366527 0.35401025 -0.25341392 0.43133315 -0.02591969

conv1.lin_edge.weight f4 [64, 1]
00000000: 885e 85be c655 25be 844f 5bbe a468 173e
00000010: a79c 46be 8d92 fdbc 50d8 843d 2416 2fbe
00000020: e370 bb3d c547 9cbe e8d4 64be 8040 87be
00000030: 24c7 c3bd 4e14 e6bd 6c9d 2b3d e4cf 55bd
00000040: dd82 0d3e 953b 8c3e 4401 d83d f69b ebbd
00000050: 0a62 94be ce40 c13d 0059 0abe b61c 233e
00000060: ada9 533e b8a5 023e 3ed1 933e f263 973e
00000070: 3292 8d3d e5e8 6bbe d061 863e 6770 00be
00000080: aa9e 0bbe b426 813e 7eb3 723e 0290 b43d
00000090: 0ee9 8b3c 5c06 86be eeac afbc ff2e 943e
000000a0: 54d3 a83d 65a8 ab3c 0c8a 8bbd 42a2 cebd
000000b0: bb25 2f3e fe3e da3c e3e3 413e af8e 47bd
000000c0: aa2f 073e 54e1 013e dc07 763d 0031 423e
000000d0: 0ca5 403e 26d2 903e e7dc 6d3e c7a1 a1bd
000000e0: 2ded 80be 8476 5b3d 1b5b 2a3b 0f2e 9ebd
000000f0: 3023 48bd 46b8 853c 65b5 643e 63e6 cf3d
-0.26048684 -0.16146001 -0.21417052 0.14786011 -0.19395696 -0.03095367 0.06486571 -0.1709829
0.09152391 -0.30523506 -0.22346842 -0.26416397 -0.095594674 -0.112343416 0.041898176 -0.052200213
0.13819452 0.27389207 0.105471164 -0.115043566 -0.28981048 0.09436189 -0.13510513 0.15928921
0.20670195 0.12758529 0.28870577 0.2956844 0.0691265 -0.23038061 0.262465 -0.12542878
-0.13634744 0.2522484 0.23701283 0.0881653 0.017078903 -0.26176727 -0.021444764 0.28942105
0.08243433 0.02095432 -0.0681344 -0.10089542 0.17104237 0.026641365 0.18934588 -0.048720058
0.13201776 0.12683612 0.06006609 0.18964005 0.1881296 0.2828533 0.23228799 -0.07892185
-0.2518095 0.053579822 0.0025994244 -0.07723629 -0.048861682 0.01632322 0.22334822 0.10151365

norm1.weight f4 [64]
00000000: 1e65 803f 876a 813f 0000 803f 0000 803f
00000010: 7189 7e3f 0000 803f 29d2 7f3f 05dc 813f
00000020: ae11 7c3f d14b 7d3f f024 803f 9508 7f3f
00000030: daea 803f 1561 7f3f e03d 813f c8c6 803f
00000040: 0000 803f 6aa4 803f 0000 803f 0000 803f
00000050: 3ced 803f 0000 803f 8f4c 7e3f a517 7f3f
00000060: ce6b 7f3f 35db 7f3f 0000 803f dd17 803f
00000070: 1c2a 803f 0000 803f 0000 803f 0000 803f
00000080: 7be2 803f 8370 7d3f ae70 813f 0000 803f
00000090: 0000 803f 3d71 7f3f 7ba6 7d3f d85f 803f
000000a0: b7ae 803f 0000 803f 6104 833f 5907 7d3f
000000b0: 0000 803f 0b0b 7d3f 0000 803f 0000 803f
000000c0: ecd4 7f3f 0000 803f 400f 7e3f 5f79 7d3f
000000d0: 0000 803f 4131 803f 0000 803f 60f1 7f3f
000000e0: 243b 803f 4bac 7d3f 0000 803f 0000 803f
000000f0: 0000 803f 0000 803f 0000 803f c73f 833f
1.0030859 1.0110635 1.0 1.0 0.9942847 1.0 0.99930054 1.014527
0.9846448 0.9894381 1.0011272 0.9962247 1.0071671 0.9975751 1.0097008 1.0060663
1.0 1.0050175 1.0 1.0 1.0072398 1.0 0.9933557 0.99645454
0.9977387 0.9994386 1.0 1.0007282 1.0012851 1.0 1.0 1.0
1.0069116 0.98999804 1.0112512 1.0 1.0 0.9978216 0.99082154 1.0029249
1.0053319 1.0 1.0235711 0.98839337 1.0 0.98844975 1.0 1.0
0.9993427 1.0 0.9924202 0.9901332 1.0 1.0015031 1.0 0.99977684
1.0018048 0.99091023 1.0 1.0 1.0 1.0 1.0 1.0253838

norm1.bias f4 [64]
00000000: f950 623b 8e98 da3b 0000 0000 0000 0000
00000010: 279e 21bc 0000 0000 27de 6ebb 5477 563c
00000020: dbdc 52bc 34b5 24bc 08d8 d23a 0a1a 27bc
00000030: 6346 a83b ccd2 a5bb e021 f83b c8e9 ad3b
00000040: 0000 0000 f262 2a3c 0000 0000 0000 0000
00000050: 8423 b3bb 0000 0000 f232 e3bb 25a9 44bb
00000060: 7c97 14bb fbf2 18b9 0000 0000 dcf1 d83a
00000070: 4f3a bcbb 0000 0000 0000 0000 0000 0000
00000080: 8a41 ad3b 85de 18bc 8f48 f53b 0000 0000
00000090: 0000 0000 5f5b b2ba dac4 80bb 5d8c 543a
000000a0: e5ad b93b 0000 0000 6913 ef3c d01e 3bbc
000000b0: 0000 0000 589d be3a 0000 0000 0000 0000
000000c0: ee70 133b 0000 0000 89b5 d4bb 4e34 2bbc
000000d0: 0000 0000 f98d 7f39 0000 0000 2fc4 43ba
000000e0: 5a28 133b a776 27bc 0000 0000 0000 0000
000000f0: 0000 0000 0000 0000 0000 0000 079d 823c
0.0034533127 0.006671018 0.0 0.0 -0.009864367 0.0 -0.003644833 0.0130899735
-0.012870039 -0.010052968 0.0016086111 -0.010199079 0.005135344 -0.0050605293 0.0075723976 0.00530741
0.0 0.010399567 0.0 0.0 -0.0054668803 0.0 -0.0069335634 -0.0030008045
-0.00226733 -0.00014586367 0.0 0.0016551572 -0.0057442556 0.0 0.0 0.0
0.005287354 -0.009330397 0.0074854563 0.0 0.0 -0.0013607553 -0.0039297165 0.0008108074
0.005666482 0.0 0.02918406 -0.0114209205 0.0 0.0014542742 0.0 0.0
0.0022497731 0.0 -0.0064913672 -0.010449482 0.0 0.00024371584 0.0 -0.00074678933
0.0022454471 -0.01022116 0.0 0.0 0.0 0.0 0.0 0.015944017

conv2.att f4 [1, 1, 64]
00000000: 5183 08be b586 11be 23ee 8f3e 36c5 5bbe
00000010: 65b9 a2be d1f8 8bbd b139 253e 99ed 143e
00000020: e9b4 5abe f8f8 7dbe 4f3d c83d af4b 3dbe
00000030: 5670 253e 7917 93bd be7d 09be e74b 59bd
00000040: 1cc0 703e 94d4 3cbe 6582 78be 0dc2 083e
00000050: 6aa2 ef3d e7fd 3bbd a140 4f3e 81ed 93bd
00000060: 71ae 0ebe dab5 61be 9933 38be 3da6 26be
00000070: 1570 943d c56b 34bd 3d83 6a3e 2f9a 09be
00000080: 5ad4 3d3e 1b45 843e acac 39bd 6a2d 37be
00000090: fc20 0d3e 1eed 9bbe a169 5d3e 6a37 793e
000000a0: afd4 bcbb fd80 4cbe 79c2 d33c 5b28 573e
000000b0: dda4 583d c33c 1f3d c5dd fa3d ece5 1d3e
000000c0: 3590 893d c079 38be b281 333c 0e51 0fbe
000000d0: 95a7 253e e19c 2abe 0ae3 8c3e 93e3 113e
000000e0: 1346 96be 9010 f0bd 7b37 0dbd 5c7e e2bd
000000f0: 08a7 213b 5087 32be 4267 563e 042a 033e
-0.13331343 -0.14211543 0.2811137 -0.21461949 -0.3178207 -0.06834567 0.16135289 0.14543761
-0.21358074 -0.24802005 0.09777319 -0.18485902 0.16156134 -0.071822114 -0.13426873 -0.0530509
0.23510784 -0.18440467 -0.24268492 0.13355274 0.117009 -0.045896437 0.20239498 -0.07223035
-0.13933732 -0.22042027 -0.17988433 -0.16274352 0.072479405 -0.04404809 0.22901626 -0.13437723
0.18538037 0.25833973 -0.04533069 -0.17888418 0.13782114 -0.30454344 0.21622325 0.24337545
-0.0057626585 -0.1997108 0.025849568 0.21011488 0.0528916 0.038876306 0.122493304 0.1541974
0.067169584 -0.18015194 0.010956215 -0.13995764 0.16177209 -0.16661407 0.27516967 0.14246969
-0.29350337 -0.11721909 -0.03447674 -0.110592574 0.0024666209 -0.1743443 0.20937827 0.12808996

conv2.bias f4 [64]
00000000: 5511 963b bccd 593b c970 19bc d071 b6ba
00000010: 6352 ec3b f2ba 22bc 50d8 103b d80b bcbb
00000020: 0c32 85bb 441b 163b 032c 8dbb 76ad 94bb
00000030: ca75 0bbb c4d4 eb3b a147 ffbb c9f1 883b
00000040: 4d0f 59bb af70 6e3a d1df f13b 4f2f 19bc
00000050: 8296 193b 4376 873b 6626 efba c239 473c
00000060: f436 013b 7ded 383a 521c 9a3b f797 0c3c
00000070: cc7d fc3a 1423 153c 8f27 5a3b 7011 523b
00000080: 8675 bcbb c8c0 16bc 5946 733b 957b 4e3b
00000090: 935d 533c d3f6 2abc eb11 eeba 61d8 d2bb
000000a0: a3dc f4bb fc83 a63c bedb 4dbb 9b6e ffbb
000000b0: 8b2b 91bb eece 81bc 1baa 42bb 54f9 44bc
000000c0: 3300 023c f69a 85bb db4a fb3b f64b e8ba
000000d0: 0ef3 e03b 0fe1 86bb ace7 f2ba fd1d 383a
000000e0: 4b24 a5bb 21ef 1fbb 76c7 8aba 2d6a 883b
000000f0: 8699 9a3b 0189 023c 1765 debb 26a4 02bc
0.004579703 0.00332342 -0.009365269 -0.0013919417 0.0072119697 -0.009932267 0.0022101589 -0.0057387166
-0.004064804 0.0022904435 -0.004308225 -0.0045372797 -0.0021279925 0.0071969945 -0.0077905213 0.0041792137
-0.0033120692 0.00090957707 0.0073814173 -0.009349658 0.0023435657 0.004133971 -0.0018245697 0.012159767
0.0019716593 0.00070544315 0.004703083 0.008581153 0.0019263565 0.009102602 0.003328774 0.003205385
-0.0057513146 -0.009201236 0.0037120788 0.0031506766 0.012900728 -0.010434824 -0.0018163299 -0.006434486
-0.007472591 0.020326607 -0.0031411494 -0.0077951676 -0.0044302396 -0.015845742 -0.0029703442 -0.012022335
0.007934618 -0.0040773107 0.0076688356 -0.0017722833 0.006864912 -0.0041161845 -0.0018532178 0.00070235116
-0.005039727 -0.0024404007 -0.0010588008 0.0041630478 0.0047180085 0.007967235 -0.006786953 -0.007973706

conv2.lin_l.weight f4 [64, 64]
00000000: 3284 b83d 6168 953d 634a 0f3e d277 9a3d
00000010: 3735 3ebd 3435 1abd c444 383e 86ef f9b9
00000020: 36f3 2ebe 2bc2 10be be3e 23be 4692 823c
00000030: d0a9 283e 688a 043e 750f 863d 602f 9b3d
00000040: 3a06 d2bd 0bf5 4f3e a21c a93d 80bc 0bbe
00000050: 2f9e 1fbe 6f9e 46be fdba 6abd 8800 263e
00000060: 6e34 2b3c cdfa c5bd b4da 763d a2f9 19be
00000070: 3140 813d 2b5f 173e 0e99 d73d c8ff 86bd
00000080: b1b0 88bd d1e6 c53d 42f7 0c3e 9450 59bd
00000090: 00a0 00ba e677 b2bc c674 7dbc 2699 43be
000000a0: b808 34be 1f13 3e3e f36a 01be a99c 283e
000000b0: 858c 093e 0303 3dbd 7f7a d6bd e08c eb3b
000000c0: a337 0dbd 3d89 03be d05a 643e 61ee 7bbc
000000d0: 4857 08bd a668 0dbe 0c3c 103d 6a76 fb3c
000000e0: e9a4 5a3e 4810 74bd 465f f93d 800e 2c3c
000000f0: d264 eb3d c0b2 783b dce6 18bd 1732 d03d
00000100: d5a9 c0bd 44a5 093e 4cb1 39be 55ee 1ebe
00000110: 12df 553e 7216 a7bd 15bb 2dbe 3b6c 1ebe
00000120: ea71 5b3e ec11 f5bc 861e 3dbe 1aa6 cbbc
00000130: 5582 cbbd 883a 13be 667b d4bd 8ec9 2a3e
00000140: 8adb b23d 4d76 003e b862 923c 6c60 b9bd
00000150: 5a65 a7bd decb 14be 17c4 1cbe efb5 3cbe
00000160: bc65 143d 6c6d ee3d ddea 343e 6089 afbb
00000170: 9b66 d8bc 286d 93bc 8ab3 ae3d 2477 0cbd
00000180: 7e91 94bd 5ea2 69bd fb10 54be ecbc 2abe
00000190: d4cb bdbd 002d c43c a871 06be 8e16 b33d
000001a0: 8e1f ebbd a57f 563e 7f71 41be a5b5 fe3d
000001b0: e238 e6bd da9b 9ebd 2203 4fbe f178 4dbe
000001c0: c83e 4abe 4043 88bb 06ac 5c3e 74be d03d
000001d0: 9bd1 0a3e 29e1 513d 8451 abbd 70e5 aabd
000001e0: 8223 78bd 2fb7 4bbe 86ba f33d 1cce 83bd
000001f0: 4ad1 fabd 4c06 5c3d 0000 ba36 d13e 0d3e
00000200: d9e4 13be 4bcf 4e3e a680 b0bd 6689 a73d
00000210: 83dc 433e d07d 4bbc 0f03 49be b5ec 61be
00000220: 8de2 4b3e 4060 5bbe 9af6 a8bd 8ff5 153e
00000230: 9d5b 38be 0a33 4a3e 76bd 133c f2f9 703d
00000240: 7c27 0b3d bd48 9d3c fed9 f83d 5a19 40be
00000250: 63f5 573d 2ead c8bd 597d 483e 24bb 2e3e
00000260: 508a a9bd 7488 e13d e802 17bd c1c7 e93d
00000270: f358 81bd 0cbd 01be d212 bb3d e28b db3d
00000280: e9fb 3b3e 5da2 6d3d 6e6c dfbd 9c91 623d
00000290: 2082 553c 380a 393e 8d48 993d 1c4e 363e
000002a0: 21a7 023c ad11 28be db0e e6bd ec81 3e3e
000002b0: e18e 463e 5644 993d 9037 1ebe b300 223e
000002c0: 3e42 a53d ecee 2ebe b738 423d bcc3 4e3e
000002d0: 836e 12be d411 873b ac5c 7d3d 1571 a0bd
000002e0: 2a2d 0c3e d151 393e d3d0 573e fe6e 46be
000002f0: b079 453c edf7 343e 73db 3c3e c233 9cbd
00000300: 7db7 103e 816a 243e 5060 60bc 290e 183e
00000310: e170 fb3d 48ea 03bd 30d3 bcbd a18f edbd
00000320: 74b4 33be 4d16 06be d9d8 463d 9882 9b3d
00000330: 1dcb 80bd ecc1 a1bc 1942 183e 9d9f fa3c
00000340: 86d4 19be f705 3a3e 8bc6 053e e04f cc3c
00000350: a204 d03d 5167 3bbe 2592 003e b891 513d
00000360: 3a25 afbc 3ffb 90bd 8b0d 333e f878 343d
00000370: c1d0 fabd 8e62 c73d dcd9 1c3d 4476 9bbd
00000380: 9f5d 1b3e a45a 5b3e 6764 2cbc 48e5 b6bd
00000390: 68f7 edbd 9f7c eabd 6093 e13d a48f 093e
000003a0: 37d8 07be 4299 f53d 3232 eeba 0ada 11bc
000003b0: 8e05 8dbd a49b 4fbe d128 3ebe c792 223e
000003c0: 26aa 14bd 50d9 1abc e5fb 04be 48d3 28bd
000003d0: 64f9 acbd 052b 963c dd9f 53be 0025 8e3c
000003e0: 03e7 45be 8cd1 1ebe 6076 97bb d0ea bcbc
000003f0: 1c47 79bd 8bed 003e 3813 803c a747 3b3d
0.09009589 0.07295299 0.1399322 0.07542385 -0.04643747 -0.037648395 0.17994982 -0.0004767144
-0.17084965 -0.14136569 -0.15941903 0.01593889 0.16471028 0.12943423 0.06545917 0.075773954
-0.10255094 0.2030832 0.082574144 -0.13646126 -0.15587686 -0.19396375 -0.057307232 0.1621114
0.010449512 -0.09666977 0.060267165 -0.15036634 0.06311072 0.14782397 0.1052724 -0.06591755
-0.06674326 0.09663165 0.13766196 -0.05305536 -0.00049066544 -0.021785688 -0.0154697355 -0.1910139
-0.17581451 0.18561982 -0.12638454 0.16466011 0.1343251 -0.04614545 -0.10472583 0.0071884245
-0.034476887 -0.12845321 0.22300267 -0.015376658 -0.033286363 -0.13809451 0.035213515 0.030696113
0.2135197 -0.05958584 0.12176375 0.010501504 0.11493839 0.003794834 -0.03732954 0.10165804
-0.09407393 0.1344195 -0.1813404 -0.15520604 0.20885876 -0.08158578 -0.16965897 -0.15470974
0.21430174 -0.029915772 -0.18468675 -0.024859477 -0.09936968 -0.14377797 -0.10375099 0.1667845
0.0873328 0.12545128 0.017869338 -0.09051594 -0.08173628 -0.14530894 -0.15309177 -0.18428777
0.036229834 0.11641964 0.17667718 -0.0053569525 -0.026416114 -0.017996386 0.08530338 -0.03429331
-0.07254313 -0.05703961 -0.20709603 -0.1667363 -0.09267393 0.023947239 -0.13129294 0.08744536
-0.11480628 0.2094713 -0.18890952 0.1243699 -0.11241318 -0.0774457 -0.20216039 -0.20065667
-0.19750512 -0.0041584074 0.21549997 0.10192576 0.1355652 0.05124012 -0.08365157 -0.08344543
-0.060580738 -0.19894098 0.11900811 -0.064357966 -0.1224695 0.053716943 5.543232e-06 0.13793494
-0.14442767 0.20196263 -0.08618288 0.081805035 0.19127087 -0.012420133 -0.19630073 -0.22062953
0.19910641 -0.21423435 -0.082501605 0.14644454 -0.18003698 0.19746032 0.009017339 0.058832116
0.033973202 0.019199723 0.12150954 -0.18759671 0.052724253 -0.097986564 0.19579066 0.17063576
-0.08278334 0.110123545 -0.036868006 0.11415053 -0.06315794 -0.12669772 0.09134449 0.1072004
0.18357815 0.05801617 -0.10909353 0.055314645 0.0130315125 0.18070304 0.07484541 0.17803234
0.007974417 -0.16412993 -0.11233302 0.18604249 0.19390441 0.07483737 -0.15450883 0.15820579
0.08069275 -0.17083329 0.04741737 0.20191854 -0.1429997 0.0041219983 0.061855957 -0.07834069
0.13689104 0.18097617 0.21075754 -0.19378278 0.012052938 0.17672701 0.18443088 -0.076270595
0.14132495 0.16056253 -0.013694838 0.14849152 0.12277389 -0.03220585 -0.09219968 -0.11599661
-0.17549306 -0.13094445 0.048546646 0.07593268 -0.06288741 -0.01974579 0.14868964 0.030593688
-0.15022478 0.18166338 0.1306402 0.024940431 0.10157134 -0.18301131 0.1255575 0.05116436
-0.021380056 -0.070791714 0.17485635 0.044060677 -0.12246848 0.09735595 0.038293704 -0.07590917
0.15172432 0.21421295 -0.010521985 -0.08930451 -0.116194546 -0.11449551 0.11014438 0.13433701
-0.13266073 0.11992122 -0.0018172918 -0.008902082 -0.06885825 -0.20274216 -0.18570258 0.15876304
-0.03629508 -0.009451225 -0.12986715 -0.04121712 -0.08446005 0.01833106 -0.20666452 0.017351627
-0.19326405 -0.15509623 -0.0046222657 -0.023061186 -0.06085883 0.12590615 0.015634164 0.04572263

conv2.lin_l.bias f4 [64]
00000000: 910f 603d b02e e9bd 9563 4fbd 8859 293c
00000010: d67e c73d 9f78 bc3d 51f5 00bb 4dd4 05be
00000020: acdd 9b3c bdad 8bbd d312 de3d 6572 1cbd
00000030: 6d0d 14bd f640 3abc 1853 dd3d abb0 713d
00000040: 5353 b7bd 70e5 ba3c 8008 413d 2348 2bbd
00000050: af91 333d 3353 ddbd a7b0 87bd b972 bc3d
00000060: bcdd f13d ef86 253d 7e66 87bd e8bd 5d3d
00000070: 2481 8fbd 627b babd b119 a2bd c896 0dbc
00000080: 7953 aa3c 6004 de38 45a5 fd3d a662 bbbb
00000090: eff5 023e 23a0 d3bd c782 87bd a25e 2f3c
000000a0: 6c46 893d a051 6b3d c79c f43d 626d 98bd
000000b0: 6881 e63d 7c33 c53c aa0a f63c ef7a 79bc
000000c0: 7802 a8bd f89a 803d 3f76 0e3d 27d7 ac3d
000000d0: 1f72 ca3d 1ddb e1bd d959 e93d 920b e6bc
000000e0: 26d4 b5bd 9a70 da3d c19e aabc b2d4 ca3c
000000f0: a859 c03c a8c5 72bd d970 943d c17c 213d
0.054702345 -0.11385858 -0.05063208 0.010336287 0.09740989 0.09202694 -0.001967747 -0.13069268
0.0190266 -0.06820247 0.10843434 -0.038195033 -0.036145616 -0.011368027 0.108068645 0.059006374
-0.0895144 0.022814482 0.047127247 -0.04181684 0.043840107 -0.108068846 -0.06625491 0.09201569
0.118098706 0.040411886 -0.06611346 0.054136187 -0.070070535 -0.09105565 -0.079150565 -0.008641906
0.020791756 0.000105866 0.12385038 -0.005718547 0.12789129 -0.10333278 -0.06616741 0.010703715
0.06702885 0.05745089 0.119439654 -0.07442738 0.11255151 0.024072401 0.030034382 -0.015227064
-0.08203596 0.06279558 0.034780737 0.084394746 0.09885048 -0.11028121 0.1139409 -0.028081689
-0.08878355 0.10666008 -0.020827653 0.024759624 0.023480251 -0.05927053 0.072480865 0.039425615

conv2.lin_r.weight f4 [64, 64]
00000000: fa44 313e 6ba5 87bd f4ac 22be b4b2 2d3d
00000010: 38ea 83bd 0070 ea38 c14c 3abe ac34 403e
00000020: a0fc f5bd b63a babc f427 a43b 6b94 cebd
00000030: 6594 f93d 845d 3abe caad 0dbd 8808 16be
00000040: cd77 033e 13fd 24be ef86 2f3e 85c0 3fbe
00000050: 7c96 64be e004 ad3b e5d8 60be e8c7 483e
00000060: bf17 4f3e a723 d7bd bdb7 253e 2f9f aabd
00000070: 291b 3c3d a464 1bbe 1025 70bc 8062 87bd
00000080: f4b6 2c3d a401 823d 68af 55be f0af 6f3c
00000090: 5fad 2b3e 4f12 2c3e ab57 bb3d ad43 adba
000000a0: 46bd 113e 9a4c eb3d 6fbf 16be ccc7 9abc
000000b0: 7762 4dbe 1909 473c 50b0 863c b7f5 11be
000000c0: 2ab8 373d f350 193e bef6 42be 5fbe 4bbe
000000d0: 90ad d8bd bcb4 b63c 6f2d 57be 575c 31bd
000000e0: b76b 233e 9162 3dbe 88e1 6cbd 2077 3bbd
000000f0: f7fd 053e e4e1 a4bd a74d 283e c1a7 ecbd
00000100: e681 a43d f4ea 23bd f1fd 403e 8e68 d9bd
00000110: 129a a6bd 41f5 473e 99a1 2fbe c3b5 7a3d
00000120: c665 dc3d b90c 9abc 4feb 423e fb33 4ebe
00000130: 47ca 00bd 0e54 e9bd 2eb3 ae3d e7c4 583e
00000140: d404 59be 5ea7 c5bd f22d 24be 66b4 f8bd
00000150: 6e0c 863d 402b 513b eca5 2dbe bdf3 07be
00000160: c633 11be 3d8b 863c 3d95 36be e059 2dbe
00000170: 8ba0 31be 13d3 323e eded 213e 95cd d1bd
00000180: 3325 503d 71bd f7bc ac35 b2bd 5ec0 ce3d
00000190: da1f 15be 5443 3cba d4ae 253e 2a85 40be
000001a0: c5c9 363e ab72 123e ae16 c43d dac8 e7bc
000001b0: ae79 acbd 1270 f3bd 00be 20be 1e1d 58be
000001c0: 6c6b febc d44f 303d 879a 56be 043c 5a3e
000001d0: e968 1ebe 0a00 8c3c ec47 96bd fdc4 493e
000001e0: 4806 c1bd 67a4 673d 5653 8d3d 3a54 cb3d
000001f0: 0c6d 1bbe c590 f5bd 401c 1e3b bfac 5abe
00000200: 2609 adbd a6fe 39be c2fe c33d 10c9 b73c
00000210: 2d24 4fbe 73d0 583e 09cb b53d a708 febd
00000220: 367c b2bc 715d 163e 54c2 03be ebcd 5d3d
00000230: 2636 903d 5482 0ebe 29fa e8bd 4013 1dbd
00000240: 316d 2dbe 0dcc 3e3e c437 7d3d c824 8dbd
00000250: 57ad 26bb 4012 1b3b 81ec 923d 097d 1d3e
00000260: d74f 3abe 8daa 9dbd 32e0 9f3d 07a7 f7bd
00000270: 19bd 2ebc aeb9 81bd 6610 fe3d 13c0 edbd
00000280: 83d2 473e bfe9 d23d fbeb 1ebe 444f 30bd
00000290: 2860 a6bc 1ef7 58be 1cfd 3dbe 1872 373e
000002a0: 874e 1f3e 54fb 16be 85a7 0bbb 9b78 6e3d
000002b0: 6947 073e 6262 443e e515 0b3e 79dd 373e
000002c0: 4fbc 0fbe 9020 4abd 312a d43d e5a1 2abe
000002d0: acb2 56be 12f5 f93d 31a7 213e 8a34 b13d
000002e0: 24d7 0c3e f289 cf3d 3021 f03c 00a8 47bd
000002f0: 788d f43c 5aa7 9abd efff 333e 4c43 3b3e
00000300: 92d5 87bd 7d74 c73d 24c6 70bd 3b64 313e
00000310: 4e9c 45be 885c fc3c 6e69 72bc eed9 183e
00000320: 3075 c03c 7e60 3d3d 9a74 58be 266f f4bd
00000330: 98a5 4e3e 94fc 8abc a43e c33d d05c 33be
00000340: da4b e43d f741 b8bd 98fe b5bc d5e7 503e
00000350: 32c3 1c3e c864 42be c4e9 c3bd f3a3 043e
00000360: 80f5 22bd e613 313e 7a2d b63d 48bb c4bc
00000370: c3fd 0dbe 3095 4b3c c1de 2e3e e95f 2a3e
00000380: 8165 bcbd 4d52 6cbd 95cc 903d c470 3cbe
00000390: 00f8 ec3c 801f 693d 7a29 5a3e 789c d5bc
000003a0: 53ec 583e f3a0 573e 55d8 d7bd 46e0 0e3d
000003b0: 7a25 fe3d c02e afbc 66de f2bd 2c18 3d3d
000003c0: fd2b c23d 9ba2 33be c638 35be 298c 25be
000003d0: 2ee4 29be 0380 443e bd38 c5bd 20a3 d2bc
000003e0: 7212 68bd 6aa1 e0bd 0594 3b3e 0053 9ebd
000003f0: 79a1 063e 41e7 ccbd 2975 593e bdf7 563d
0.17311469 -0.06623348 -0.15886289 0.042406753 -0.06441158 0.00011178851 -0.18193342 0.18770093
-0.12011075 -0.022733074 0.0050096456 -0.10086902 0.12186507 -0.18199736 -0.034589566 -0.14651692
0.12838669 -0.16112165 0.17141317 -0.18725784 -0.2232303 0.005280122 -0.21957739 0.19607508
0.20223902 -0.10504847 0.16183372 -0.08331143 0.04592434 -0.1517511 -0.014657274 -0.06610584
0.042166665 0.06347969 -0.20867693 0.014629349 0.16765355 0.16803859 0.09147581 -0.0013219021
0.14232358 0.1148922 -0.14721464 -0.018894099 -0.20057093 0.012148165 0.016441494 -0.14253889
0.044853367 0.14972286 -0.19039437 -0.1989684 -0.105799794 0.022302978 -0.21013425 -0.043300953
0.15959059 -0.18494631 -0.05783227 -0.045767903 0.13085161 -0.08050898 0.16435872 -0.11555434
0.08032589 -0.04001899 0.18846871 -0.10615645 -0.08134855 0.1952715 -0.17151488 0.061208498
0.10761599 -0.018804895 0.19035076 -0.20137016 -0.031442907 -0.11392985 0.085302696 0.21168862
-0.21193248 -0.096510634 -0.16033152 -0.12143783 0.065453395 0.0031916648 -0.16957825 -0.13276573
-0.14179906 0.016423816 -0.17830367 -0.16928816 -0.17346399 0.17463331 0.15813418 -0.1024429
0.050816726 -0.0302417 -0.08701643 0.10095285 -0.14562932 -0.00071816635 0.16179973 -0.18800798
0.17850406 0.14301555 0.09574638 -0.028294016 -0.08421646 -0.1188661 -0.15697479 -0.21104857
-0.031057082 0.04304488 -0.20957385 0.21311957 -0.15469708 0.017089862 -0.07337937 0.19704051
-0.09425026 0.05655327 0.06900661 0.09928174 -0.15178317 -0.11990503 0.0024125725 -0.2135496
-0.084490106 -0.18163547 0.095700756 0.022434741 -0.20228644 0.21173267 0.088766165 -0.12403994
-0.021787744 0.14684083 -0.12867099 0.054151457 0.07041578 -0.13916904 -0.11375839 -0.038348436
-0.16936184 0.18632527 0.06182076 -0.06891781 -0.0025432908 0.0023662 0.07174016 0.15379728
-0.18194519 -0.076985456 0.07806434 -0.12092405 -0.010665202 -0.06334244 0.124054715 -0.11608901
0.19513898 0.1029849 -0.15519707 -0.043044344 -0.020309523 -0.21188018 -0.18553585 0.17914617
0.155573 -0.14744312 -0.0021309566 0.058220487 0.13210835 0.19178155 0.13582571 0.17955579
-0.14036678 -0.04934746 0.1035961 -0.1666332 -0.20966595 0.122049466 0.15786435 0.08652599
0.13753945 0.10133733 0.0293127 -0.0487442 0.029852614 -0.07551451 0.175781 0.1828739
-0.06632532 0.09739015 -0.05878271 0.17323391 -0.19297907 0.030805841 -0.014795644 0.14926884
0.02349338 0.0462346 -0.2113823 -0.119352624 0.20180357 -0.016966142 0.09533432 -0.17515874
0.1114728 -0.08996957 -0.022216126 0.20400937 0.15308836 -0.18983757 -0.09566072 0.12953167
-0.03978491 0.17292747 0.08895393 -0.024015084 -0.13866334 0.012425706 0.17077161 0.1663815
-0.09199048 -0.057695676 0.07070271 -0.18402392 0.02892685 0.056914806 0.21304885 -0.026075587
0.211839 0.21057491 -0.10539309 0.034881853 0.12409492 -0.021384597 -0.118588254 0.04616563
0.09481046 -0.17542498 -0.17697439 -0.16166748 -0.1659095 0.19189458 -0.096299626 -0.02571255
-0.056658216 -0.10968287 0.18318184 -0.07730675 0.13147534 -0.10005046 0.212361 0.052482355

conv2.lin_r.bias f4 [64]
00000000: ca29 23bc 9b31 c0bd cfb8 c4bd 848f 933d
00000010: cb71 d6bd 6687 de3c 6f10 ea3d 2e32 2cbd
00000020: 92a0 8d3d c961 623d e9ab e6bc 38c9 9dbd
00000030: c775 92bd 7630 fabd 0f2d 943c 5b89 073d
00000040: c3be 04bd 8526 893d 5959 0ebc 89b5 1c3d
00000050: 35df f83d db97 ef3d 05da d83d bcbc 39bd
00000060: 4cfd 2e3b bf6a 1abd 7037 3b3d e072 963d
00000070: a215 aa3c 32a8 24bd 371f ad3c 0367 bdbd
00000080: f4f1 ecbd 1d9b b0bc beb3 26bc 13a2 d6bc
00000090: d849 663d 8b27 213d 2fc6 f53c f535 fe3c
000000a0: b704 e8bb 7c57 0a3d b331 afbd a84d a3bd
000000b0: 297b 703c 6da1 a13d 26e0 ad3b 18c4 e83d
000000c0: 0f48 e13d 8904 efbd bcd9 6bbd d500 323d
000000d0: b43f 9cbc 3ec5 2b3d 3f8d 8cbd 59dc 883d
000000e0: 995a 93bd 1ef8 123c 5a54 ccbd 6c75 13bd
000000f0: f884 9f3d 9f59 843d eca5 b8bd 936b 9d3d
-0.009958694 -0.093844615 -0.09605562 0.07205108 -0.10470923 0.027164172 0.11428916 -0.042040043
0.06915392 0.055269036 -0.028158145 -0.07704395 -0.071513705 -0.122162744 0.018087892 0.033089977
-0.032408487 0.066968 -0.008688294 0.038259063 0.12151948 0.11698886 0.10588459 -0.045346007
0.002670127 -0.037699457 0.045707166 0.073461294 0.020762268 -0.040199466 0.021133048 -0.092481636
-0.115695864 -0.021558339 -0.01017469 -0.02620033 0.056222767 0.03934435 0.030001728 0.031031588
-0.00708064 0.033774838 -0.08554401 -0.07973796 0.014677801 0.07892118 0.0053062616 0.11365527
0.11000072 -0.11670787 -0.057580695 0.043457825 -0.019073345 0.04193615 -0.06862878 0.06682653
-0.071950145 0.008970289 -0.09977026 -0.036000654 0.07789034 0.06462406 -0.09016022 0.07686534

conv2.lin_edge.weight f4 [64, 1]
00000000: 90cc 0abd 2dd0 63be aa49 873e 86b8 eb3d
00000010: c97b 323d 2cd8 de3d 3269 fd3d b9d6 92be
00000020: a4a3 3a3e e90c 6f3e 7cd8 d93c e154 9abd
00000030: 9a09 043d 652e 043d 635d 813d 11b0 3bbe
00000040: 752f 393e 8327 f63c 0a62 f03c efe6 fdbd
00000050: b052 813e 2868 54be ed6f e8bd 6d16 4ebe
00000060: 5d50 753e 41e4 e2bd cc79 ca3c faa8 22bc
00000070: eaa9 5f3e 9a0d 7dbe 4f05 2cbe 749b 91be
00000080: 5d3a 9abd 83fb 8bbe 745c f7bb 0eb5 033e
00000090: 86d4 de3c 87a2 273d 9f48 99bd 100e 6bbe
000000a0: 2d76 18bd ee2f 853e 8765 423d c520 323d
000000b0: d5ce d2bd 47b2 443e 11a2 433e a153 5d3d
000000c0: 076b 5f3e ffa1 203d 9dc7 02bc 4acf c23d
000000d0: f09a 9dbe 6590 523e 7ed3 2dbe 1087 13be
000000e0: eb5d e4bb 786b 5fbe c03b 3ebe b1f4 833e
000000f0: e906 2dbd d90f fc3d 86b4 4a3d b3e5 923e
-0.033886492 -0.22247382 0.2642339 0.115098044 0.043575082 0.10881075 0.1237358 -0.28679445
0.18226486 0.23344769 0.026592486 -0.075357206 0.03223572 0.032270808 0.0631664 -0.18328883
0.1808451 0.030048138 0.029343624 -0.12397563 0.25258398 -0.20742857 -0.11349473 -0.20125742
0.23956437 -0.11078692 0.02471628 -0.009927982 0.21842161 -0.2471222 -0.167989 -0.28438914
-0.07530663 -0.27340326 -0.007548863 0.12862036 0.027200948 0.040926483 -0.074845545 -0.22954583
-0.037222076 0.2601313 0.047460105 0.043488283 -0.10293356 0.19208632 0.19104792 0.054034833
0.21818171 0.03921699 -0.007982162 0.095121935 -0.3078227 0.20562895 -0.16975209 -0.14406991
-0.0069692037 -0.2181834 -0.1857748 0.25772622 -0.04224292 0.1230771 0.049488567 0.28690872

norm2.weight f4 [64]
00000000: fe86 803f 0000 803f 93a9 7e3f 4942 803f
00000010: 9e2c 813f 0000 803f 0000 803f c531 7f3f
00000020: 4405 7f3f ff33 813f 333e 7f3f 0000 803f
00000030: a003 803f 0000 803f c059 7f3f 0000 803f
00000040: 0000 803f 0000 803f 487b 803f 0000 803f
00000050: 0000 803f 84a0 813f 0000 803f afc7 823f
00000060: 0000 803f 0000 803f 7410 813f 0000 803f
00000070: 881a 7f3f 0000 803f 8776 813f 8672 803f
00000080: 0c31 7f3f 1417 7d3f faa5 7f3f 29fa 803f
00000090: dc31 833f 0000 803f 0000 803f 9609 7f3f
000000a0: 0000 803f ce77 853f 33b6 803f a589 7f3f
000000b0: af31 7f3f da9c 7e3f 0000 803f d5f1 7d3f
000000c0: 305d 813f 0000 803f b1c0 813f 5f01 803f
000000d0: ff05 813f 4dc9 7f3f 0000 803f ac66 803f
000000e0: 1f8e 803f 83c0 7f3f 0000 803f 199e 803f
000000f0: 339c 803f 0000 803f 4f97 7f3f 9820 7f3f
1.0041196 1.0 0.994775 1.0020229 1.0091741 1.0 1.0 0.9968532
0.9961741 1.0093993 0.99704283 1.0 1.0001106 1.0 0.9974632 1.0
1.0 1.0 1.0037622 1.0 1.0 1.012711 1.0 1.0217189
1.0 1.0 1.0083146 1.0 0.9964986 1.0 1.0114297 1.003495
0.99684215 0.9886334 0.99862635 1.0076343 1.0249591 1.0 1.0 0.99624
1.0 1.0427186 1.0055603 0.99819404 0.99685186 0.99458086 1.0 0.9919713
1.0106564 1.0 1.013693 1.0000418 1.0079955 0.99916536 1.0 1.0031333
1.0043372 0.99903125 1.0 1.0048248 1.0047668 1.0 0.99840254 0.9965911

norm2.bias f4 [64]
00000000: 6f60 b13b 0000 0000 9396 b6bb 0951 4d3a
00000010: b599 0c3c 0000 0000 0000 0000 fd6b 94bb
00000020: 6165 30ba 802b a63b ebcb f739 0000 0000
00000030: 9ebb 0a3b 0000 0000 d915 cfba 0000 0000
00000040: 0000 0000 0000 0000 39df 0f3c 0000 0000
00000050: 0000 0000 056f a33b 0000 0000 c659 733c
00000060: 0000 0000 0000 0000 93d4 c63b 0000 0000
00000070: b48f 93bb 0000 0000 a28c 0b3c b7be b63b
00000080: 23c2 28bb 52f5 0bbc 0284 c43b 3d67 063c
00000090: 80b0 633c 0000 0000 0000 0000 c3f9 abbb
000000a0: 0000 0000 a686 b83c 434c 26bb 3590 58bb
000000b0: 23be 17bb 545c 89bb 0000 0000 5b6d 11bc
000000c0: b182 163c 0000 0000 55dd 153c e966 d23a
000000d0: 101a 043c 5a0f 68bb 0000 0000 e449 8b3b
000000e0: 1d0d 743b ccc7 adb9 0000 0000 8026 da3b
000000f0: 541a e13b 0000 0000 5218 d1bb a527 a0bb
0.005413107 0.0 -0.005572149 0.00078322046 0.0085815685 0.0 0.0 -0.004529475
-0.0006728974 0.0050711036 0.00047263442 0.0 0.0021168957 0.0 -0.0015799358 0.0
0.0 0.0 0.008781248 0.0 0.0 0.0049876 0.0 0.014852947
0.0 0.0 0.0060678213 0.0 -0.0045032147 0.0 0.008517416 0.005576934
-0.002575048 -0.008542376 0.005997182 0.008203325 0.013897061 0.0 0.0 -0.00524828
0.0 0.022525143 -0.0025375045 -0.0033044938 -0.0023154102 -0.0041919146 0.0 -0.00887617
0.009186433 0.0 0.009147008 0.0016052398 0.008062854 -0.003540954 0.0 0.004250752
0.0037239261 -0.00033145992 0.0 0.0066574216 0.0068695936 0.0 -0.006381073 -0.0048875385

policy_head.0.weight f4 [32, 64]
00000000: 8009 42bc e46c 5fbd 66a9 c3bd c08a 93bd
00000010: 5453 8dbd 2890 f03d 0028 0bb9 6a0b 92bd
00000020: 8004 1ebc e08f a0bb 60f4 f83c f4b9 263d
00000030: f48d a03d f401 7fbd 684d ddbc 9eb4 dbbd
00000040: 381a 38bd a213 e1bd 6088 31bc 66bf 9abd
00000050: 8c47 2fbd 388a ef3d 0ec5 e73d 5844 853c
00000060: 5044 823d ca67 a53d 2023 b43b 88f1 cb3c
00000070: f0af 09bc 9431 ccbd ceea cb3d 92ac bdbd
00000080: cc1b 19bd f616 d5bd 2eaa 97bd fedc fe3d
00000090: 90f9 3cbc f44b 203d f0c2 f73c a0fe c73d
000000a0: c056 d63c 80c7 903b 84f8 6abd 58d8 bb3c
000000b0: 8067 de3c e84f b0bd dc26 b9bd 5461 5dbd
000000c0: de3d dc3d 6069 4b3d bc50 8f3d 749e aa3d
000000d0: 006e a3ba d0ef aabd 1e4a f53d c0af a83c
000000e0: 6c2d 38bd a80e 4e3d 20c0 b3bd 205f 903b
000000f0: acb8 ed3d 34ca 283d f6f2 efbd b037 df3d
00000100: 279c 973c 0cd6 08bd 28fb b93d 07fc 3f3d
00000110: 7545 843d 3072 7a3d 3a61 8fbd 3f58 c5bd
00000120: cb44 a73d 4d22 8dbc f09b c03d 9464 7e3d
00000130: bf78 03be 62ea 8b3d 33c7 833d 9a76 f6bd
00000140: e004 f23b f289 ccbd 9e44 613d 0e44 883d
00000150: 9cd9 1b3d e3d3 b63d be0b 8ebd f97b 71bc
00000160: c8b8 0abd c6a9 c33d cc99 a43d 20a3 34bd
00000170: f69f dfbd 60ca 8ebb 4c15 b53d 3e8e 05bd
00000180: 9f02 313d 3b92 cbbd 2100 b5bd a3ff ebbd
00000190: b8fa 01be f01d 50bd 885a 5abd 7e34 303d
000001a0: 36fc d23d 8def c0b9 f55f 593d 454e a8bd
000001b0: c4ce 79bd a3ac fcbd b8b6 ef3d 23b9 963b
000001c0: 1652 2ebd 3ee9 e9bd ad2f 533c e04e 05be
000001d0: 0cf1 9b3d 4ef9 fbbd 1832 db3c 6638 8e3d
000001e0: e2f5 dfbd 6361 ac3d 08c5 f53d bee1 a33d
000001f0: 2b59 d93d 5c90 6fbd dc0e cebc 1510 de3d
00000200: 014b 6e3d e4c3 adbd 7224 fa3d 9acc 3fbc
00000210: 6d0d 24bd 5033 8d3c f251 f63d e41f 8ebd
00000220: 7efc 443c ce29 f6bb bb3f d4bc c021 6c3d
00000230: c3a8 e53b f006 d2bd 49e0 16bb debb a13d
00000240: 6cc5 72bd 2a71 e33d 3984 e1bd 5865 2d3d
00000250: 60bf 9e3d 1265 0b3d 703b 4a3d 3cbd 1f3d
00000260: 00b6 d7bc 6a76 b73d b5c8 cfbc b81e d73d
00000270: 1473 ed3d c0a5 ddbd a193 d73d fd03 d03c
00000280: e597 b2bd dd94 84bd 8937 cebc 2b69 ed3d
00000290: 24fb bb3d e429 08bd cad4 98bd 9ef8 b2bd
000002a0: 2c59 81bd 149f 013d 5b45 fbbd 81df e6bd
000002b0: 9a8e a5bd 8a62 fa3c 28c0 353d 8732 243d
000002c0: ef65 d83d 58e0 f73c 78e3 2fbd 5a8c 493d
000002d0: f8b3 6fbd 4a3f d73d 5485 44bd 53a6 a2bd
000002e0: 8e6f bebc 8c13 8cbd 00af 4dbc 4af8 babc
000002f0: ece9 403c 2083 87bc a6ac c2bd bdf0 f5bd
00000300: 0814 b9bd fa36 eebd 5449 ffbd 366f f83d
00000310: 1ee6 953d f824 683d 96d6 a43d d09e 1b3d
00000320: b022 29bd 4059 7ebc c073 52bd 9cf2 663d
00000330: 30c6 033d 9a06 d7bd c821 9f3c 4214 c5bd
00000340: 487f c03d 107f 5e3c 00d9 fcba 6a5c 97bd
00000350: e0c1 9d3c 804b 823c e071 033d 644a b3bd
00000360: 7c37 58bd 7663 b2bd e007 a0bd 224c 8cbd
00000370: 207c cebd f083 fb3d da43 f2bd e010 06bd
00000380: 40a7 ad3b f02e 4ebd a804 0ebd 80a2 6f3d
00000390: d84c ebbc 9008 72bc 9ae5 e13d c0cd 37bd
000003a0: 0039 b5bb a4dc a23d 0021 f0bc 0035 ccbd
000003b0: 1822 c53d 26a0 dcbd cc50 fcbd 7674 83bd
000003c0: d0d5 873c 0a6c cf3d 40d9 c7bd 8cda 7ebd
000003d0: da40 e73d c4db c73d 58e6 413d eeba d8bd
000003e0: 64b0 8c3d e026 02bc 9cc3 c4bd b68b c83d
000003f0: 5417 afbd 18e2 a63c 5a7b 8bbd a407 d93d
-0.011843085 -0.054547206 -0.095537946 -0.07204199 -0.06900659 0.117462456 -0.00013270974 -0.07131083
-0.009644628 -0.0048999637 0.030389965 0.040704682 0.078395754 -0.062257722 -0.02701445 -0.10727809
-0.04494688 -0.10990073 -0.010835737 -0.075560376 -0.04279284 0.11696285 0.11316882 0.01626794
0.06360686 0.08076437 0.0054973513 0.024895445 -0.008403763 -0.09970394 0.09956895 -0.09261431
-0.037380025 -0.1040477 -0.07405506 0.12444495 -0.01153411 0.039134935 0.03024432 0.09765363
0.026164412 0.0044183135 -0.05736591 0.02293031 0.027148962 -0.08608991 -0.09040615 -0.054047897
0.10753988 0.04966104 0.06997821 0.08331004 -0.0012468696 -0.08346522 0.11977027 0.020591617
-0.044965193 0.050306946 -0.08776879 0.004405871 0.11607489 0.04120846 -0.11716263 0.108992934
0.018507076 -0.033407256 0.090811074 0.04687121 0.064585604 0.061144054 -0.07000966 -0.09635972
0.08167418 -0.01722827 0.09404743 0.062107638 -0.1283903 0.06831814 0.064344786 -0.1203434
0.007385835 -0.099872485 0.05499708 0.066536054 0.038049325 0.08927133 -0.069358334 -0.01473903
-0.033867627 0.09553866 0.08037147 -0.04410088 -0.10919182 -0.004357621 0.08841953 -0.032606356
0.04321539 -0.099400006 -0.08837915 -0.11523368 -0.12693298 -0.0508098 -0.053308994 0.04301881
0.10302012 -0.00036799573 0.053070027 -0.08218054 -0.060988203 -0.12337615 0.11704773 0.0045997067
-0.042558752 -0.114214405 0.012889785 -0.1301837 0.076143354 -0.123034105 0.026757285 0.06944351
-0.1093557 0.084170125 0.12000471 0.08002041 0.106127106 -0.05848728 -0.02515357 0.10842911
0.058176998 -0.08484629 0.12213983 -0.011706496 -0.040051866 0.017236382 0.120273486 -0.069396764
0.012023089 -0.0075123077 -0.025909295 0.057649374 0.0070086434 -0.102552295 -0.0023021868 0.07897161
-0.059270307 0.11105569 -0.110115476 0.042332977 0.07751346 0.034031935 0.04937309 0.038998827
-0.026331902 0.089581326 -0.02536426 0.10503906 0.11594215 -0.1082263 0.10526205 0.025392527
-0.08720378 -0.06473706 -0.025172966 0.11592325 0.09178761 -0.033243075 -0.07462461 -0.08738826
-0.06315836 0.03164585 -0.12269088 -0.11273099 -0.0808384 0.030564565 0.044372708 0.04008725
0.10566317 0.030258343 -0.04294154 0.049206115 -0.05852124 0.10510118 -0.047978714 -0.0794188
-0.023246553 -0.06839666 -0.01255393 -0.022823472 0.011774521 -0.016542017 -0.09505586 -0.12008808
-0.09037024 -0.1163158 -0.12465158 0.12130587 0.07319282 0.05667588 0.080487415 0.037993252
-0.041292846 -0.015524209 -0.05137992 0.056383714 0.03217143 -0.10499306 0.019425288 -0.096230045
0.09399277 0.013580099 -0.0019290745 -0.073906735 0.019257486 0.015905142 0.03209102 -0.08754423
-0.05278729 -0.08710377 -0.07814002 -0.06850459 -0.10082269 0.122810245 -0.11829348 -0.032730937
0.005299479 -0.05033773 -0.03467241 0.05850458 -0.028723165 -0.014772549 0.11030121 -0.044873953
-0.0055304766 0.0795224 -0.02931261 -0.099710464 0.096256435 -0.107727334 -0.12320098 -0.064186975
0.016581446 0.10128029 -0.09758234 -0.06222014 0.11291666 0.09758714 0.047338814 -0.10582529
0.06869581 -0.007943839 -0.09607622 0.09792273 -0.08549371 0.020371482 -0.06810637 0.105971605

policy_head.0.bias f4 [32]
00000000: c2e2 bfbd bd78 efbd a900 493d 2007 84bd
00000010: a094 b03d 7c6f 9c3c fd97 9ebd e46f cfbd
00000020: dbca abbd 0918 f73d 8038 603b e28b 95bd
00000030: cf24 ed3d 8425 333d 08c7 d23d 956d c23d
00000040: 9ea5 9d3d 5ebc 843d 13e7 483d 77c4 2e3d
00000050: acd9 7b3d 80ad 18bd f6bc a7bc 68f2 5cbd
00000060: 02e7 8bbd a28d d93d 2c29 993d c830 d73d
00000070: ad69 3f3d 09d3 9f3d 9c63 9b3d 3033 acbc
-0.093694225 -0.11692951 0.049072895 -0.064466715 0.08622098 0.019096129 -0.07743833 -0.10128763
-0.08388301 0.12065131 0.0034213364 -0.07302071 0.11579286 0.04373695 0.102918684 0.09493557
0.076976046 0.06481241 0.049048495 0.042667832 0.061486885 -0.037274837 -0.020475846 -0.053942114
-0.068311706 0.106227174 0.07478556 0.10507351 0.04673164 0.07803924 0.07587358 -0.021020502

policy_head.2.weight f4 [2, 32]
00000000: 1950 28be 432f 783d 632d 83bd f592 e7bd
00000010: da4f 033e b7ce 193e d93e d13d 74fe 89bd
00000020: 8503 9ebd fda7 173e b6bf d73d d0c4 fbbc
00000030: b7bf 16be c2fc a0bd 9348 a4bd 239b e9bd
00000040: 5966 17be 283c 24bd c3ef 083e b05d 05bd
00000050: fcf3 953d 0003 3f3b 84aa 24be a39a 103e
00000060: f9d9 1a3e 9467 1bbd 06e3 803d 0f5c 793d
00000070: dd29 f3bd 79a0 d73c 1197 cebd 9ddf a23d
00000080: 4fdb 0ebe d74a 723c 90eb 49bd fb0e 1bbe
00000090: 98f6 a73c 6042 28bd 6419 0bbc 6f2d a43c
000000a0: df4e 103e 3eea fcbd 52bb 9c3d 4438 d1bd
000000b0: 61db bd3d f2da 813d 1f89 1f3e 8a5e 8cbd
000000c0: 7919 763c 0805 24bd 718a 0bbe 7e9f 0cbe
000000d0: 55ef 2a3e c0f6 bb3b 9cb7 e53d dcda 23be
000000e0: 9d3c 103e 7a82 cc3d f6f6 b93d 7e31 013e
000000f0: 6498 e2bd ee3e 8d3c 848d 1dbe 8488 ddbb
-0.16436805 0.060591947 -0.06405141 -0.11307327 0.1282343 0.15020262 0.10217065 -0.06737986
-0.07715515 0.14810176 0.10534613 -0.030733496 -0.14721571 -0.0786071 -0.08021655 -0.11406543
-0.14785136 -0.040096432 0.13372712 -0.03256005 0.07321927 0.0029146075 -0.16080672 0.14121489
0.15122212 -0.037940577 0.06293301 0.06087881 -0.11873219 0.026321637 -0.100874074 0.07952807
-0.13950847 0.014788351 -0.049296916 -0.15142433 0.020503327 -0.041078925 -0.00848994 0.020041196
0.14092587 -0.12349366 0.07652916 -0.1021581 0.09270359 0.06340589 0.15579651 -0.068539694
0.015020722 -0.04004386 -0.1362703 -0.13732716 0.1669286 0.005736202 0.11216661 -0.16001457
0.14085622 0.09985824 0.09080307 0.12616536 -0.110642225 0.017241921 -0.15386015 -0.0067606587

policy_head.2.bias f4 [2]
00000000: 2980 083e c5ca cc3d
0.13330139 0.09999613
