model/samples/gat_decoder.pth (torch, 61820 bytes, 21 tensors)

conv1.att f4 [1, 8, 8]
000000 e1 91 3e bf 48 db 0b 3f 4b 0d 07 bf de 73 92 bf
       -0.74441344 0.5463147 -0.5275466 -1.144161
000010 c5 2f 92 bf 2b 97 7e bf 48 0f 27 bf 19 0c d5 be
       -1.1420828 -0.99449414 -0.6525769 -0.41610792
000020 44 e0 29 3f f0 98 d1 3e e9 7c 29 3e b1 c1 d0 3e
       0.6635783 0.40936995 0.16551556 0.40772775
000030 04 cc 83 bf 00 56 5e 3d 2f c9 36 3f cd 59 00 3e
       -1.0296636 0.054281235 0.7140073 0.12534256
000040 bd 01 63 3f e2 62 5f 3f 89 94 8b 3e 4a 47 26 bf
       0.8867453 0.8726026 0.2726176 -0.6495253
000050 c3 c5 52 3f d7 c9 84 be a1 c7 8e be e8 2c 09 3f
       0.8233301 -0.25935242 -0.2788668 0.53584146
000060 8e 24 15 be e2 96 59 bf b5 44 e2 3e 03 f9 95 bf
       -0.14564726 -0.84995854 0.44193044 -1.1716617
000070 d1 20 2a 3f 12 72 62 bf 27 db 0d 3f 69 fd 41 bf
       0.66456324 -0.8845531 0.55412525 -0.757773
000080 0f 1b 3e bf 58 48 c7 3f 84 b8 86 3f ff 13 c5 3f
       -0.7426004 1.5568953 1.052506 1.5396727
000090 df 2b bf 3f 87 9a f5 3c a0 27 2d 3f ed e9 a4 bf
       1.4935263 0.029980911 0.6763859 -1.2883888
0000a0 51 c4 bf 3e 6a 93 16 3f 34 04 f3 be 96 82 e1 3e
       0.37454465 0.58818686 -0.47464144 0.44044942
0000b0 ba d7 a0 3e 52 86 c7 3d cc 4d 99 be ee b7 ae be
       0.31414586 0.097424164 -0.29942167 -0.34124702
0000c0 b0 45 50 3c 7c 75 f1 be 93 29 28 3f 09 1d 1e bf
       0.012711927 -0.47159946 0.6568844 -0.61763054
0000d0 31 22 32 3f c0 22 80 3f 7e f9 7c 3f fa 35 13 3f
       0.6958342 1.0010605 0.98818195 0.57504237
0000e0 11 79 e2 3d 2a 1e 38 bc 3c 0c 19 3f e9 dd 01 bf
       0.11058248 -0.01123766 0.59784293 -0.50729233
0000f0 41 a6 dd be 49 fc 47 3f 3a e0 45 3f a2 22 2b bf
       -0.43290904 0.7811933 0.7729527 -0.6684972

conv1.bias f4 [64]
000000 31 f9 9f bd 19 7f d6 bd d5 85 5c 3e 3f bf 10 be
       -0.07811201 -0.10473461 0.21535428 -0.14135455
000010 ea f3 d6 3d 5d 58 96 3e d2 71 7c 3e be 51 8d 3d
       0.10495742 0.2936429 0.24652794 0.06900357
000020 10 2c 88 3e 70 2b 7b bb 1c 5a 3e bc 59 a8 80 3e
       0.26596117 -0.0038325451 -0.011618163 0.2512844
000030 f8 5b b7 3d 18 45 82 3d 86 3f 13 bd 00 66 76 bd
       0.089530885 0.06360835 -0.035949253 -0.06015587
000040 86 a3 4f 3e 42 19 80 3e b4 f0 ed 3e eb cc b4 3e
       0.20277223 0.2501927 0.46472704 0.3531259
000050 c3 26 ed 3d 09 ea c3 bb ec 04 2a be 7b bd 98 bc
       0.11579659 -0.005978827 -0.1660344 -0.018645039
000060 63 c1 5d 3d 3d 00 3d 3e e1 ec 91 3d 13 c6 3c 3d
       0.054139506 0.18457122 0.07125259 0.046087336
000070 86 c9 08 be ba 4b 50 3e 4b 0d 92 3e 44 fc 6e 3e
       -0.13358125 0.20341387 0.28525767 0.23338419
000080 28 4e 80 3e 13 02 cc 3e 43 c5 8a bc d5 89 3c 3d
       0.25059628 0.39845333 -0.016939765 0.046029884
000090 77 e3 7b bd 8f 84 d3 3d a2 95 81 be 22 8d bb 3d
       -0.061496224 0.10328018 -0.25309473 0.09157778
0000a0 8c ba 6a 3d 1c b9 9d 3d e8 99 df 3d 2e b6 9a 3d
       0.05730681 0.077013224 0.10918027 0.07554279
0000b0 b6 14 45 3d 5d e3 a2 bb f1 dd c0 3e 71 5f 31 3e
       0.048115455 -0.0049709515 0.37669328 0.17321564
0000c0 6e 43 9e bd 38 71 0d 3e 25 ca 9d 3e 0c 91 33 3e
       -0.07727705 0.13812721 0.30818287 0.175358
0000d0 36 66 4b 3d 41 f4 20 be b1 e8 8d bd 83 47 af 3e
       0.049658023 -0.15718175 -0.06929148 0.34234247
0000e0 ba 74 f8 3b 83 7e 93 3d 1b 64 2f 3e 69 55 2d 3e
       0.0075822743 0.072018646 0.17128031 0.16927113
0000f0 ee 6b 81 3d cc 71 e8 bb 7f 86 92 3e 5a e4 48 3d
       0.06319414 -0.007093644 0.28618237 0.049045898

conv1.lin_l.weight f4 [64, 2]
000000 76 f4 91 be f3 8b ed 3b 40 52 ef 3e e2 b4 b3 3d
       -0.2850682 0.0072493493 0.4674244 0.08774735
000010 55 5c ab 3e 1b fc 3a be 1c 7b 80 3d a5 19 97 3e
       0.3346888 -0.18260233 0.06273481 0.29511753
000020 26 1a d9 3e 9c 23 ce 3e e6 41 a9 3e 65 50 ec 3e
       0.42402762 0.40261543 0.3305809 0.46155086
000030 1f a8 92 be 0b 81 32 be 6b 6c de 3e 51 17 92 3e
       -0.2864389 -0.17432038 0.4344209 0.28533414
000040 91 94 63 be d8 2f 00 3f 01 4b f6 be bf 05 f6 3e
       -0.22224642 0.50073004 -0.48104098 0.4805126
000050 da 3d c8 be 96 f3 bc 3e 96 4c 93 3e 25 6b 7c 3e
       -0.3910969 0.3690459 0.28769368 0.24650247
000060 75 93 44 be aa ae 0f bf 41 91 1f bf 89 cc c2 be
       -0.19196875 -0.5612589 -0.62331015 -0.38046673
000070 90 92 bf be d0 e6 0d bf c8 6d 6f 3d 18 29 1b bf
       -0.37416506 -0.55430317 0.058454305 -0.6060958
000080 67 6b 9a be bc dc 0a bf be 2a 94 bd fb 1a f2 be
       -0.30160066 -0.54243064 -0.07234715 -0.4728621
000090 0f d9 c3 bb a4 96 4c be 72 bb cb be e0 2c c5 bd
       -0.005976803 -0.1997934 -0.39791447 -0.096277
0000a0 b2 c7 87 be e7 96 08 bf 68 0d 27 bf 56 a2 28 be
       -0.26519543 -0.5335526 -0.6525483 -0.16468176
0000b0 80 a7 49 3e ca 9f 36 3e 97 d4 44 3e 40 dc b8 be
       0.19692802 0.17834392 0.19221722 -0.36105537
0000c0 4f e2 e4 3e 91 f5 9a be 0a 35 c2 be 64 58 e1 be
       0.4470391 -0.30265477 -0.3793109 -0.4401275
0000d0 09 e4 a3 be 2b 7d cf be 74 0c 31 be 8c 31 9e be
       -0.32009915 -0.40525183 -0.17289907 -0.30897176
0000e0 21 03 66 3d 78 ef c5 3e 98 f6 a7 3e a6 5f 37 3e
       0.056155328 0.38659263 0.32805324 0.1790758
0000f0 ea e2 41 3d 61 55 a7 3c 96 d5 ba be c9 77 1b bf
       0.047335543 0.020426454 -0.36491078 -0.6072965
000100 9f 01 cf be 57 8c c0 be 2d 36 b5 3d 64 e4 46 bd
       -0.40430924 -0.3760707 0.08848224 -0.048557654
000110 46 6f d0 be 09 6f 25 be d2 62 1c be 78 71 bd be
       -0.40709895 -0.16155638 -0.15272072 -0.37000632
000120 d9 23 21 3e e2 22 6e be 97 55 9a be 1f 19 f3 be
       0.15736331 -0.23255494 -0.30143425 -0.47480103
000130 a3 a4 d5 3e 76 bf 98 3e e7 ef 06 bf 13 71 04 3f
       0.4172717 0.29833573 -0.5270981 0.5173504
000140 09 99 f4 3e 2b e4 d7 3e 74 af 11 bf 1f 48 c5 3e
       0.47773007 0.42166266 -0.56908345 0.38531587
000150 4c f8 15 bf 5d 23 fb be 4d 84 e8 be b2 96 c4 3e
       -0.58581996 -0.49050418 -0.45413437 0.3839622
000160 84 19 07 3f fc 38 07 bf b7 8f be 3e ca b3 b7 3e
       0.5277331 -0.52821326 0.3721902 0.35879356
000170 d3 6b 87 bd b7 0e 39 bd af 5a 06 3d 35 6e 88 bc
       -0.06612363 -0.04518005 0.032801326 -0.016654113
000180 42 ad 19 bd a7 1b 00 3f 00 77 b8 3b cc af 0b bd
       -0.037518747 0.50042194 0.0056294203 -0.0341032
000190 f6 cb 99 3e 5d 1b fb 3b c5 d4 69 be bf 26 d0 bd
       0.30038422 0.007663174 -0.22835071 -0.1016364
0001a0 57 c6 97 3e 5a 3c e5 3e 4f 1f 84 3e e3 c2 ee bd
       0.2964351 0.44772607 0.25805137 -0.116582654
0001b0 8a 3a 08 3f ee 86 03 bf b4 7e 1d 3e 35 e4 82 bd
       0.53214324 -0.5137776 0.15380365 -0.06391183
0001c0 d0 9d a8 bb 2d 57 ec bd 0b 60 4c 3e 2d b7 1e be
       -0.005145766 -0.11540065 0.19958512 -0.15499564
0001d0 8e 1f c9 3e 59 87 f4 3e 58 ca 1d 3f f1 3b ad be
       0.39281887 0.47759512 0.6163688 -0.33834794
0001e0 10 1c cd be 98 80 9f 3e f3 b4 2c bf e1 5b 79 3e
       -0.40060472 0.31152797 -0.67463607 0.24351455
0001f0 9b 2e 82 be 99 0e 06 3e 77 4b 37 3f bf 56 e7 be
       -0.25426182 0.13091506 0.71599525 -0.4518337

conv1.lin_l.bias f4 [64]
000000 52 13 ff 3e 7e e7 14 3e 46 e5 56 be 48 fc dc 3e
       0.49819428 0.14541432 -0.20985898 0.43161225
000010 b9 9f 16 be 45 9e bb be 78 78 ce 3d a2 80 cf 3d
       -0.14709367 -0.36644188 0.10081571 0.10131957
000020 0e 68 c1 be 3e 4b 5c 3d 90 7a b1 3e f9 07 b3 be
       -0.377747 0.053782694 0.3466382 -0.3496702
000030 62 5c e3 3e 4c 64 89 3e b5 c3 24 3f 06 bb 1f 3f
       0.4440642 0.26834333 0.64361125 0.6239475
000040 1f b9 01 3e 1d 90 1a 3d c2 64 75 be eb 03 4d bc
       0.12668274 0.037735093 -0.23964217 -0.012513141
000050 a0 b4 84 3e 0e 90 da 3e f3 e3 c0 3e f6 ff 95 3e
       0.25919056 0.4268803 0.3767391 0.29296845
000060 6a b4 82 bc cc 9c b8 3e 96 dc e8 3e 26 dc 13 3f
       -0.015955169 0.36057127 0.45480794 0.57757795
000070 e6 97 a9 3e fd 88 38 be 70 5e 2a bd 3e 0a e6 3d
       0.33123702 -0.18021007 -0.04159397 0.11232422
000080 4d b2 64 3e 62 0b 8f be fe 9e 13 3f f8 c5 04 3f
       0.22333641 -0.27938372 0.5766448 0.51864576
000090 80 1e 0f 3f e4 0e bd 3e c1 c6 f2 3e e2 9e 5a 3d
       0.55905914 0.36925423 0.47417262 0.05337418
0000a0 d7 2b c0 bd 17 7e 1b 3e 96 00 90 3e e5 d2 8a 3e
       -0.09383362 0.15184818 0.28125447 0.27114025
0000b0 37 42 87 3c 17 58 1f bc 4b 18 bf bd b8 f4 25 3e
       0.016511066 -0.009725592 -0.093308054 0.16206634
0000c0 55 42 97 3e e8 84 0c 3e dd f5 aa be 1a 1f bd 3d
       0.29542795 0.13722575 -0.33390704 0.09234448
0000d0 d9 e7 30 be c4 e5 a8 3e 46 ea c9 3e 80 65 d7 bd
       -0.17275943 0.32987797 0.3943655 -0.105174065
0000e0 0c 25 96 3e a6 49 73 3e 14 28 8f be e8 46 7c bd
       0.2932514 0.23758563 -0.27960265 -0.06159106
0000f0 76 24 0b 3e 95 9a ab 3e 79 61 cb bb 75 a1 80 3e
       0.13588127 0.33516374 -0.006206688 0.25123182

conv1.lin_r.weight f4 [64, 2]
000000 38 e1 34 3d 35 0d 78 be 8a 69 cf bd 1b 4d a9 bc
       0.044160098 -0.24223788 -0.10127552 -0.02066665
000010 f4 77 d9 3e 65 2b ac 3e b9 d0 31 be 68 07 c7 bd
       0.4247433 0.33626857 -0.17364778 -0.097182095
000020 46 7b 49 3f 77 ad 2c 3f 90 ef 06 be ca 61 53 3f
       0.78703725 0.67452186 -0.13177323 0.8257109
000030 82 16 9b bd 60 90 57 bf 42 64 ba bb 46 09 dd 3e
       -0.075726524 -0.84204674 -0.005688221 0.43171138
000040 fd c7 03 bf 57 5b 5f 3e b4 64 82 be b4 ee 48 3f
       -0.5147703 0.21812187 -0.25467455 0.7848923
000050 cc 76 80 be 8e 4a f1 3e 0e 76 84 be e0 5e 51 be
       -0.25090635 0.47127193 -0.2587132 -0.20446348
000060 47 c3 ba be 8f 44 fb 3e 3c 74 93 ba f3 1c 7f bd
       -0.3647711 0.49075744 -0.001124985 -0.062283468
000070 f6 b2 f2 3e 24 e3 82 bf 6e fa 0d 3f b4 61 0a 3f
       0.4740216 -1.0225568 0.5546025 0.54055333
000080 3f 59 31 3f df bc 88 bd b6 d5 44 bd 73 5d b6 3e
       0.69276804 -0.06676649 -0.048055373 0.3561817
000090 49 9e 4d 3e 05 73 db 3c 8e 62 17 bf 55 6f 19 bf
       0.20079912 0.026788244 -0.5913476 -0.59935504
0000a0 ba 6e 69 be a4 42 ba 3c 73 43 c0 be 04 e3 03 bf
       -0.22796145 0.022736855 -0.3755146 -0.51518273
0000b0 e7 f3 9a 3e 59 a4 76 bb 3f fc 66 be 41 4f 59 be
       0.30264208 -0.003763458 -0.22557162 -0.21221639
0000c0 72 4d 50 3e e8 b3 53 3e 62 9b 57 bf 28 65 3d 3f
       0.20342043 0.20674098 -0.8422147 0.7398248
0000d0 6a 4b 9b bc b9 70 1a bc 94 92 20 bf 47 71 15 3f
       -0.018956859 -0.009426289 -0.6272366 0.5837597
0000e0 aa 59 a1 3e c8 59 84 3d 5f 13 ec be 8c de 8f 3c
       0.3151372 0.06462437 -0.4610853 0.017562173
0000f0 87 f8 7c 3e 3c 0a 14 3e 3d 51 41 bf c1 1e 4f 3f
       0.2470418 0.14457029 -0.75514585 0.809063
000100 a6 8f 6b bf 98 15 b9 3e fe f6 ab bd 5e eb 95 bc
       -0.92016065 0.36149287 -0.083967194 -0.018300708
000110 b3 91 15 bf 49 63 aa 3e bb 02 12 3f ef 48 16 3f
       -0.58425444 0.33278874 0.57035416 0.5870504
000120 7b 22 a9 3e 47 64 b6 3e bc 84 de 3d 90 7d a8 3e
       0.3303412 0.3562338 0.10865161 0.32908297
000130 6d 89 11 be be d8 e8 bd 5c 63 92 3e 7e 3a ac be
       -0.1421258 -0.11369465 0.2859143 -0.33638376
000140 a5 b0 15 3f 67 b4 26 bf df c0 d3 be 9c 76 90 3e
       0.58472663 -0.6511902 -0.41358086 0.28215492
000150 44 61 58 3f 45 d4 5c bf b2 48 57 3d 35 83 07 be
       0.84523416 -0.862614 0.052559562 -0.13233645
000160 7e 1f fa 3c 99 0a ce be 20 20 5b be 12 00 6f be
       0.030532595 -0.4024246 -0.21398973 -0.2333987
000170 ac 12 fc bd 61 75 78 be b8 bb bc bc c5 89 4f be
       -0.12308249 -0.24263526 -0.02303873 -0.20267399
000180 98 20 91 bc 8b 95 f4 bc 5a 3e 1a 3d 20 97 b4 bd
       -0.017715737 -0.029856464 0.03765712 -0.08817887
000190 81 dd 14 3d 91 1b 1e 3f 41 f5 0b bf ca 06 04 3f
       0.036344055 0.61760813 -0.546711 0.5157286
0001a0 e4 0d 71 bf 82 fc 68 3f 13 90 8e bd a9 70 c0 3d
       -0.9416182 0.91010296 -0.06961074 0.09396488
0001b0 d6 e8 b2 3d e5 d1 8b 3e 50 61 86 be cb fe 29 be
       0.08735816 0.27308574 -0.2624612 -0.16601102
0001c0 8b a2 90 3e 1b 33 d4 3b 12 fd f3 3c cd 00 8c 3b
       0.2824901 0.006475819 0.02978376 0.0042725564
0001d0 fc ec 53 be 32 8a 8a 3e d6 bb 81 bd 0e 72 39 3e
       -0.20695871 0.2705856 -0.06334655 0.18109915
0001e0 68 35 fd bd 74 0f 1a 3f e1 cb 69 be 57 51 4a 3e
       -0.12363702 0.6017983 -0.2283168 0.19757591
0001f0 ba f7 66 3e 57 1b 77 be eb be 2e bd d3 bf 8c 3e
       0.22555438 -0.24131523 -0.042662542 0.274901

conv1.lin_r.bias f4 [64]
000000 b0 69 ee 3c 6e a0 43 bf 0f 0a 34 bd bd 28 23 be
       0.02910313 -0.7641667 -0.043954905 -0.15933509
000010 a2 a7 4c bf b4 6a d3 bd 0f ce a4 3e ae 94 f4 be
       -0.7994329 -0.103230864 0.3218846 -0.47769684
000020 63 5a 0c 3f 7d 0f 02 be 8d de 8b 3d 91 ab 92 3d
       0.5482542 -0.12701221 0.068295576 0.0716163
000030 77 28 31 bf a7 92 99 be e5 4b 00 bd 43 b3 ae be
       -0.6920237 -0.299947 -0.03132238 -0.3412114
000040 db dc 0a 3f f2 f9 0b 3e 5f 4e 48 3e b3 ce fd 3e
       0.5424325 0.13669565 0.19561146 0.4957176
000050 f3 6e 98 be 58 c2 96 bd 48 84 9d be c9 dd 1d bf
       -0.29772148 -0.07361287 -0.30764985 -0.6166654
000060 31 7b a3 3e 09 f9 72 3c bf 17 e7 3e f9 23 f9 be
       0.31929925 0.014829882 0.45135304 -0.48660257
000070 61 7b 40 3f 29 9d 5a bf 04 18 ec be 59 e1 eb 3e
       0.7518826 -0.8539606 -0.46112072 0.46070364
000080 00 01 c9 be f0 c5 c6 be 6b 96 4f 3e 1e f5 0e 3d
       -0.39258575 -0.3882289 0.20272224 0.03490173
000090 6b e7 86 3f f2 73 1d bf ee 4d 12 bf 1e 43 da be
       1.0539373 -0.61505044 -0.5715016 -0.4262933
0000a0 46 9e 8e be 25 4a eb 3c 36 9d 9d be 55 0f 51 bf
       -0.27855128 0.028721878 -0.30784005 -0.8166402
0000b0 a0 79 94 3d 0b d3 4a bf a4 42 2d be fc d7 03 bf
       0.07249761 -0.79228276 -0.16919953 -0.5150144
0000c0 0b 0a e2 3d 91 8f 36 be d5 85 c8 be 6c d7 e7 3e
       0.11037072 -0.17828204 -0.39164606 0.4528154
0000d0 ff d0 8f 3d b3 82 51 3e 80 cd 8a 3e 93 87 ca bc
       0.07022285 0.20460014 0.2710991 -0.02472285
0000e0 09 87 55 3e 0f 52 37 bf a7 f6 0e 3f f0 b3 3f 3f
       0.20852293 -0.71609586 0.5584511 0.7488394
0000f0 1a 6e 1e be 14 bf 15 3f fe f9 ad be 93 74 29 3f
       -0.15471688 0.5849469 -0.3397979 0.66193503

conv1.lin_edge.weight f4 [64, 1]
000000 ed aa 52 3f 52 b6 87 bf 85 76 ad 3e ba 9b 94 3f
       0.8229206 -1.0602515 0.33879486 1.1610024
000010 f6 b7 d7 3e 8a 86 15 bf a7 01 e9 3e e8 22 e7 3d
       0.4213254 -0.58408415 0.45509073 0.11285955
000020 64 25 8b be c5 00 c6 be aa 1d 24 bf 31 bc 1d bf
       -0.27176964 -0.38672462 -0.64107764 -0.6161528
000030 90 92 0c 3f 10 2d b1 be 54 ef fb be 7d c4 d7 bd
       0.54911137 -0.34604692 -0.4920603 -0.10535524
000040 03 d4 10 bf 8b 33 88 3e 50 40 1c bf aa cd c3 3d
       -0.56573504 0.26601824 -0.61035633 0.09560712
000050 b2 c0 0f bf d5 b1 ae 3e f7 5a f1 3a 33 7f 53 bf
       -0.56153405 0.3412005 0.001841395 -0.82615966
000060 b7 04 36 3e 29 00 83 3f 93 38 28 bf b4 2c 6e 3f
       0.17775236 1.0234424 -0.65711325 0.9303696
000070 15 4b 8c bf 21 e4 81 3f b7 50 79 bf 8e 54 5c 3f
       -1.0960413 1.0147744 -0.97388786 0.8606652
000080 99 20 3b 3f dd f7 b4 bf e9 b7 5a bf 3a db 1a bf
       0.73096615 -1.4138142 -0.85436875 -0.60490763
000090 e1 9f d3 bf 11 b1 d9 3d 95 12 61 bf 3f 9d 4f 3f
       -1.6533166 0.10629476 -0.8791898 0.81099313
0000a0 f5 fa 40 bf 03 3e 73 3e 43 11 01 3d c1 fb 28 3d
       -0.7538293 0.23754124 0.031510603 0.041255716
0000b0 5b 5b 57 bb f5 b3 41 bc 83 1c 77 3e 6b da 9b 3e
       -0.0032860849 -0.01182269 0.2413197 0.30440077
0000c0 b1 9a 4a 3e dc a8 20 bf 3c a6 77 3f ea a9 26 be
       0.19785573 -0.6275766 0.9673803 -0.16275755
0000d0 c0 07 8b 3e d8 7c c6 3e d8 22 8c 3e 70 60 4d 3e
       0.2715435 0.38767123 0.27370334 0.20056319
0000e0 50 be c8 3d 23 c1 04 be ad 8b 8b 3e 93 a1 81 be
       0.09801924 -0.12964301 0.27255002 -0.25318584
0000f0 cd 28 26 be 44 2e 14 3f 76 d8 02 3f 86 4a bf be
       -0.16226502 0.57883096 0.51111543 -0.37361544

norm1.weight f4 [64]
000000 08 3e 34 3f 6f 23 70 3f 31 e3 70 3f 7f 72 26 3f
       0.7040715 0.9380407 0.94096667 0.6501846
000010 ac 0f b7 3f e7 8c f9 3f 38 38 11 3f 36 68 86 3f
       1.4301658 1.9496125 0.5672641 1.0500553
000020 2d c9 d7 3f 2d bd ad 3f 97 1c 67 3f fa f8 9d 3f
       1.6858269 1.3573357 0.90278 1.2341607
000030 4b ea 68 3f 6d f9 b1 3f c3 cc 5d 3f 23 40 4f 3f
       0.909825 1.3904244 0.86640567 0.8095724
000040 1b 0d 82 3f 57 20 48 3f 48 04 80 3f d0 4a 11 3f
       1.016025 0.78174347 1.0001307 0.5675478
000050 2f 20 44 3f 38 dd 6c 3f 56 fa 22 3f 38 43 23 3f
       0.7661161 0.92525053 0.6366323 0.6377444
000060 74 26 d6 3f 8d ab c8 3f 83 bc 98 3f b9 96 55 3f
       1.6730485 1.5677353 1.1932529 0.8343311
000070 6b d6 4c 3f 8f bf 67 3f 02 29 42 3f 68 42 c2 3f
       0.80014676 0.9052667 0.7584382 1.5176516
000080 01 29 c6 3f f8 b5 57 3f 1c 9d 4f 3f 80 20 3d 3f
       1.5481263 0.8426204 0.81099105 0.73877716
000090 9d 62 2f 3f 9c 36 98 3f 39 cb 49 3f 40 56 ca 3f
       0.68509847 1.1891665 0.7882572 1.5807571
0000a0 a0 a6 cf 3f af cc 9a 3f 73 51 a5 3f 0d 69 74 3f
       1.6222725 1.2093714 1.2915481 0.95472795
0000b0 05 9b c7 3f f5 3f c1 3f bf ed 52 3f e7 d9 f4 3e
       1.5594183 1.5097643 0.8239402 0.47822496
0000c0 aa 1b 67 3f 25 04 49 3f 9e f4 87 3f 50 f6 53 3f
       0.90276587 0.7852195 1.0621526 0.8279772
0000d0 27 89 a5 3f cc 1f 34 3f 13 93 67 3f 42 d3 53 3f
       1.293248 0.7036102 0.9045879 0.8274423
0000e0 13 a2 23 3f da 76 35 3f ca ac ae 3f af 7b 97 3f
       0.6391918 0.7088448 1.3646481 1.183462
0000f0 26 e3 74 3f ea e9 43 3f 85 8d 0d 3f 7d 58 a1 3f
       0.956591 0.765288 0.55294067 1.260513

norm1.bias f4 [64]
000000 fd cf 81 be ec d7 2e be 48 33 9a 3d 6b 67 b1 be
       -0.25353995 -0.17074555 0.07529312 -0.34649214
000010 31 60 8b bd 3b 7e 3d 3e a8 53 cd be 81 f9 41 3d
       -0.068054564 0.18505184 -0.40102887 0.047357086
000020 39 4c 07 3e 80 9d 7a bb 09 23 d4 bd 20 d0 b1 bc
       0.1321267 -0.003824085 -0.10358245 -0.021705687
000030 f3 8e 53 bd 13 2e 06 bd 45 7a 79 be 2e 36 7c be
       -0.05165 -0.032758784 -0.24363048 -0.24630043
000040 0b 82 2f bd 1d ce 5a be f4 b2 ae bd e1 47 e1 be
       -0.042848628 -0.21367688 -0.08530226 -0.44000152
000050 81 fa 03 be f6 cd 10 be 67 48 b9 be b8 40 9a be
       -0.12888528 -0.14141068 -0.3618805 -0.301275
000060 5c f1 87 3d 0a 61 08 3e 68 ae 6d bb 9b 78 d9 bd
       0.066378325 0.13318267 -0.0036267284 -0.10618707
000070 7f ce 8c be 88 75 1a 3d 40 ae 74 be 43 1a 89 3e
       -0.27501294 0.037709743 -0.23894596 0.2677785
000080 fb 94 8c 3d 3f 94 ef ba e6 1b 45 be 0a 60 97 bd
       0.06864353 -0.0018278434 -0.19248924 -0.07391365
000090 21 94 90 be c9 0a 31 bd be 39 ad be 53 a6 8b 3d
       -0.28238013 -0.043223176 -0.33833116 0.06818833
0000a0 c6 33 01 3d 16 af 1d 3c f5 e8 06 bd 5e 50 96 bd
       0.031543516 0.009624263 -0.03293701 -0.073395476
0000b0 8d f3 24 3d a1 38 e0 bb 69 c1 21 be 39 8d d8 be
       0.04027133 -0.006842688 -0.15796436 -0.42295244
0000c0 09 fd 44 be ae 97 ad be 5d 47 07 3d 7f c3 7a be
       -0.1923715 -0.33904785 0.03302704 -0.24488638
0000d0 f1 ed 8b 3c 32 3a b1 be 6f 72 45 be b6 9d 3b be
       0.017081233 -0.34614712 -0.19281934 -0.1832188
0000e0 52 8d 95 be 32 f7 3c be ac 86 da 3d 8a 45 e8 bd
       -0.2920938 -0.18453673 0.10670218 -0.113413885
0000f0 a4 50 5c bd 9a 9f 45 be 97 05 cd be 13 65 69 bc
       -0.053787842 -0.19299164 -0.40043327 -0.014245289

conv2.att f4 [1, 8, 8]
000000 b9 18 2d 3f 76 52 56 bf 45 01 0d 40 f9 3c 99 bf
       0.6761585 -0.83719575 2.2032025 -1.1971732
000010 9d e5 dd bf 8e aa 10 3d 63 16 9c be 61 1d 1d bf
       -1.7335697 0.035318904 -0.3048583 -0.61372954
000020 57 19 10 40 65 39 95 bf 8b a1 8b bf 5c dd c8 be
       2.2515466 -1.165814 -1.0908674 -0.39231384
000030 75 95 1a c0 b9 97 91 3f c1 bf 04 40 b2 5b 17 c0
       -2.4153721 1.1374427 2.0742037 -2.3649716
000040 7c 89 95 bf 38 e8 b7 bd 93 3c c2 3f 8c c1 d0 3f
       -1.1682582 -0.08979839 1.5174736 1.6309066
000050 0c 0c d6 bf 8b 0e dc bf 9f 12 92 bf bb 15 c0 bf
       -1.6722426 -1.7191938 -1.1411933 -1.5006632
000060 91 d1 10 bf 98 7d 89 3e 58 91 96 3f 3f 57 15 40
       -0.5656977 0.26853633 1.1763105 2.33345
000070 b3 6d f6 3f 35 7d 8c 3f 28 81 cc 3f 90 fc 76 bf
       1.9252228 1.097571 1.5976915 -0.9647913
000080 a7 92 54 be 65 50 7a 3f 2e ba 01 be 90 8e 5a be
       -0.20759068 0.9777892 -0.12668678 -0.21343446
000090 a5 fa 28 bf c9 f7 45 be 2e 46 34 bf 32 e3 e6 3f
       -0.66007453 -0.19332804 -0.70419586 1.8038085
0000a0 25 2d 11 40 13 8f a9 3f cf 50 b7 3f 3e 20 5d bf
       2.2683804 1.3246788 1.4321536 -0.8637732
0000b0 7d a3 ca bf 9c a7 0b 3f c8 d3 45 3f a4 05 6c bf
       -1.5831143 0.54552627 0.7727628 -0.92196107
0000c0 38 fe db 3f e0 cf c0 3f 28 a3 f7 3f 9b ea 94 3f
       1.7186956 1.5063438 1.9346666 1.1634096
0000d0 ca aa 88 bf fa 64 8f bf 51 39 d9 3f 21 dd 25 40
       -1.0677121 -1.1202691 1.6970617 2.5916216
0000e0 68 5b 0a 3f ae 51 e2 bf 9b d1 d7 3f cf 1c 3d 3d
       0.54045725 -1.7681177 1.6860842 0.046170052
0000f0 d9 1e 24 be f6 d3 02 c0 18 2d 46 3f ad d0 c9 bf
       -0.16027392 -2.044187 0.7741256 -1.5766808

conv2.bias f4 [64]
000000 f1 27 d7 3b 77 ca 14 3d c1 d3 c9 3d 28 6e c8 3c
       0.0065660407 0.036325898 0.09854842 0.02446659
000010 c0 92 c9 bd 73 11 cd 3b ca c4 8b 3b 1f 9a e5 3d
       -0.098424435 0.0062581836 0.0042654024 0.11211037
000020 47 5e 96 be 7e 99 c3 3d b7 db 49 3d c0 3f c7 3d
       -0.29368803 0.09550761 0.049281802 0.09728956
000030 87 03 cd 3d 95 d8 62 3d 0e 15 2a be df 49 5a 3d
       0.100104384 0.05538233 -0.16609594 0.053293105
000040 a9 33 b3 bc 8b 9c d8 3d 65 5f 0b 3d 3b 01 9a 3d
       -0.02187522 0.10576733 0.034026522 0.07519766
000050 54 a1 02 3c e4 6a 91 3d 43 7c 13 3c d0 44 e1 3d
       0.007973034 0.07100466 0.009001794 0.10999453
000060 f2 d0 76 3c 7c b1 1b 3a 62 a6 c5 bd ed 01 87 bc
       0.015064465 0.0005939228 -0.09650876 -0.01648041
000070 ef e1 cf 3c 08 35 24 bd 6e 8c 1a 3d d7 aa 4c 3a
       0.025376288 -0.040089637 0.03773158 0.00078074395
000080 3a 6e f8 3c c4 7d e0 bb 8d 5b 71 3d 4b a5 1f 3c
       0.030325998 -0.00685093 0.0589252 0.009743999
000090 a9 51 b2 bc c9 e9 a0 bd b5 86 26 3d 65 bd b9 3d
       -0.021767454 -0.07857091 0.04065581 0.09069327
0000a0 c1 18 b2 bc fb a0 7e 3d 61 40 6b 3d af 38 08 3e
       -0.02174032 0.06216524 0.057434443 0.13302873
0000b0 6b d2 73 3d 30 83 fb 3c 69 ab 65 3d 6c 68 e6 3d
       0.059526842 0.030702204 0.056071673 0.11250386
0000c0 30 8a 82 bc 75 5e 8d 3d c8 de b8 bd a7 f1 0e 3c
       -0.015935034 0.06902782 -0.09026867 0.008724607
0000d0 7d 51 67 3d 65 79 bc 3d d6 cf 19 3c 08 8c c7 bd
       0.056474198 0.09202842 0.009387931 -0.09743506
0000e0 c2 08 30 3d 6c 01 b5 3d aa 3e f5 bd 2c 32 06 bd
       0.042977102 0.08838162 -0.11974843 -0.03276269
0000f0 63 a5 52 bb 0e 0d 91 3d 72 4d ef bd 14 f8 95 3d
       -0.0032142035 0.07082568 -0.116846934 0.07322708

conv2.lin_l.weight f4 [64, 64]
000000 a6 f8 2b 3e 96 c3 88 3e a9 42 11 bd 7e 63 1b bd
       0.1679407 0.2671172 -0.035463963 -0.03793668
000010 46 c9 99 3e 60 8c 8e bc a7 80 51 3e 6d ea 0f 3e
       0.30036372 -0.01740092 0.20459233 0.1405427
000020 e2 95 b4 3e 53 1d 11 be 91 66 6e bd 99 69 0d 3e
       0.35270602 -0.14171343 -0.058203284 0.13809814
000030 11 5c 36 3e 9b 79 d2 3e a0 ef e2 3d a3 8a 80 3d
       0.17808558 0.41108403 0.11080861 0.06276443
000040 5c 63 b1 3e dc a2 b7 3e f7 14 59 3e 05 7e b8 3e
       0.34646118 0.3586644 0.21199404 0.36033645
000050 d4 1a 26 3e da 3c 17 3e c6 f5 fe 3d 02 02 95 be
       0.16221172 0.14769307 0.12449221 -0.29103094
000060 d7 7e ef bd 20 0b 9d 3e b9 d5 ba 3c 0f 5d 3d bd
       -0.11694115 0.3067255 0.022806989 -0.046231326
000070 2e 44 8c 3d 55 04 ac 3e d0 28 54 bc 4e 54 39 3f
       0.06848942 0.33597055 -0.012949184 0.72394264
000080 da 6a f9 bd 71 35 82 3d 64 b9 17 be 5e 59 7c be
       -0.121785834 0.063578494 -0.14816815 -0.24643466
000090 24 9c 45 be 4a b2 2e 3d e9 ff 61 3e 36 8f 5f be
       -0.19297844 0.0426505 0.22070278 -0.21831974
0000a0 9e be 71 3c 03 a4 d3 bd a3 52 ab 3e 8c 32 96 3e
       0.014754919 -0.10334017 0.33461484 0.2933544
0000b0 2c 5d 5a be 01 66 02 3e ab a7 ad 3e 04 74 0c 3e
       -0.21324605 0.12734224 0.33916983 0.13716131
0000c0 74 68 65 bd 6c 90 9d 3e 5f 44 e1 bd ea 00 cb 3e
       -0.056007817 0.30774248 -0.10999369 0.39649135
0000d0 87 40 0c be a8 0c 3d be 36 5b 72 be bf 11 02 bc
       -0.1369649 -0.18461859 -0.23667607 -0.007938801
0000e0 32 c8 0d 3e 82 7d 26 3e 2b ce 0e bd 20 e2 bc 3d
       0.138459 0.16258815 -0.034864586 0.092228174
0000f0 81 45 c6 bd db c3 91 3d f6 fa 51 3e c1 c8 a9 bc
       -0.096812256 0.071174346 0.2050589 -0.02072561
000100 2c 41 d1 bd 29 7f 51 3e 1a b6 d3 3e 9d b7 a7 3c
       -0.10217509 0.20458664 0.4134987 0.020473296
000110 b8 19 a4 3e b9 42 8c 3e 80 49 f6 3b 30 f5 17 3e
       0.32050872 0.27394655 0.007516086 0.14839625
000120 0c f7 c4 be 1d cf df be 37 ff 18 3e ef b2 00 3e
       -0.38469732 -0.43712702 0.14941107 0.12568258
000130 93 e8 a9 3d 1a 7d 7c 3d 9d 38 81 3a 60 a4 28 be
       0.08296313 0.061642744 0.0009858791 -0.16468954
000140 f5 45 58 3d b5 20 84 3e 6b 6d 80 bd 98 00 99 3d
       0.05280109 0.25806203 -0.0627087 0.074708164
000150 94 02 bf 3d f9 89 43 bd c2 81 30 3d 01 ef d8 bd
       0.093266636 -0.047739003 0.043092497 -0.105924614
000160 f5 d1 58 3f 4d 2b 9c be ec b3 b6 be e6 51 cf bd
       0.8469537 -0.30501786 -0.35684144 -0.10123043
000170 41 74 a3 3e 18 ec e9 3e 24 c0 b5 bd 1d 05 2d 3f
       0.31924632 0.45687938 -0.088745385 0.6758593
000180 45 8f 06 3e 8e 2c a4 bd 27 d5 fd bd 31 78 2c be
       0.1314059 -0.08016311 -0.12394171 -0.16842724
000190 d1 ba 56 3e 5a 21 89 bd c1 4d 9a 3c 06 04 ba 3e
       0.20969702 -0.066958144 0.018835904 0.36331195
0001a0 b8 be f1 be df 5f 0d be 24 d8 8f 3e 53 ae 84 3d
       -0.4721582 -0.13806103 0.2809459 0.06478562
0001b0 76 63 97 3d cc 4c f6 be d8 9a aa bd 9e 7c da bd
       0.073920175 -0.48105466 -0.08330315 -0.106683
0001c0 e7 fe b0 3e d9 d5 50 3b 53 70 5f be 6b 5a 15 3e
       0.34569475 0.0031865744 -0.21820192 0.14585273
0001d0 d3 d0 f5 3e 14 96 bc 3d e0 a2 e7 3c 8e 32 5e bd
       0.48010883 0.09208313 0.028275907 -0.05424743
0001e0 4b 1a 18 3e da 7b ac bd 48 d3 ae 3e 85 73 e4 be
       0.1485378 -0.0842206 0.3414557 -0.44619384
0001f0 76 6f 50 bc 3d b7 70 bc 46 f9 4d be 73 e4 9b 3e
       -0.012721887 -0.014692125 -0.20114622 0.3044773
000200 17 30 6a bc 3a b6 19 3e f6 fc 71 3e 9f d0 37 3e
       -0.014293692 0.1501092 0.23631653 0.17950676
000210 00 08 b0 3e aa cc e5 3e 38 3e cc bd d1 24 88 3e
       0.34381104 0.4488271 -0.09972805 0.2659059
000220 f5 d7 73 bf 16 8e 40 3d d4 b0 99 bd 5c e9 49 3d
       -0.952514 0.047010504 -0.075044304 0.049294814
000230 67 7a 1f 3d bb 53 ad bd d5 43 16 bc f2 83 28 3e
       0.03893509 -0.08463236 -0.009171446 0.16456583
000240 97 d1 03 3d 65 7d ec 3d 06 ca 68 bd 2a c1 33 3e
       0.032182302 0.115473546 -0.05683329 0.17554155
000250 7e 39 b7 bc ec a1 88 3e f6 ea 6a 3d 11 03 25 3e
       -0.022366282 0.26686037 0.057352982 0.16114451
000260 51 99 08 3e 36 71 5e be 45 3b 3c be 9a 49 cd bd
       0.13339736 -0.21722874 -0.18381985 -0.10023804
000270 ad 43 91 bd c2 12 35 3e 84 cb 83 be 1b ac f5 be
       -0.07092986 0.17682937 -0.25741208 -0.4798287
000280 98 79 97 be 7b 96 13 bd 67 6d 3a bd 05 a1 c9 bd
       -0.29584956 -0.03603218 -0.04551449 -0.09845165
000290 f6 0a 7f 3e 6a 4d ce 3d 8f 13 b1 3e 09 18 0b 3f
       0.24906525 0.10073359 0.34585235 0.5433355
0002a0 8c 75 c4 3d 8a 82 2d 3e 01 8d 84 3e 14 cb 78 3e
       0.09592733 0.16944328 0.25888827 0.24296218
0002b0 23 5f 9b be 8d 81 1a 3e 7e cc db bd 7b 0c 58 be
       -0.3034602 0.15088482 -0.10732363 -0.21098511
0002c0 5e c0 84 3c 63 c7 f2 3b ec 0f a6 be 63 97 83 3e
       0.01620501 0.0074090227 -0.32434022 0.25701436
0002d0 66 ed 8c be b2 d2 74 be cb 10 65 3e cb 7d ee be
       -0.2752487 -0.23908499 0.22369687 -0.46580347
0002e0 89 0e 81 be 29 46 7d be 2d 32 9a 3d 21 c3 bd be
       -0.25206402 -0.24733795 0.075291015 -0.37062934
0002f0 9e 92 99 3e 20 30 84 3e 2f 15 12 be 14 44 54 be
       0.29994673 0.25817966 -0.14265893 -0.20729095
000300 d8 e1 37 be a7 45 2c 3e c2 16 99 3e af ec e1 bd
       -0.17957246 0.16823445 0.29900175 -0.11031472
000310 57 eb b1 3d 63 14 4a 3e 53 e2 1c bd 09 e8 d4 3d
       0.08687466 0.1973434 -0.038301777 0.1039582
000320 83 51 ab 3f d6 30 e1 bc fa 72 30 bb ec c6 ac b9
       1.338425 -0.027489107 -0.0026924 -0.00032954605
000330 31 79 77 3d 80 43 29 3d 4c 4e 00 be 09 64 19 3c
       0.06041831 0.04132414 -0.12529868 0.009362229
000340 10 2d ef bc a5 f1 95 bd 8a e1 99 bd a9 67 61 3e
       -0.029196292 -0.07321481 -0.07513721 0.220122
000350 f1 2f 99 bd 82 1b b6 bd b7 93 02 be c3 dc 22 be
       -0.07479847 -0.088919654 -0.12751661 -0.15904526
000360 bf e8 ec 3e 6d d8 97 3e e8 35 aa 3d 73 c0 9a bb
       0.4627132 0.29657307 0.08311063 -0.0047226488
000370 bd 74 5d bc 4f 1c 9a 3e a5 e4 70 bc e8 1f a0 3e
       -0.013516602 0.30099723 -0.014702951 0.31274343
000380 20 f5 43 3d 47 d5 64 3e 0e 83 38 bc 9d 4f d5 3d
       0.04784119 0.22346984 -0.011261715 0.10415576
000390 19 4f 2f 3d 3b a0 b8 bd 26 41 13 be 8d 56 1d bf
       0.042800043 -0.090149365 -0.14380321 -0.6146019
0003a0 ee fd 69 be 27 46 f1 bc 1e 65 bd 3d a8 16 14 3e
       -0.22850773 -0.029452397 0.09247802 0.14461768
0003b0 1b 44 3b 3e 1b 11 66 bd fa 2d 98 be 1c e7 66 3e
       0.18287699 -0.056168657 -0.29722577 0.22549099
0003c0 73 31 d8 bc 6d 20 f3 be a4 f0 05 3e 0e 2d 21 be
       -0.026390767 -0.47485676 0.13080078 -0.15739843
0003d0 71 fd 1a 3e 2e d7 7d be ef e5 f8 3d df 2c 69 be
       0.15135743 -0.24789116 0.12153231 -0.22771023
0003e0 0b 6c ad 3d 49 5a 86 3d 2d 18 50 be 8c 88 b9 3d
       0.08467873 0.06560189 -0.20321722 0.090592474
0003f0 69 df f0 3d 6b 5f b2 3e fe bf b3 bd eb 2c a1 be
       0.11761362 0.34838423 -0.08776854 -0.31479582

conv2.lin_l.bias f4 [64]
000000 6d a3 94 3d 71 18 a7 3d ed 58 92 3d 8a b4 0c 3e
       0.072577335 0.08158959 0.071458675 0.13740745
000010 25 4e 12 bd 4a 7d cf bc ee 31 10 bd be ad 29 3d
       -0.035719056 -0.025328297 -0.035203867 0.04142546
000020 a9 2a 03 be 37 6e 93 3d b8 68 ef 3b 48 53 1f 3e
       -0.12809242 0.07198756 0.0073061846 0.15559113
000030 d8 41 13 3e e5 a5 25 3d 73 13 8f bd bd fa 96 3d
       0.14380586 0.040441412 -0.069861315 0.07372043
000040 3f df e7 bd 9b cb 3b bc 05 82 00 3e de 15 85 3d
       -0.11321878 -0.011462118 0.12549599 0.064983115
000050 6c 46 df bd e0 39 49 3d 76 73 df bd 50 cf ca bc
       -0.10902104 0.04912746 -0.10910694 -0.024757057
000060 73 37 0e 3e 59 91 c1 3d bb a9 03 be 6b 39 a8 3d
       0.1388834 0.09451551 -0.12857716 0.082140766
000070 f9 82 be 3d 51 57 09 bd 4d fe 07 bd 97 c2 7e 3d
       0.09302325 -0.033530537 -0.033201504 0.062197294
000080 13 a4 21 3d 0e 3c 77 3d 60 aa 44 bd c2 37 0a 3e
       0.039463114 0.060360007 -0.048014045 0.13497832
000090 4f 95 12 bd b6 92 07 3c 9c fd 5e 3d 81 a5 22 3d
       -0.035786923 0.008274725 0.05444108 0.039708618
0000a0 14 eb 12 bc 7f 57 23 bd 26 1a 39 bd ed 89 86 3c
       -0.00896718 -0.039878365 -0.045190953 0.01642319
0000b0 0d 68 2d bd 2b e2 48 bd 81 c7 3c bd f5 c6 2b 3d
       -0.04233556 -0.049043816 -0.0460887 0.041937787
0000c0 41 ec 82 3c 15 c8 ae 3d bc 74 0a bd 82 b7 68 3d
       0.015981795 0.08534256 -0.033802733 0.05681563
0000d0 e5 c8 85 3c 56 3b 47 3e bb 68 d6 3d 65 eb d8 bd
       0.016331146 0.19456229 0.104691945 -0.10591773
0000e0 95 a1 09 bb ce 60 08 3e dc 27 f8 bd eb a6 98 bd
       -0.0021000851 0.13318178 -0.121169776 -0.07453712
0000f0 71 f6 61 bb 72 12 00 3e 2b a8 b4 bd 5d 78 25 3e
       -0.0034479166 0.12507036 -0.08821138 0.16159196

conv2.lin_r.weight f4 [64, 64]
000000 26 f4 a4 3d e6 bb 81 3d 2d d8 01 be 57 2a fe bc
       0.0805438 0.06334667 -0.12680121 -0.031026049
000010 3b 5c d8 3c ed fb 17 3e 63 47 df bd 73 0e f7 3d
       0.026411166 0.14842196 -0.10902288 0.12063303
000020 63 1d 39 3d b3 80 99 3e 71 48 e0 bd 56 15 ad 3d
       0.04519404 0.29981002 -0.10951317 0.08451335
000030 c3 c2 29 be dc f1 8d 3d 6b f5 70 be 44 cf d1 3d
       -0.16578202 0.06930897 -0.2353112 0.10244611
000040 e9 c3 65 3c 70 60 49 be 94 b4 60 bc 69 d3 c0 3c
       0.014023759 -0.19665694 -0.013714928 0.023538308
000050 84 a2 f0 bd ea e1 e9 bd 83 3b 75 3e f0 4d d1 bd
       -0.117497474 -0.11420043 0.23948483 -0.102199435
000060 4e 8c 97 bc 20 9b 09 be bf 16 85 be 01 6e 6a 3d
       -0.01849952 -0.13438082 -0.25993916 0.057233814
000070 70 52 d6 3d 1e 36 3f 3d 86 7c b6 3b f8 74 fe 3d
       0.104649425 0.04668247 0.0055690436 0.12424654
000080 c2 52 a0 be 19 a3 6f be c4 4e e2 3d ff 43 96 3d
       -0.3131314 -0.2340206 0.110501796 0.07337188
000090 e9 1e 6f be 57 5a 1b be 7a 6e 1c be a1 4e d8 3e
       -0.23351635 -0.1517118 -0.15276518 0.4224749
0000a0 91 08 76 3d 9a 90 0a 3e 76 f2 2c be 93 68 47 be
       0.060066763 0.13531724 -0.16889367 -0.19473486
0000b0 65 dc cd 3c 30 93 cf 3d 7e db 1b 3e fd 2c 59 3e
       0.025129506 0.10135496 0.15220448 0.21208568
0000c0 df eb 12 3d 74 4e 60 be 9a 9d f7 3c a3 a4 1b be
       0.035869475 -0.21904927 0.030226517 -0.15199523
0000d0 38 3c 47 be 66 45 71 3d 59 98 78 3d 8d 37 8e be
       -0.19456565 0.058904074 0.060692165 -0.27776757
0000e0 f8 0a cf 3d 84 ef fa 3d 07 57 01 3e 09 bb b2 bc
       0.10109514 0.12252715 0.12630855 -0.021817701
0000f0 28 55 00 bd a4 53 51 be 44 eb e5 bd 7a de 7b bc
       -0.03133121 -0.20442063 -0.11226514 -0.015372867
000100 e8 71 dc 3c 56 32 1b 3e eb e1 a8 bd 85 ec 28 3c
       0.026909783 0.1515592 -0.082462154 0.010310297
000110 eb 82 ac be 89 af 2f be e9 fe df bd 85 a7 5b bc
       -0.33693632 -0.17156805 -0.10937292 -0.013406639
000120 31 0a 80 3d 35 29 cf 3e 81 be 30 3e ff b1 1d 3e
       0.06251944 0.40461126 0.17260171 0.15399931
000130 37 3a ed bc d7 5f 96 be 16 02 d5 3d a7 ac 35 be
       -0.028958423 -0.29369995 0.104007885 -0.17741643
000140 06 32 50 be c7 c7 f4 3b 2e 0b a5 bd 7a 90 30 bd
       -0.20331582 0.0074701044 -0.08058773 -0.043106534
000150 7d b1 f3 be c0 cc a8 3d 64 eb 57 3e 5d 16 a7 bb
       -0.4759635 0.08242178 0.21085888 -0.0050991015
000160 71 6b 82 bd a9 ba 36 be 7e 7f 9a be fb b1 6a bc
       -0.06368149 -0.17844643 -0.30175394 -0.01432466
000170 80 ae f2 3d 26 82 15 3e 09 7f b6 3c 95 2a 37 bf
       0.118496895 0.14600429 0.022277372 -0.7154935
000180 ab 1d d6 bd 0d 60 ea bd 9b 1b 6c bd 71 d6 06 3d
       -0.104548775 -0.114441015 -0.057643514 0.03291935
000190 c4 9c b2 3b e3 28 6f bb b2 64 4f 3e 93 b8 e2 be
       0.005450817 -0.0036492876 0.20253256 -0.44281444
0001a0 0a 7a e7 3d 4e 5a 86 3d 40 48 e5 be 8c e2 84 3d
       0.11302574 0.06560193 -0.44781685 0.06488523
0001b0 db 02 5b be 8d 6d 99 bc b3 6e 81 3e 08 1b ff bd
       -0.21387808 -0.018728996 0.2527977 -0.12456328
0001c0 8d 59 c0 bd ff 8e 2e bd e6 57 46 be 05 6a 03 3e
       -0.093920805 -0.04261684 -0.19369468 0.12833412
0001d0 39 67 f7 3e f6 7f ff bd e7 50 91 3e 09 f4 1b be
       0.4832094 -0.124755785 0.28382036 -0.15229811
0001e0 17 8e 17 be dd 29 f3 3d 23 33 f3 3c 08 72 5f 3e
       -0.14800297 0.11873219 0.02968747 0.21820843
0001f0 f0 c9 8c be bc 0c ae be e1 38 7d 3e a3 f7 61 3e
       -0.27497816 -0.3399409 0.24728729 0.22067122
000200 94 44 c9 3e 24 7e 70 be b0 20 71 be 8b 0a e4 bd
       0.39310133 -0.23485619 -0.23547626 -0.111348234
000210 6c 02 2f bf 00 34 89 bf 24 9d 42 be 53 63 02 be
       -0.6836307 -1.0718994 -0.19005257 -0.12733202
000220 74 d9 19 bf 4f d8 cc bd 95 76 bf be d6 50 c9 be
       -0.6009743 -0.10002195 -0.37395158 -0.39319485
000230 10 c6 6b 3e 60 c0 97 bd e1 e3 af 3e fa a0 ba 3e
       0.23024774 -0.074097395 0.34353545 0.3645094
000240 7d 6e ae bd d9 c3 7a be b7 4b 12 be fa e7 13 be
       -0.08517168 -0.24488772 -0.14286695 -0.14443961
000250 78 48 b5 3d 0d da bb 3e 56 22 c0 3d c4 45 92 3e
       0.08851713 0.36689797 0.09381549 0.28568852
000260 2a 8a f7 bb de 36 0c 3e b8 85 8e 3e 1b 08 d4 3e
       -0.0075543122 0.13692805 0.27836394 0.41412434
000270 b7 08 03 3c 0a bc 4c bf d2 b5 d8 bb 62 5d 70 3e
       0.007997683 -0.79974425 -0.0066134715 0.23473123
000280 5d b5 1d 3e 2e 5e 5b 3c 20 dc be 3e b0 9c 82 3e
       0.15401216 0.013389153 0.37277317 0.25510168
000290 ea 3d 9b 3e d7 d0 9d ba 40 34 c2 3c 19 79 7e 3e
       0.30320674 -0.0012040389 0.023706555 0.24850883
0002a0 4e 26 19 bf e5 e5 7d 3e 23 be 64 be b1 93 67 be
       -0.59824073 0.24794729 -0.22338156 -0.22614934
0002b0 cf 4d 5c 3e 85 fc 34 bf 90 3f 0a 3e 54 24 e6 be
       0.21514057 -0.70697814 0.1350081 -0.4494959
0002c0 98 a3 86 3d d4 0d c5 3d b4 61 02 be 80 fd 03 3f
       0.06574172 0.09621778 -0.12732583 0.51558685
0002d0 64 82 45 bf 33 05 a6 3c 5c bc 15 3e 23 03 b1 be
       -0.77152085 0.020266151 0.14622635 -0.34572706
0002e0 6e 19 12 be 8b d0 3e be 5f d2 18 bf e9 64 47 bf
       -0.14267513 -0.1863424 -0.59696 -0.7788835
0002f0 d5 52 8f 3d 98 a6 b3 3e b5 60 92 bd e7 75 ec bc
       0.06998221 0.35088038 -0.07147352 -0.028864814
000300 7a 87 35 3a a0 7d 66 be 66 26 29 3e 89 31 ae bd
       0.00069247896 -0.2250886 0.16518554 -0.08505542
000310 87 b7 19 bc e3 54 88 bd 69 86 0a 3d 5d 3b 06 be
       -0.009382135 -0.06656816 0.03381959 -0.13108583
000320 6e b8 63 be 62 f2 49 3e 7f e1 54 3c f0 31 81 be
       -0.22238323 0.19721368 0.012993216 -0.25233412
000330 14 09 52 be 48 c2 33 3e c6 a0 28 3b ba 6f a5 3d
       -0.20511276 0.17554581 0.0025730594 0.08077951
000340 82 ea 6f 3e f9 7a 54 bd 9e 61 ec bb 5f 42 18 be
       0.23429301 -0.05187509 -0.0072137853 -0.14869069
000350 d4 bc 4c 3e e8 90 4a 3e 2e 3f 06 3e 0c fd 42 3e
       0.19993907 0.1978184 0.13110039 0.19041842
000360 77 a5 9b bc 62 09 23 3e a1 6b 83 3e f8 93 50 be
       -0.018999798 0.15921548 0.25668052 -0.20368946
000370 b9 88 d2 3c a9 d3 49 3e d5 73 62 be 9e 56 37 bd
       0.02569996 0.19709648 -0.22114499 -0.04476034
000380 b3 ce b2 3e 5e 9c b2 bb 6f a1 18 3e f9 97 1b bd
       0.34923324 -0.0054507693 0.14905332 -0.03798673
000390 0f 21 ab 3e 83 56 4a bd 48 70 5d bd 50 e7 ca be
       0.3342366 -0.04939891 -0.054062158 -0.39629602
0003a0 77 69 81 be 36 43 08 bd 32 4f df 3d 85 72 d9 3c
       -0.25275776 -0.033267222 0.10903777 0.026543865
0003b0 de 7e 53 3e 76 dd 60 3d e4 93 6b be d2 dc 1d be
       0.20653865 0.0548987 -0.23005635 -0.15416268
0003c0 7c db a6 3e a1 b9 93 bd fb fb 96 3c 83 63 f8 be
       0.32589328 -0.0721314 0.0184307 -0.4851342
0003d0 75 bf f8 3d d3 72 92 be c1 b5 fe bd 4d a1 8f 3d
       0.121458925 -0.2860323 -0.124370106 0.070131876
0003e0 bd b0 ad 3c d6 19 16 3e d1 cd 86 be b4 60 31 3e
       0.02120244 0.14658293 -0.263289 0.17322046
0003f0 01 75 ab 3a 17 1f 6b 3e 2d 9d 94 bd 01 6a 9e 3c
       0.0013081135 0.22961079 -0.072565414 0.019337656

conv2.lin_r.bias f4 [64]
000000 f5 90 5f 3d c2 93 df bc 67 88 65 3d 1a 09 2f bc
       0.0545816 -0.027292136 0.056038287 -0.010683322
000010 b2 b5 b3 3d 3e 86 30 be e3 92 3e 3e 36 43 b6 3c
       0.0877489 -0.1723871 0.1861072 0.022248846
000020 4b 1a 15 3e a2 f1 07 bd be a9 8e 3d d0 69 b5 be
       0.14560811 -0.033189423 0.069659695 -0.3543229
000030 bd f2 03 be aa 2c 45 be 85 a0 da 3d 37 47 2d 3e
       -0.12885566 -0.19255319 0.10675148 0.16921698
000040 ac 2a 0c 3e 87 46 c5 bd 88 bb 4b bd d8 47 94 ba
       0.13688153 -0.09632593 -0.04973939 -0.0011312915
000050 76 ad 6d bc b8 53 33 3e e6 86 d5 bc 47 18 21 3d
       -0.014506688 0.17512405 -0.026065301 0.039329793
000060 0a 48 71 3e 5b 76 ff bd 82 e4 d8 3c 85 82 1c bd
       0.23562637 -0.124737464 0.026476149 -0.03821041
000070 16 dd 82 3e 90 04 2e 3e 94 fc 0c 3f 6b c9 80 bd
       0.255593 0.16993928 0.55072904 -0.062884174
000080 a0 01 ad bc 86 98 5e 3d 7b 97 2f 3d 22 8e 58 3e
       -0.021118939 0.054344676 0.042869072 0.2114797
000090 55 fb 06 be 04 7b 57 3c af 88 cc bd 56 9a 8d bd
       -0.13181813 0.013151888 -0.09987008 -0.06914203
0000a0 22 5e 2e bd e4 60 8c 3d 37 65 bc bd 96 26 82 3d
       -0.04257024 0.06854418 -0.09198993 0.06355016
0000b0 39 52 b2 bd 07 00 4c be 61 0a 88 3e 97 b1 36 be
       -0.08707089 -0.19921885 0.26570418 -0.17841183
0000c0 87 49 bc bc 89 a5 70 be d3 37 9c 3e 8a 5e a8 3b
       -0.02298428 -0.23500647 0.3051134 0.005138223
0000d0 3b 10 36 be 1d 7d 18 be 65 29 55 be 16 8b 30 3d
       -0.17779629 -0.14891477 -0.20816572 0.043101393
0000e0 d5 42 ff bc cb ce 8b 3e ee 9b 11 bd f6 e0 83 3e
       -0.031159798 0.27306208 -0.035549097 0.2575757
0000f0 c7 18 37 be 32 80 7a 3e d2 31 a3 be 08 8c 37 bd
       -0.17880546 0.24462965 -0.31873947 -0.04481128

conv2.lin_edge.weight f4 [64, 1]
000000 c0 2b cc bf 82 58 99 3f 5a a7 8c bf b3 12 38 3f
       -1.5950851 1.1980135 -1.0988572 0.7190353
000010 3d c4 7b 3f 03 06 3d bf 6b 24 76 3f 54 c0 c0 3f
       0.9834631 -0.738373 0.9614932 1.5058694
000020 37 63 b2 bf fd 6d b5 3f d9 38 f1 3f 0f 69 ac 3f
       -1.3936528 1.4174191 1.8845474 1.3469561
000030 bb 5b d0 3f 6c 65 cf bf c2 e7 cb bf c6 73 d3 3f
       1.6277994 -1.6202826 -1.5930102 1.6519706
000040 17 d6 3f 3f c8 46 24 3e 9e 25 9a bf c1 75 63 bf
       0.7493605 0.16042626 -1.204273 -0.88851553
000050 23 ef 17 3f 31 b2 80 3f 82 c1 ec 3e 48 0e 2b 3f
       0.5934927 1.005438 0.46241385 0.66818666
000060 16 a3 b6 3f 5e b6 72 bf 7b fa a0 bf e4 cd a9 bf
       1.426852 -0.9480952 -1.257644 -1.3265958
000070 a2 75 8c bf be 85 9a bf 28 11 96 bf d5 4f a2 3f
       -1.0973399 -1.2072065 -1.1723986 1.2680613
000080 11 2a 6f be a4 54 da bd ba ff b4 3e cb c0 88 bd
       -0.23355891 -0.10660675 0.35351354 -0.06677397
000090 96 17 fc 3e 0e 99 f2 3e 2b 7e 0c 3f 05 2f a2 bf
       0.49236745 0.47382396 0.5488002 -1.2670599
0000a0 21 76 d6 bf 90 f1 75 bf 06 77 f4 bf 77 41 8b 3f
       -1.67548 -0.9607172 -1.9098823 1.0879353
0000b0 28 9a 23 3f 45 79 aa bf 38 ee 8f bf 4c e8 70 3f
       0.639071 -1.3318259 -1.1244574 0.94104457
0000c0 8d 45 c0 bf cc 45 f5 bf 9f 10 fd bf 55 20 f5 bf
       -1.5021225 -1.9161925 -1.9770697 -1.9150492
0000d0 29 1e ee 3f 46 c9 ee 3f bc f6 f9 bf d9 b1 d2 bf
       1.8602954 1.8655174 -1.9528422 -1.6460525
0000e0 ce 12 50 bf 38 c1 53 3f bd 10 0a bf 0f da 4b 3e
       -0.81278694 0.82716703 -0.5393179 0.19907402
0000f0 77 19 06 bf de 0c 3e 3f 4f 98 a9 be 61 09 af bc
       -0.52382606 0.74238384 -0.33124015 -0.021366777

norm2.weight f4 [64]
000000 a4 d0 62 3f c0 3b 73 3f 78 ad 32 3f fa 4d 13 3f
       0.8859961 0.95013046 0.6979594 0.5754086
000010 43 8f 26 3f 7c a5 62 3f d1 8c 3c 3f 1a d6 5f 3f
       0.6506235 0.8853376 0.7365237 0.8743607
000020 8a 5c a5 3f 10 84 89 3f b0 e5 3e 3f ca 46 72 3f
       1.2918866 1.0743427 0.74569225 0.94639266
000030 e3 e8 b1 3f 86 34 a9 3f ef d1 7f 3f ab 70 93 3f
       1.3899196 1.3219154 0.9992971 1.1518759
000040 23 cb 87 3f 43 19 4e 3f a1 1b 33 3f 18 e1 13 3f
       1.0608867 0.80507296 0.69964033 0.5776534
000050 57 3b 76 3f 14 87 7d 3f 54 18 89 3f 9a f4 73 3f
       0.96184295 0.9903424 1.0710549 0.9529511
000060 e6 a9 1a 3f 95 fd 6b 3f db 96 8a 3f 82 e6 01 3f
       0.60415494 0.9218381 1.0827287 0.5074235
000070 4a f4 59 3f fb 4e 50 3f eb f3 65 3f 2b f3 2e 3f
       0.8513838 0.81370515 0.89825314 0.68339795
000080 11 c3 0b 3f 6d 03 4c 3f ad ea b1 3f d9 0e 52 3f
       0.5459452 0.7969273 1.3899742 0.82053906
000090 7d a9 4f 3f 60 66 9d 3f 9b a2 38 3f 37 0e 40 3f
       0.81117994 1.2296867 0.72123116 0.7502169
0000a0 f2 69 84 3f 2f 6d 40 3f 6c 55 a4 3f 31 24 1a 3f
       1.0344832 0.751666 1.2838569 0.60211474
0000b0 f8 a1 96 3f d8 ca 4b 3f 44 99 23 3f 6a 0f 90 3f
       1.1768179 0.7960639 0.6390574 1.1254704
0000c0 ef 6d 4d 3f 6b 8d a3 3f 5b c1 65 3f 95 71 60 3f
       0.8024587 1.2777532 0.8974816 0.8767331
0000d0 63 d2 a4 3f e8 ec b3 3f 72 df 91 3f f0 6d 57 3f
       1.2876705 1.4056673 1.1396315 0.84152126
0000e0 53 8c 40 3f 2d aa 40 3f 4e c6 99 3f d4 03 68 3f
       0.7521412 0.7525967 1.2013643 0.9063084
0000f0 66 78 97 3f 69 99 65 3f 9f 4e a8 3f bf f5 81 3f
       1.1833618 0.8968721 1.3148993 1.0153121

norm2.bias f4 [64]
000000 0b cf 3a be 45 6e cd bd 15 d8 40 bd aa 9d a3 be
       -0.18243043 -0.10030798 -0.047081072 -0.31956226
000010 2b 6d 87 be 1d 51 59 be c2 80 59 be ca bf 0f be
       -0.26450476 -0.21222349 -0.21240523 -0.14038005
000020 43 3e 6c be da da 09 bd 25 5e b9 be e5 16 09 be
       -0.23070626 -0.03365598 -0.3620464 -0.1338764
000030 e4 fd 99 3d b9 25 ed bb 1d 59 8e bd e7 6b 78 bd
       0.07519129 -0.007237163 -0.06950591 -0.06064978
000040 4c c2 07 be a7 47 23 be 3e 9a e0 be 36 b5 87 be
       -0.13257712 -0.15945302 -0.43867677 -0.2650544
000050 cf e8 4f be 08 a8 2b bd 9b 89 b9 bd c2 12 69 be
       -0.20303653 -0.041908294 -0.09059449 -0.22761062
000060 91 07 bb be 12 52 69 be 55 68 e7 bd 61 83 e3 be
       -0.3652921 -0.22785214 -0.11299197 -0.44436172
000070 fe 3e 86 be ed b0 9e be db 53 f1 bd e5 14 bf be
       -0.26219934 -0.3099436 -0.11783572 -0.3732063
000080 12 0a 8f be 72 63 55 be 54 f3 5f 3d 70 5e ba be
       -0.2793737 -0.20838717 0.054675415 -0.36400175
000090 d3 c1 37 be ea f9 28 be 44 e0 3f be 71 9f 5a be
       -0.17945032 -0.16501585 -0.18737894 -0.21349885
0000a0 8d d9 11 be e6 93 85 be fe ad 11 be 1a 2a eb be
       -0.14243145 -0.260894 -0.14226529 -0.45930558
0000b0 19 18 26 be 7a d9 9d be 8a 7e 58 be 00 85 42 bd
       -0.1622013 -0.30829984 -0.21142021 -0.04749012
0000c0 63 a2 a4 be 18 32 51 bc c9 14 8a be 5c f2 2d be
       -0.3215514 -0.012768291 -0.26968983 -0.16986984
0000d0 d3 c4 e8 3d 1a 45 4e be 05 43 6b bd c6 7b 5e be
       0.11365666 -0.20143548 -0.05743696 -0.21726903
0000e0 42 4a b6 be 5b 9a 77 be 00 84 27 bd 72 80 50 be
       -0.3560353 -0.24179976 -0.04089737 -0.20361498
0000f0 28 3a 28 be 2c 75 e3 bd 19 3e 30 be c0 75 b7 bd
       -0.16428435 -0.11106333 -0.17211188 -0.08958006
