model/samples/rl_agent.pth (torch, 53422 bytes, 22 tensors)

conv1.att f4 [1, 8, 8]
00000000: d23a 143f 2734 5c3e c12a 1cbf 8c38 023f
00000010: 2e05 a03e 0699 ab3e 8e74 b33e cdee 17bc
00000020: 9600 d2bc 64a2 06bf 9e86 8abd ba01 ffbe
00000030: 9d66 113e 36f3 4f3e 637d 1d3d 58b3 01bf
00000040: 8bd4 4d3e 418b 45be 634f 83be b241 c93e
00000050: 6ad9 bdbe c277 afbe 3c0c 03bf 2a21 173f
00000060: 9cac edbe 1f20 103f 8269 0b3f a04f 97bd
00000070: 57aa 7ebe 3768 663e 33f2 9c3e 28cf 103d
00000080: 5e8e 51be 6c35 1a3f e6d6 443e 028f 18bf
00000090: 872b 923c 3cbd 923e c50f c0be 9ceb 68be
000000a0: 8b84 34be c19d cb3e 5edd a83d 4314 e73e
000000b0: a791 d33e b41a 47be 8fe2 fd3e bec8 a2be
000000c0: 2cd2 f13d c6b4 bf3d 648a c1be 29b4 04be
000000d0: ce82 953e 16e8 023e 5436 f43e c1a2 0dbf
000000e0: a1f7 ddbc 343b 183e 89e7 483e 056a e2be
000000f0: 3be3 ea3e d631 34be 12fe c8be 6c54 f3be
0.5790225 0.2150427 -0.6100274 0.50867534 0.31253952 0.33515185 0.35049862 -0.009273243
-0.025635045 -0.5259154 -0.067639574 -0.49806005 0.141993 0.20307621 0.038449656 -0.5066428
0.2010061 -0.19291402 -0.25646505 0.39307934 -0.37079936 -0.34271055 -0.51190543 0.5903498
-0.46420753 0.5629901 0.5445787 -0.07388234 -0.24869667 0.22500692 0.30653533 0.03535381
-0.20464465 0.60237765 0.19222602 -0.5959321 0.017843021 0.2866 -0.3751203 -0.22746128
-0.17628686 0.39768794 0.082453474 0.45132646 0.4132206 -0.1944378 0.49586913 -0.3179378
0.11807665 0.09360652 -0.37800896 -0.1295935 0.2920136 0.12783846 0.476977 -0.5532647
-0.027095618 0.14866334 0.19619574 -0.4422151 0.45876488 -0.17597136 -0.3925634 -0.47525346

conv1.bias f4 [64]
00000000: a4a8 03bc 53cf 03bc defe fcbb 41d7 fdbb
00000010: 41ec cdbb 5233 fdbb 1c03 ccbb 198e 00bc
00000020: 914b 953a b064 00bc 4b46 fcbb e61f bd3b
00000030: 4294 f3bb 53f2 aebb f2ee fdbb 1734 febb
00000040: d6dc fb3b db14 f5bb 4776 4abb 1ca8 f6bb
00000050: dcb5 f93a 537f a23b b30b 00bc cb4e fcbb
00000060: c584 793b e6af f8bb b671 f7bb 229e e53b
00000070: e021 8dbc 4b6c f7bb ef33 663b 99fd fdbb
00000080: fd10 e13b acdf d63b a36b f8bb a994 e03b
00000090: 5362 f8bb 35c4 8c3b dac5 e1bb 14be f8bb
000000a0: 7c30 35bb 0d27 a9bb 6a34 b4bb 7fee fc3b
000000b0: cd86 86bb a251 beb8 5093 34ba d599 00bc
000000c0: 5d4d f5bb e546 063c 4522 00bc a70a 6d3c
000000d0: 8d54 f4bb 6b81 fcbb 0a1b f2bb 441e 00bc
000000e0: e33a dcbb a90a f5bb 79a8 f8bb c7a6 f4bb
000000f0: 99fb 613b 4954 f5bb d714 bbbb 43dc c6bb
-0.0080358125 -0.008045035 -0.007720812 -0.0077466075 -0.006284267 -0.007727065 -0.0062259566 -0.007846379
0.0011390318 -0.007836506 -0.0076988093 0.005771625 -0.007433445 -0.005338946 -0.0077494318 -0.0077576744
0.007686238 -0.007479293 -0.0030893253 -0.0075273644 0.0019051391 0.004959026 -0.007815289 -0.0076998225
0.0038073522 -0.007589328 -0.007551397 0.0070073763 -0.017228067 -0.0075507513 0.003512617 -0.0077511785
0.0068684802 0.0065574255 -0.0075811907 0.006853659 -0.0075800805 0.0042958506 -0.006890041 -0.0075910185
-0.0027647307 -0.005162126 -0.0054994123 0.0077188606 -0.004105425 -9.075111e-05 -0.00068884064 -0.007849176
-0.007486029 0.0081956135 -0.0078206705 0.014467872 -0.0074563683 -0.0077058575 -0.007388477 -0.007819716
-0.006720887 -0.0074780774 -0.007588443 -0.0074661705 0.003448224 -0.007486854 -0.0057092714 -0.0060687377

conv1.lin_l.weight f4 [64, 2]
00000000: e27f 7c3e 96b2 bc39 97fe 67be ea83 e43c
00000010: d736 4cbe 03d9 dbbd e5ef 4f3e 79b2 43be
00000020: 1854 843e 8966 323e f152 7bbe 0195 80be
00000030: c99c 8abe 50b7 393d 56fb 933e f6c4 59be
00000040: a69e 17be 398e 4bbe 1a3f 443e 7da2 95be
00000050: da29 b63d 4774 d1bc bb04 67be 068a 97bd
00000060: 617d ff3d 12af 853e 8660 01be e60b 7abd
00000070: b422 82bc 3611 83be c3bd 23be 0835 70bd
00000080: 0e59 b63b 9324 39be 8a6c 863d ca17 a6bd
00000090: b9d8 583e e013 80be 78b2 29bd 9f91 6d3d
000000a0: 2fd2 4fbe 4fe3 b0bd f605 0ebe 33fb d1bd
000000b0: 3c4b 86be 0264 06be a648 933e 8539 4bbe
000000c0: 805c 913e dea5 743c ae9f d53d bbc6 bb3d
000000d0: 3e2d 1bbd a78d 583e bcca 6b3c 5283 b8bd
000000e0: 04b0 8dbe 3abb 8abe e7ca 56be 6fd8 02bc
000000f0: 5438 8d3e e5ce 8abe b32d 63be 3b45 1cbe
00000100: df21 633e 0fc1 503e c7e6 03be be1b 153e
00000110: cfe1 2a3e c463 753e 2381 0d3d 43a4 91bb
00000120: e7ce a3bd 522a 94bd 49e1 133c b572 9abe
00000130: c71b 843e 147b c03c 19d7 7a3e 3384 4a3d
00000140: a786 28be 6484 433e fe0d e63d c6cb 96be
00000150: 6a80 9b3d 338c 0e3d c331 6aba 8c4f 7bbb
00000160: abce 833d 8abf bb3b 5aaf 583e dbad 02be
00000170: 5a5a 813e 2be7 98bd 2fa5 dcbc 3486 95be
00000180: 17d0 2bbd e3f2 293e f3cc 853e d04a 2dbe
00000190: 336f 5c3e aeaf 07be bb2b 833e e2c3 153e
000001a0: 1556 073e 2b26 233e f268 7f3e f805 1dbc
000001b0: 0275 0cbc ea2a bdbd 379e a93c a567 11be
000001c0: 5370 833e 3b27 36be 72a5 6ebd fadf 8e3d
000001d0: 5a6a 88bd 512c 08bd 2df7 4dbd c574 163e
000001e0: fbe2 49be 3f89 6fbd dbdc 133e 9227 f53d
000001f0: 291f 29bd b281 54be 23ce 2f3e 7141 323e
0.24658158 0.0003599121 -0.22655712 0.027894933 -0.19942795 -0.10734751 0.20306356 -0.1911105
0.25845408 0.17421927 -0.24543358 -0.2511368 -0.27072743 0.045340836 0.28902692 -0.21266541
-0.14806613 -0.19878472 0.19164696 -0.2922553 0.08894701 -0.02556814 -0.22560398 -0.07399373
0.12475086 0.2611013 -0.12634477 -0.061046503 -0.015885688 -0.25599068 -0.15990357 -0.058644325
0.0055648154 -0.18080358 0.06563671 -0.08110006 0.21176423 -0.25015163 -0.041429967 0.058000203
-0.20295022 -0.08637106 -0.13869461 -0.102529906 -0.26229274 -0.13124087 0.28766364 -0.1984616
0.28390884 0.014932124 0.10430847 0.09168764 -0.037884943 0.21147786 0.014391597 -0.09009422
-0.27673352 -0.27095968 -0.20975839 -0.007986172 0.27582037 -0.27110973 -0.22185402 -0.15260784
0.2218089 0.20386146 -0.12881003 0.14561364 0.16687702 0.23963839 0.034546982 -0.0044446304
-0.07998448 -0.072346345 0.00902588 -0.3016564 0.25802442 0.023496188 0.24496116 0.04944248
-0.16457616 0.19093472 0.112331375 -0.29452342 0.075928524 0.034801673 -0.00089338067 -0.0038346974
0.06435903 0.0057296203 0.21160641 -0.12761633 0.25264245 -0.07465967 -0.026934234 -0.2920395
-0.041946497 0.1659656 0.26132926 -0.1692307 0.21526794 -0.1325061 0.256193 0.14625505
0.13216431 0.15932529 0.24942377 -0.009583943 -0.008572819 -0.09236701 0.020705326 -0.14199694
0.25671634 -0.17788403 -0.05826325 0.06976314 -0.0666091 -0.03324539 -0.050284553 0.14692982
-0.19715492 -0.058480497 0.14439718 0.11970438 -0.041289482 -0.207526 0.17168479 0.17407776

conv1.lin_l.bias f4 [64]
00000000: a95c 9fbe ff93 163f b159 ecbe ea65 e6be
00000010: bd37 333f 5824 82be 8da9 253f 8216 24bf
00000020: b22a 1b3d 898f efbe ef0b 14bf 8f88 f13d
00000030: 77b2 fbbe 53ce 053e 4b37 a8be e747 1fbf
00000040: 9d3a 243f ad18 f7bd 3f68 6c3c 3f4c b9be
00000050: 550b 2f3d 7828 053f a82a 18bf f1f7 c2be
00000060: 5b51 a9bd ffc3 07bf 7944 1bbf d2d2 d03d
00000070: 997f febb f249 97be 3bb4 04bd 6052 efbe
00000080: 8702 b43e 4b1f 1d3f 2d0f 33bf 5cd9 963e
00000090: 4f5a 93be ba08 9ebd 1dba 86be e107 f2be
000000a0: f993 a9bd 4f38 a93d 9f2d 973e 5486 333e
000000b0: 55b0 bfbd b508 803e bf93 2f3f ab41 f2be
000000c0: 46f7 ddbe 218b bc3e 03ee 30bf 1ee5 f5bd
000000d0: 4a52 cabe cb3f 22bf 1227 c53e 5e4f 26bf
000000e0: 520e 053f 03ef 96be 6b7f b4be 14b7 babe
000000f0: 53af 9d3e 31e2 bfbe 6475 303f 8808 0d3f
-0.31125382 0.58819574 -0.4616218 -0.4499963 0.70006925 -0.25418353 0.6471184 -0.64096844
0.037882514 -0.46789196 -0.5783071 0.117936246 -0.49159595 0.13066988 -0.32854685 -0.6221909
0.64151937 -0.120652534 0.014429151 -0.36190984 0.042735416 0.52014875 -0.5944009 -0.3807979
-0.082674704 -0.5303344 -0.60651356 0.10196461 -0.0077666757 -0.29548603 -0.032398444 -0.46742535
0.35158178 0.61375874 -0.6994503 0.29462707 -0.28779837 -0.07716508 -0.26313868 -0.47271636
-0.08280177 0.08262693 0.29526994 0.17531711 -0.093598045 0.25006643 0.6858482 -0.47315726
-0.43352717 0.36824897 -0.6911318 -0.12006591 -0.39515907 -0.6337859 0.3850637 -0.64964855
0.51974976 -0.29479226 -0.35253462 -0.36467803 0.30797824 -0.37477258 0.68929124 0.5509114

conv1.lin_r.weight f4 [64, 2]
00000000: f434 b6bd 05e2 16be 8f35 bebd a138 153e
00000010: b0a5 8abe 4d8b c03d f33a 15be 4fbd 883e
00000020: 5dfd 98be ac8d ea3d 7386 2a3e 6669 3cbe
00000030: b833 ce3d 60c7 2bbe af4b 9a3d 0d5b fe3d
00000040: 4dd6 4ebe f6a7 1d3e 13cf 6bbe 7903 83bd
00000050: de2e 833d c94a 69be b095 10bc 8c74 01be
00000060: 6940 bf3d 4128 993e dc73 41be 8724 4cbe
00000070: 52eb 0d3e 7a63 87be e2db 013e e41b c03d
00000080: 6a90 833e d502 993e 0f26 f3bc dd29 80be
00000090: 1b48 993e 68b9 873e 4705 c3bd dc79 943c
000000a0: 2608 93bc a2a0 81be 041e fcbd ae9e 673e
000000b0: cf86 363d 53b5 54be 98a6 38be 4c2c 35be
000000c0: 118a 0b3e 4ae7 ed3d 7ce9 4b3e 635f 373e
000000d0: a33e 57be 8807 cebd 2c0b 48be f7cf 533c
000000e0: 6945 883e 861d 983e 9e4a eaba c070 833d
000000f0: 3741 98bd 0f56 8d3e 0d86 913d 3006 86be
00000100: 87c0 5abe ea5a c8bd c158 e53d f60b 61be
00000110: 8231 fd3a 4811 60be 02d4 55be 4e38 ccbc
00000120: 007a 26be 067d c93d 9907 a53d 373b 873d
00000130: 73ad 64bd c15d cc3d 2d55 933e 3ff0 b83d
00000140: 1f0f 6a3d 61ef 84be 8734 363d b1c3 3c3e
00000150: 2f7c 30be e43b 163e a563 5f3e 1e96 7bbe
00000160: 2ffb f23d d388 ba3d 97ac 8e3c 8c55 113e
00000170: 7758 92be eedc ddbd 3184 2a3e df88 183d
00000180: c6b5 953b 4ba5 1cbe 4118 293e efba 4e3c
00000190: 2259 493d d481 aa3c e965 973e 01a3 62be
000001a0: 4773 88be 9b2b 4a3e 5642 0ebe d424 1b3e
000001b0: eb82 963e b96d 793e c73a 013e 8699 ad3d
000001c0: 61bc d83d 2c4c 01be 796e 113e 9de2 96be
000001d0: 6923 12be 97f5 8b3e ceae 5e3e 021f 7cba
000001e0: 6fa7 53be 7605 14be 53b9 5abe 9bd5 043e
000001f0: 6f4d ba3d 3d36 8e3e 8068 84bd 1678 8c3e
-0.08896819 -0.14734657 -0.09287559 0.14572383 -0.27079535 0.094015695 -0.14573269 0.2670693
-0.298808 0.11452803 0.16652851 -0.18399581 0.10068458 -0.16775274 0.07533967 0.1241971
-0.20198937 0.15396103 -0.23028211 -0.06397147 0.064054236 -0.22782435 -0.008824751 -0.12642115
0.09338457 0.29913524 -0.18891853 -0.19935809 0.13859299 -0.26443082 0.12681535 0.0938032
0.25696117 0.29884973 -0.029681234 -0.2503194 0.29937825 0.2650864 -0.09522491 0.018124513
-0.017948221 -0.25317866 -0.123104125 0.22619125 0.044562157 -0.20772295 -0.180323 -0.17692679
0.13626887 0.116163805 0.19913286 0.17907481 -0.21019988 -0.1006003 -0.19535512 0.012928001
0.26615456 0.29710025 -0.0017875021 0.0641799 -0.07434314 0.2760472 0.07105646 -0.26176596
-0.21362506 -0.097829655 0.11198569 -0.21977219 0.0019317123 -0.21881592 -0.20881656 -0.024929192
-0.16257477 0.098382995 0.0805809 0.06603091 -0.055829477 0.0997882 0.2877592 0.09030198
0.057143327 -0.25963882 0.044483688 0.18434025 -0.17234872 0.14671284 0.21815355 -0.24568984
0.11864316 0.091081284 0.017416282 0.1419279 -0.28583118 -0.108331546 0.1665199 0.037239905
0.004568788 -0.1529743 0.16513158 0.012617811 0.04915727 0.02081386 0.2956994 -0.22132494
-0.2665045 0.19743197 -0.13892493 0.15150768 0.29396757 0.24358262 0.12620078 0.08476548
0.105828054 -0.12626714 0.14202298 -0.29469767 -0.1427132 0.27335808 0.2174637 -0.00096176576
-0.2066934 -0.14455208 -0.21359758 0.12972109 0.090968005 0.27775756 -0.06465244 0.27435368

conv1.lin_r.bias f4 [64]
00000000: f76a b23e 6c91 583e e358 fe3e ec25 0cbe
00000010: d208 cfbe e46d 353f 120d f83d f8eb 1fbe
00000020: f9fc 9a3e 1ae5 f43e dc46 02bf 038f 02bf
00000030: 4e98 933e 0141 f53e 0e4c f0be 4627 30bd
00000040: cad0 f53e 79d7 403e 9980 2f3f fefc e7be
00000050: 7e15 ef3e ba96 273d 1880 08bf b1f9 4ebe
00000060: c82e c3be d632 67be d8e8 57be f29c 5dbe
00000070: 4aa5 c1bd 2d02 e93e 9108 bbbc 716c f73d
00000080: 7b5e e93b 686d ffbe d724 a3bd c471 dfbe
00000090: 7d59 853d 17ce 053e 5106 523d 325e c5be
000000a0: 4118 553e d096 98bd 1de5 29be 3b07 273f
000000b0: 8fd6 ff3e ba2b 0a3f 7afd 20bf 77ad f9be
000000c0: c33a 1b3f 6542 7fbe 532b cc3e fa4b 0abf
000000d0: 1e13 e1be a0c7 1c3f 0669 a53d 79b8 053f
000000e0: f91b 25bd 61ee ce3d f532 a73e 8991 b23d
000000f0: 81a6 313f ee6c 16bf d570 8bbd 5595 903e
0.34847233 0.21149224 0.4967719 -0.13686341 -0.40436417 0.70870805 0.12111868 -0.15617359
0.30271128 0.4783104 -0.5088937 -0.5099947 0.28827137 0.47901157 -0.46933025 -0.043006204
0.48010856 0.18832196 0.685556 -0.45310205 0.46696085 0.04091523 -0.53320456 -0.20212437
-0.3812163 -0.22577986 -0.21084917 -0.21641901 -0.094553545 0.45509472 -0.022831233 0.120812304
0.0071218587 -0.49888158 -0.07966011 -0.43641484 0.06511209 0.13066898 0.051275555 -0.38548428
0.20810033 -0.0745064 -0.16591306 0.6524541 0.49968383 0.5397297 -0.62886775 -0.48765156
0.6063654 -0.24927671 0.39876804 -0.5402218 -0.43959898 0.61242104 0.08076672 0.5223461
-0.04030988 0.10104061 0.32656065 0.08719165 0.6939469 -0.58759964 -0.068086304 0.2823893

conv1.lin_edge.weight f4 [64, 1]
00000000: b4cb 3f3d b36e 50bd 0849 e23d ed24 ecbd
00000010: 4ebe c4bd d5c1 18be 206f 8f3e 8ff8 a2be
00000020: 33a2 a0bd 535f 823e e265 033d eb15 cd3c
00000030: d038 153d 01ac c1bd 5813 15be 3920 f73d
00000040: 1867 0f3e d681 49be 9718 343d c206 0c3e
00000050: f5d4 93be c023 ed3d 7477 673e 83de 403e
00000060: 50c9 a63d ce0c 43be d8d1 413e c760 893c
00000070: dd07 cfbd 03f8 abbb 970d 65bd dcce 663e
00000080: accc 073c 126c 443e a9ed 7bbe 98b1 28be
00000090: 8ddd 0f3e b9ae 223d be62 d0bc 54d0 6bbe
000000a0: 4ec3 873e 49c5 84be 3b5a c03d ad77 eb3d
000000b0: 79b0 31be 57cf 583e ac3a d93d 8199 623e
000000c0: eeec 8b3e 70bf e1bd b1a2 633d 7cce 203e
000000d0: 7446 043d a0d9 143e 4e3b 30be 8575 623e
000000e0: 78ff 0d3e ed94 e83d dc85 a1be c337 7c3e
000000f0: 0e67 b4b9 1d2a 1d3e 83b0 74be f37d d33d
0.046825126 -0.05088682 0.11049086 -0.115304805 -0.0960661 -0.14917691 0.2801447 -0.3183026
-0.07843437 0.25463352 0.032079585 0.025034865 0.036431134 -0.09456635 -0.1455816 0.12066693
0.14004171 -0.19678435 0.043968763 0.13674453 -0.2887341 0.115790844 0.22604162 0.18834881
0.08143866 -0.19047853 0.18927705 0.01676978 -0.10108922 -0.005248071 -0.055921163 0.22539848
0.008288544 0.1918185 -0.24602379 -0.16473997 0.14049359 0.03971741 -0.025437709 -0.2302869
0.26516193 -0.25931767 0.0939221 0.11497436 -0.17352475 0.21172844 0.10606894 0.2212887
0.273292 -0.11022842 0.055575076 0.15703768 0.03229375 0.14536142 -0.17210123 0.22115143
0.13866985 0.1135653 -0.3154744 0.24630646 -0.00034409057 0.15348096 -0.23895459 0.10326757

norm1.weight f4 [64]
00000000: 565d 7f3f 91ec 7d3f 0000 803f 0000 803f
00000010: a944 7e3f 0000 803f 9365 7e3f 0000 803f
00000020: 7b3f 7f3f 0000 803f 0000 803f 1dc6 803f
00000030: 0000 803f afd2 7e3f 0000 803f 0000 803f
00000040: f5ec 803f 0000 803f bae9 7e3f 0000 803f
00000050: 9c4f 803f ca97 803f 0000 803f 0000 803f
00000060: 00af 803f 0000 803f 0000 803f 90d7 803f
00000070: f58e 7c3f 0000 803f 78ad 803f 0000 803f
00000080: befa 803f e4e1 803f 0000 803f 11eb 803f
00000090: 0000 803f 7275 803f 5b44 803f 0000 803f
000000a0: efa0 7f3f d12f 7f3f 0389 7e3f 1210 813f
000000b0: 1beb 7e3f 98ba 7f3f 481d 803f 0000 803f
000000c0: 0000 803f 5cf3 803f 0000 803f 1470 823f
000000d0: 0000 803f 0000 803f cb25 7e3f 0000 803f
000000e0: 716a 7e3f 0000 803f 0000 803f 0000 803f
000000f0: 578f 803f 0000 803f 2605 7f3f 3e96 7e3f
0.99751794 0.99189097 1.0 1.0 0.9932352 1.0 0.9937374 1.0
0.9970624 1.0 1.0 1.0060459 1.0 0.9954023 1.0 1.0
1.0072314 1.0 0.9957539 1.0 1.0024295 1.0046322 1.0 1.0
1.0053406 1.0 1.0 1.0065784 0.98655635 1.0 1.0052938 1.0
1.007652 1.0068936 1.0 1.0071737 1.0 1.0035841 1.002086 1.0
0.9985494 0.9968234 0.99427813 1.0083029 0.9957749 0.99894094 1.0008936 1.0
1.0 1.0074267 1.0 1.0190454 1.0 1.0 0.9927642 1.0
0.99381167 1.0 1.0 1.0 1.0043744 1.0 0.9961723 0.99448

norm1.bias f4 [64]
00000000: 0621 95ba 4092 05bc 0000 0000 0000 0000
00000010: 7790 cebb 0000 0000 4012 cdbb 0000 0000
00000020: 4d60 2c3b 0000 0000 0000 0000 9510 ca3b
00000030: 0000 0000 319d acbb 0000 0000 0000 0000
00000040: 7813 fc3b 0000 0000 97b9 33bb 0000 0000
00000050: 9436 483b f614 a73b 0000 0000 0000 0000
00000060: b88f 8d3b 0000 0000 0000 0000 7164 e63b
00000070: ec0c 7ebc 0000 0000 626e 783b 0000 0000
00000080: b901 e43b d129 d63b 0000 0000 bdcf e43b
00000090: 0000 0000 565f 923b c680 b43b 0000 0000
000000a0: 1245 f9ba 0504 a3bb f6ae afbb db0d 053c
000000b0: 4030 17bb e6b4 0bb9 2ef3 db39 0000 0000
000000c0: 0000 0000 f062 063c 0000 0000 fad2 6d3c
000000d0: 0000 0000 0000 0000 a472 eebb 0000 0000
000000e0: e459 dcbb 0000 0000 0000 0000 0000 0000
000000f0: 8c2a 833b 0000 0000 05b2 8fbb 2c8e a5bb
-0.001137764 -0.0081525445 0.0 0.0 -0.0063038426 0.0 -0.006258279 0.0
0.0026302517 0.0 0.0 0.0061665275 0.0 -0.005267762 0.0 0.0
0.0076927505 0.0 -0.0027423853 0.0 0.003055011 0.0050989343 0.0 0.0
0.004320111 0.0 0.0 0.0070310165 -0.0155060105 0.0 0.003790759 0.0
0.006958213 0.0065357466 0.0 0.006982772 0.0 0.0044669313 0.005508515 0.0
-0.0019017777 -0.0049748444 -0.005361433 0.008120979 -0.002306953 -0.00013323463 0.00041952118 0.0
0.0 0.0082022995 0.0 0.014515633 0.0 0.0 -0.00727685 0.0
-0.006724583 0.0 0.0 0.0 0.0040028747 0.0 -0.0043852353 -0.0050523486

conv2.att f4 [1, 1, 64]
00000000: 6de2 833a c4ec 823e 1ece 1c3e bc41 a0be
00000010: 5e1a 993e 258f 21be f4af 64be 1a68 85be
00000020: 6f01 9d3e dd3b 5bbe 6049 03bd 8817 a53d
00000030: bdbd 4abe 4329 8bbe e6f1 223d 4fa7 f9bd
00000040: 5020 6dbe 675f 563e 2f7a f93d a4be ddbd
00000050: fd63 bd3c 120b 10bd 4eb6 c8bd 04cb 58be
00000060: d111 39be b8aa 17bd 0fdc aebc 632d 863e
00000070: 84f6 8a3e 6382 d43d 20ce 3bbd 678d 56bd
00000080: 6f90 8cbe b194 953e aa4f 62be fa3c 93be
00000090: f4d3 3c3e deea 1bbe f531 fabd 139e 923c
000000a0: 1083 d93d c7ce 7d3d cb70 8abe a52d 853e
000000b0: e16a 2c3e 3f05 68be c51b 033d f751 28be
000000c0: 6ab4 053e 6ab0 63be 721e b0bd 436f 7fbe
000000d0: 5015 633e 4abf 6dbe 9769 b4bd 06e7 75be
000000e0: 95b8 3b3d a3b4 553e a8e0 01be 5d62 d1bd
000000f0: c0f5 3e3e bb14 233e 59ac b43d c88e fabc
0.0010061987 0.25571263 0.15313002 -0.3130015 0.2990293 -0.15777262 -0.22332746 -0.26055986
0.30665156 -0.21409555 -0.032052398 0.08061129 -0.19798942 -0.27179918 0.039781474 -0.12190115
-0.23156857 0.2093483 0.12181508 -0.108273774 0.023118967 -0.035166807 -0.09800397 -0.21171194
-0.18073203 -0.037028044 -0.021345166 0.26206502 0.27141201 0.10376432 -0.045850873 -0.052380946
-0.27453944 0.29215005 -0.22100702 -0.2875746 0.18440229 -0.15226313 -0.1221656 0.017897641
0.10620701 0.061964776 -0.2703918 0.26011387 0.16837646 -0.22658251 0.032008905 -0.16437517
0.13057104 -0.22235265 -0.08599557 -0.24944787 0.22176099 -0.23217502 -0.08809202 -0.2401391
0.045830328 0.20869689 -0.12683356 -0.102238394 0.18648434 0.15925877 0.08821935 -0.030585662

conv2.bias f4 [64]
00000000: 2510 8a3b 47d7 b0bb 12ff 6ebb 1f1f 4c39
00000010: f684 ce3b 6401 ba3b e718 343b 532c 83bb
00000020: f9de 963b c099 a5bb 8175 143c 0d6e 10bc
00000030: 401e f03b b816 c8bb 1bf5 9fbb 1978 a7bb
00000040: e6c3 95bb c163 043c ef06 cbba b0e2 703b
00000050: 2ec9 b3bb ba51 c63b 4e7a 93bb 3687 87bb
00000060: 0cf2 de3b 8cd5 e63b c4f3 5bbb f723 5b3b
00000070: c6d1 3a3c 9c3f 75bb 206c 1dbc 36d0 d9bb
00000080: 2b40 92bb c7d0 bbbb 2738 173c 1d71 b23b
00000090: 448f 98bb f0a9 af3b 237c d8bb b863 343a
000000a0: b2e6 19bc 0df4 d0bb 008f c2bb 3597 e43b
000000b0: df78 bcbb 4ed0 99bb 791a ac3a 85b2 87bb
000000c0: 5532 b63b d87a e43b 9de5 b1bb 6243 03bc
000000d0: 7d95 9abb ffa3 ab3b 5b0b 80bb fc67 99bb
000000e0: 1e1f 383c d556 82bb e66f 87bb a612 353a
000000f0: abbf cabb b678 c4bb bdb5 9ebb 9bac 0bb9
0.0042133504 -0.005396757 -0.0036467952 0.0001946655 0.0063024713 0.0056764353 0.0027480663 -0.0040030866
0.004604217 -0.005053729 0.009061218 -0.008815301 0.007327825 -0.006106224 -0.004881514 -0.0051107523
-0.004570472 0.008080424 -0.0015489737 0.003675621 -0.005486629 0.006052223 -0.004500664 -0.0041359914
0.0068037566 0.0070444997 -0.0033562044 0.0033438185 0.011402553 -0.0037421947 -0.009608299 -0.006647135
-0.004463216 -0.0057316753 0.009229696 0.005445613 -0.0046557505 0.0053608343 -0.006606595 0.00068813143
-0.009393381 -0.0063767494 -0.005937457 0.006976033 -0.0057517136 -0.0046940213 0.0013130448 -0.0041411542
0.0055601993 0.006972652 -0.0054289834 -0.008011671 -0.0047175274 0.0052380557 -0.0039076037 -0.0046815854
0.011237888 -0.0039776363 -0.0041332124 0.0006907381 -0.0061873994 -0.005995835 -0.0048434422 -0.00013320374

conv2.lin_l.weight f4 [64, 64]
00000000: 503a fdbc 9609 9fbc fc91 653d 5e52 b3bd
00000010: be67 2f3e 8647 f93d 58e9 25be 8c24 91bd
00000020: 7d44 0dbe 9d29 583e 80a5 08bd 72ba 643d
00000030: c69e 9a3d ca2c e6bc ce6c 91bd 3ea4 a13d
00000040: 8df5 8f3d 7a96 e5bd e8d4 cbbd 0f4d 2dbe
00000050: 028d 30bd cb4e 1cbe 7d4b 3d3e 432a 5c3e
00000060: 197f 35bd 1e1a ba3d 1b55 2a3e b003 6d3d
00000070: 3b74 e3bc 0c53 f4bd 63bb a33d ae1c f43d
00000080: 53ea 183e a64e 3dbe 5738 393e 3990 143e
00000090: 0da2 0d3e f09d 143e c140 32be c4a1 103d
000000a0: d481 09bb 0e6d 453e 92ca 8cbd 1881 4abe
000000b0: 6153 6abd 1007 2abe a22c 05be 331c 5d3e
000000c0: cfa7 3f3e 9b57 6dbd e0be 8f3c deb5 31bd
000000d0: 1f77 5c3e 42fc e13d 9f33 0dbe 1e27 c43d
000000e0: 8c7a 323e 8056 7abc 6652 00be f646 00be
000000f0: 09b2 5f3e 1b7e 1d3e b8d2 593e 7b50 133e
00000100: 8ece 2b3d 4131 313e 6c65 f1bd 0f3e 25be
00000110: 0ae5 8fbd 0303 483e 8e08 87bc d2a9 de3d
00000120: 8607 22be 3270 eb3d 40ab 72bd 6a7a 5bbe
00000130: 3171 e1bd 1545 5f3d d3b5 5b3e c06c 893b
00000140: 64ac 04be e491 aebd f57f 083e 76b5 51be
00000150: 2253 58bd d155 453e f498 80bd 0f77 10be
00000160: 0154 d53d 5d1d 493e b733 1bbe 94b4 373c
00000170: 7cd8 2bbe 805b 8c3a 3250 9cbd a0e0 1abd
00000180: f4c6 56be e313 5dbe fe5a 12be 4498 453e
00000190: 2184 31be b41d 073a 1a24 e4bd 4e1d 3cbe
000001a0: a457 26be de7c d13d caae 10be be18 bd3c
000001b0: 7761 a33d ad47 2c3d 0ef2 3fbe 9528 44be
000001c0: b04b 10bc ac4b 39be 2d59 163e 0754 f6bd
000001d0: 1061 39be 6e8e 933d 4214 e03c 83f8 24be
000001e0: 2935 153e ca1b dd3d d82b e73c 60cb b23b
000001f0: 0839 bcbd f3ad f1bd fe6b 54be 9985 d63d
00000200: 1def 4d3e e1a0 ddbd cc1c 5abd 027e b5bd
00000210: 6df9 e03d e559 153e ee21 bf3d e0c4 48bc
00000220: 270c af3c 1630 10be 26f0 cdbd 363a 0cbd
00000230: c964 393e 7a1c 8f3d 5a84 bf3d 3c2a a6bd
00000240: f9ac 89bd ab07 4f3e b5ce 333e 0da3 22be
00000250: 8802 0b3e 7213 3d3e 7e22 ce3d 9605 a83d
00000260: 128c 7cbd fd11 59be 8ec4 843d e706 353e
00000270: 1eae debd 0022 21bc c356 1fbe 9773 0f3e
00000280: 1f06 3cbe 1642 01be 6918 473e de14 05be
00000290: f08c d23c 903b 4d3d 145a f4bd f620 ec3d
000002a0: b8f3 0ebd 3e7c 31be 5411 253d 4bec 8cbd
000002b0: a162 c43d cc1e 47bd f2f7 a33c 3b77 283e
000002c0: 23d2 2a3e c396 a2bd c4d6 28be f28c 3cbe
000002d0: 0a65 a8bd a865 93bd b385 163e c283 f03d
000002e0: 8623 32be 3cd5 0abe 9493 053d f3b3 4bbe
000002f0: 61a8 18bd 2028 d0bc cb7d 33be cb72 eebd
00000300: d3d3 ef3d f941 233e 4650 0dbe 18b1 31be
00000310: cc6e f63d 80fc d0bb be12 383e 1913 443e
00000320: d6d0 183d a19c 27be aaa6 25be 7318 27bd
00000330: dcc5 3c3d 45b8 213e 6386 213e 609d 8abc
00000340: 2740 aa3c 72bc 0dbe 3a82 b93d ee7e 22be
00000350: 0639 69bc 8a02 943b 007c 9cbb c981 553e
00000360: 2587 873d f93c 183e fa8e 863d 8817 5f3e
00000370: 84cf 943d a4af 573d d8d3 26bd 72b8 9d3d
00000380: c4af 5b3e 321e f43d 0003 65bc 0842 0ebe
00000390: 3d60 123e 241d 0ebe f5ae 45bd 34ff 2c3d
000003a0: 727c 00be c25e 2f3d 9435 c0bd 0a8d 25bd
000003b0: dce5 e5bd e2c5 653d 6297 92bd 0dfd 3b3e
000003c0: 0160 06be 9b42 8d3c ce9e 44be 5c52 133e
000003d0: 58a7 d7bc 4a71 96bd efcd 13be e408 633d
000003e0: 429a b53d 9e13 f0bd 7cfb a0bd 9250 ee3d
000003f0: 1c1e 92bd c0b7 8fbd 7921 edbd 839e 773d
-0.030911595 -0.01941375 0.056047425 -0.08755945 0.17129418 0.12171845 -0.16202295 -0.07087049
-0.13795657 0.21109624 -0.033360958 0.05584187 0.07549815 -0.028097529 -0.07100831 0.07892655
0.07029257 -0.11210342 -0.09952718 -0.16923927 -0.043103226 -0.15264432 0.18485828 0.21500497
-0.044310663 0.09087013 0.16634028 0.057864845 -0.027765384 -0.119299024 0.079947256 0.11919533
0.14933138 -0.18487033 0.18087898 0.14508142 0.13831349 0.14513373 -0.17407514 0.03531052
-0.0020981925 0.19279882 -0.06874575 -0.19775808 -0.057208423 -0.16604257 -0.13005307 0.21592788
0.18716358 -0.057944875 0.017547071 -0.043386333 0.21529816 0.110344425 -0.13789223 0.095777735
0.1742956 -0.015279412 -0.12531433 -0.1252707 0.21845259 0.15380137 0.21271789 0.1438617
0.041945033 0.17303945 -0.11786923 -0.16136955 -0.070261076 0.19532399 -0.016483571 0.108722344
-0.15823182 0.11496009 -0.059245348 -0.21433416 -0.11007918 0.05450924 0.21456079 0.004193872
-0.12956387 -0.0852392 0.13330062 -0.20479378 -0.052813657 0.19271018 -0.062791735 -0.14107917
0.10416413 0.19640107 -0.15156446 0.011212487 -0.16781801 0.0010708421 -0.076324835 -0.037811875
-0.20974332 -0.21589617 -0.14292523 0.19296366 -0.1733556 0.00051542674 -0.11139698 -0.18370554
-0.1624437 0.10228895 -0.14129177 0.023083087 0.07977574 0.042060543 -0.1874468 -0.19156106
-0.008807108 -0.18095273 0.14682455 -0.12027746 -0.18103433 0.07204901 0.02735341 -0.16110425
0.1457106 0.10796316 0.028219149 0.005456373 -0.09190565 -0.11800756 -0.20744321 0.104747005
0.20110746 -0.10821701 -0.05325012 -0.08861925 0.10985074 0.14585073 0.093326434 -0.01225397
0.0213681 -0.14080843 -0.1005557 -0.0342352 0.18104853 0.06987853 0.09351416 -0.08113524
-0.06722445 0.20217769 0.17559321 -0.15882511 0.13575184 0.18464449 0.100651726 0.082041904
-0.06165702 -0.21198268 0.06482802 0.17678414 -0.10873054 -0.009834766 -0.1556044 0.14008938
-0.1836171 -0.12622866 0.19442905 -0.12996241 0.02570197 0.05010563 -0.119312435 0.11529724
-0.034900397 -0.17332551 0.04029973 -0.06881007 0.095891245 -0.048613355 0.02001569 0.16451733
0.16681723 -0.07938912 -0.16488177 -0.18413141 -0.08222397 -0.07197124 0.1469944 0.11743881
-0.17396364 -0.13557905 0.032611445 -0.19892864 -0.037269954 -0.025409758 -0.17528455 -0.11642989
0.11710324 0.15943135 -0.13800153 -0.17352712 0.120328516 -0.0063777566 0.179759 0.1914791
0.037308536 -0.16368343 -0.16176859 -0.0407948 0.04608713 0.1579295 0.1577392 -0.016920745
0.020782543 -0.13841417 0.09058042 -0.15868732 -0.014234787 0.0045169042 -0.004775524 0.2085029
0.06617574 0.14867009 0.06570239 0.2178632 0.07266143 0.05265774 -0.040729374 0.07701196
0.21453768 0.11919822 -0.013977766 -0.13892376 0.14294524 -0.13878304 -0.048262555 0.04223557
-0.12547472 0.042814977 -0.09385219 -0.04041771 -0.11225483 0.05609692 -0.0715778 0.1835825
-0.1312256 0.017243674 -0.19201204 0.14386886 -0.026324913 -0.07345827 -0.14434026 0.0554284
0.08867313 -0.11722492 -0.07860467 0.11636461 -0.07134649 -0.070174694 -0.1157865 0.060453903

conv2.lin_l.bias f4 [64]
00000000: d73e 85bd 20d8 d6bd 9d7b 43bd b382 c83d
00000010: 1b46 6bbc 6e93 32bd 40f9 f33d 7769 bf3d
00000020: b8dd b63b 2c2c 083b d196 843d 48b6 c63d
00000030: a2eb 8a3d 8ac4 b4bd 2608 e4bd 2225 97bd
00000040: f8ec c33d fe52 fe3d cdfa 2c3d b896 6c3d
00000050: e5da 03bd 513b e4bd 95e3 e23d 8278 d73d
00000060: 54c8 cebd 1a86 a7bd a42f c53d b796 afbd
00000070: 083f 6f3d 5a35 653c b537 bb3d cf85 f7bd
00000080: c5ec b3bd 503f 703d e361 5fbd 0b50 cc3d
00000090: c89f b5bd 4f80 2d3b 3f6c 66bd 92ae b7bd
000000a0: dcad 09bc ba8e 1abd c941 cfbc 8ce5 0c3d
000000b0: 94fe d93d 2ba8 c2bc 8d6d 823b 9a1e 403d
000000c0: a1c0 4b3d b5ee 053e 2d7d e7bd 7638 fdbd
000000d0: 4994 813d 3b82 b93d a863 dd3d 6b69 44bd
000000e0: 9914 e83c cc30 8ebd d4f9 693d d5bb b4bd
000000f0: 1add 95bd 1787 9f3d b81d f0bc 9ec3 d4bc
-0.065061264 -0.10490441 -0.04772531 0.09790554 -0.014359976 -0.04359763 0.11912775 0.09346288
0.00558063 0.0020778282 0.064740784 0.09702736 0.06783225 -0.08826549 -0.11134367 -0.073801294
0.095666826 0.12418173 0.04223137 0.057760924 -0.032191176 -0.11144126 0.11078564 0.10521032
-0.10096803 -0.08179875 0.09628227 -0.085736685 0.05840972 0.013989771 0.09141485 -0.12086069
-0.087853946 0.05865413 -0.05453671 0.099762045 -0.088683665 0.0026474183 -0.056255575 -0.089688435
-0.008403268 -0.03773377 -0.025299923 0.0343986 0.1064426 -0.02376183 0.0039803446 0.046904184
0.049744252 0.13079341 -0.11303172 -0.12364285 0.06327111 0.090580426 0.108100235 -0.047952097
0.028330134 -0.06942901 0.05712302 -0.088248886 -0.073175624 0.07789438 -0.029311046 -0.025972184

conv2.lin_r.weight f4 [64, 64]
00000000: de5c 53be cf81 2f3e 807c 44be 8024 3dbe
00000010: 59f2 4d3e 6081 90bb 8d74 eabd 0078 ea3c
00000020: 59a8 413e 6dba febd 7b6b 213e 618c 56be
00000030: 638d 203e d421 38be 6151 f6bd 5901 26be
00000040: d2e5 1ebe 2a22 eebd 505c dabc a7f9 1abe
00000050: e6d9 be3d 8514 cbbd 7546 48be 50ed f4bc
00000060: 79ed 153e 3cae 233d 82bb 46be 63f5 1f3e
00000070: 9840 f0bd 88aa 9cbd 9872 ca3c 901a 01bd
00000080: bc83 32bd 303e 02be af05 e9bd 9bd4 4a3e
00000090: 7b98 0d3e a9d7 043e a924 293e 6e42 a43d
000000a0: 57c8 2b3e ae51 0fbe ff12 1fbe 5a41 db3d
000000b0: 6585 3c3e 81cc 2a3e a66a 0abe 143e 7ebd
000000c0: 30b0 69bc 18ee 07be 54c7 103d 0054 c1bb
000000d0: 54fc d5bd c496 56be 7e2c 11be 340a 04be
000000e0: 0219 41be a0c2 66bc 6f23 2a3e 0049 08ba
000000f0: a817 54bd 6a7d d93d ec4c 0abe 2f8b 0abe
00000100: d07e 5fbd 8b66 043d 48f7 6bbd 31d2 d0bd
00000110: f800 383e 1b38 f7bd a64c e13c 40ea 4bbc
00000120: eab9 dfbd 6030 81bd e041 debb dd4d 843c
00000130: 7818 bf3c db1a 82bc 73e5 4ebe 1875 c3bd
00000140: e8c9 a03d e8df 9bbc 0690 0f3d 381a 39be
00000150: 420a e63d d17b 1b3e 80ef 2f3c d251 a4bd
00000160: bd08 593e bf63 1b3e 5e16 f73d 2a29 15be
00000170: 2f5e e4bd d4f9 40be 7513 b9bd 1470 6e3d
00000180: 5da9 04be a83b 42bd 2cd9 253d a209 0fbe
00000190: 0f14 55be ae1e 683d c58b ffbc 9ad2 26be
000001a0: 3c59 2fbe 7b53 733c 3f8c 653d eb2b f6bd
000001b0: 35d5 0c3e 0c4e 2e3e 002f e53c f62c d13d
000001c0: ce3f 2abe 52f1 3e3d 6015 ec3c 3bf4 5a3e
000001d0: a492 373d b085 d03c 57b8 b1bd 5bc7 1d3e
000001e0: ea44 1abe 8629 b2bd c0e6 133b 455e 183e
000001f0: 8684 223e 6701 093e ff33 5bbe 1cb1 373e
00000200: 4144 2d3e a126 48be 3dc6 34be 900e c73c
00000210: 04cd 52be 0bc3 54be eef3 333d fd20 39be
00000220: af91 a6bd 8f52 18be 0c3d 10bd 4e19 113e
00000230: d68e 98bd 8bcc 87bd 8054 f93b 80ee bcbc
00000240: 6643 06be a061 1c3c cf68 08bd 36de c83d
00000250: 45df 37be e82a 4cbe d035 4abc 342a 6c3d
00000260: 9fdb 9ebd 03ca e1bd 4ed8 22be 235c 24be
00000270: b9f9 0bbe c2ff e73d 8547 c03d 6b88 1a3e
00000280: d1cb 45be 2c5a 573e dda2 d9bd 4f39 903d
00000290: 51c7 113e 504f 03be be62 953d da2f 8d3d
000002a0: a930 fb3d dbad 2e3e 5ffa 9cbd c455 fb3d
000002b0: 4568 303e 728d 033e 54f5 9b3b 9eb6 dd3d
000002c0: 20c0 053c 82b0 3e3e e9c2 3b3e 6ecf 29be
000002d0: 9265 32be 203a 0fbc f766 87bd 6517 e1bd
000002e0: 1486 85bd 81e9 4b3e 3edf 8ebd d458 85bd
000002f0: d004 fa3d f8cd 29be 6940 a1bc 7c05 313e
00000300: 07ca 203e 9c99 313e 4dca febd b86b 2fbe
00000310: 12d8 213c 062d ad3d f7eb 35be c6c5 0abe
00000320: 6940 a93c b0d1 12bd 9065 c53c da4a 613c
00000330: 64a3 b5bd 0a77 77bc de20 ef3d 3884 9bbc
00000340: 96fc 5abe 3c2d 723d ae7e f5bd f6d7 51be
00000350: 2d08 4bbe 5c2e c6bb af00 4e3e f921 113e
00000360: 5db6 b63d 2812 48bd a211 aa3d 926c 4bbd
00000370: d4ae 4d3e f2c1 953d dd36 613d 7a3d cd3d
00000380: 8195 16be a439 8a3d 00e5 89ba d8b5 38be
00000390: e82f 4abd 6822 0cbe ccae 5ebc eca0 c0bd
000003a0: 19ce d73d e5c0 7a3d 8613 1fbe 8e45 4a3d
000003b0: 86a2 f93d 8bd6 55be 1880 1ebe 40f8 2cbe
000003c0: 6005 25be 120d 39be 0003 1b3a 4170 403c
000003d0: e0b6 c2bb 1b9d 413e 19ee 13bd ee8f c1bd
000003e0: 2290 bdbd 189d f2bd 8480 6cbd c2d3 0abe
000003f0: e559 ffbd ff1c 283e 4f8f 14be d3ae 0abe
-0.20640895 0.17139362 -0.19188118 -0.18470955 0.2011198 -0.004409954 -0.114480115 0.028621674
0.18911876 -0.12437902 0.15763657 -0.20951988 0.15678935 -0.17981654 -0.120272405 -0.16211452
-0.15517357 -0.1162761 -0.026655346 -0.15134297 0.093189046 -0.09916023 -0.19558127 -0.029898316
0.1464137 0.039961085 -0.19407466 0.15620951 -0.1173107 -0.07649714 0.024712846 -0.031519473
-0.043582663 -0.12719035 -0.11378037 0.19807665 0.13827698 0.12972893 0.16517891 0.08020483
0.16775642 -0.13996002 -0.1553459 0.10705824 0.18410261 0.16679575 -0.13517246 -0.06207092
-0.014263198 -0.1327442 0.035346344 -0.005899906 -0.104485184 -0.2095595 -0.14177129 -0.12894517
-0.18857196 -0.014084488 0.1661508 -0.0005198866 -0.051780373 0.10619624 -0.13505906 -0.13529657
-0.054564297 0.032324355 -0.057608873 -0.10196341 0.1796912 -0.12071248 0.02750237 -0.012445986
-0.10924132 -0.06308055 -0.0067827553 0.01615041 0.023327097 -0.015881946 -0.20204715 -0.09543818
0.078510106 -0.019027665 0.03504946 -0.18076408 0.11232425 0.15183951 0.010738254 -0.080234185
0.2119474 0.15174769 0.12064813 -0.14566484 -0.111507766 -0.18845302 -0.09036914 0.058212355
-0.12955232 -0.047420174 0.040490314 -0.13968518 -0.20808433 0.056669883 -0.031194577 -0.16291276
-0.17123884 0.014851446 0.056041952 -0.120200954 0.13753207 0.1702196 0.027976513 0.10213654
-0.16625902 0.04661686 0.028818786 0.21382229 0.04481758 0.025454372 -0.08677738 0.1540808
-0.15065351 -0.08699326 0.0022567958 0.14879711 0.15870866 0.13379441 -0.21406554 0.17938656
0.16920568 -0.19545986 -0.17653747 0.024298936 -0.2058602 -0.20777528 0.0439338 -0.1807899
-0.08133256 -0.14875244 -0.03521447 0.14169809 -0.07449119 -0.0663081 0.00760895 -0.023062944
-0.13111648 0.00954476 -0.03330308 0.098080084 -0.17956264 -0.19938242 -0.012341931 0.057657436
-0.07756733 -0.11024859 -0.15902826 -0.16050772 -0.1366948 0.11328079 0.09388641 0.15091102
-0.19316031 0.21030492 -0.10626767 0.07042181 0.1423619 -0.12823224 0.07294224 0.068938926
0.122651406 0.17058508 -0.07664942 0.12272218 0.17227276 0.12846926 0.00475947 0.10825847
0.008163482 0.1862202 0.18336071 -0.16583034 -0.17421558 -0.008741885 -0.06611436 -0.1099079
-0.06519714 0.19913293 -0.06976174 -0.06511083 0.12207949 -0.16582477 -0.019684033 0.17287248
0.15702067 0.17343754 -0.124409296 -0.17130935 0.009878175 0.08455853 -0.17765795 -0.13552007
0.020660596 -0.035844505 0.02409628 0.013750756 -0.08869055 -0.015104065 0.11676191 -0.018983945
-0.21385416 0.05912517 -0.11987053 -0.20492539 -0.19827338 -0.006048007 0.20117448 0.14173116
0.08921502 -0.04884544 0.083041444 -0.049664088 0.20086223 0.07312383 0.054983962 0.10021491
-0.14705469 0.06749275 -0.0010520518 -0.18038118 -0.049362093 -0.13685 -0.0135914795 -0.094056934
0.10537357 0.061219115 -0.15534791 0.04938274 0.12189202 -0.20882623 -0.15478551 -0.16891575
-0.16115332 -0.18071392 0.0005913228 0.011745513 -0.0059422106 0.18907587 -0.03611574 -0.094512805
-0.09256007 -0.118463695 -0.05773975 -0.13557342 -0.12468318 0.16417311 -0.14507793 -0.13543253

conv2.lin_r.bias f4 [64]
00000000: 685e c8bd c2b4 e9bd 74ba fdbc d74f 0b3d
00000010: 568d 83bd b6c8 aabd 6cd6 35bd be8e 13bc
00000020: d7eb 37bd 3386 6d3d 6e52 ed3d 5dc6 313d
00000030: 2ab5 9bbc 3b9f 823d b54a c43d ee3f 3c3d
00000040: f80f ed3d 9402 1f3c 69cd 38bd dd31 333d
00000050: 349e 813d b779 71bd dcae 8fbc fe46 aabd
00000060: c97c c63d 147b 53bc a8b9 9e3d e87a 19bc
00000070: 0d88 563d f5b9 bdbd a120 943d 1ff7 0f3d
00000080: 831e f7bd 33c7 c5bc 9042 17bd 16b1 283d
00000090: 61d6 023e 056c b0ba 4e6c 07bc 28e6 c83d
000000a0: 340c e3bb b680 db3c 7009 353d bab7 3abd
000000b0: ee3c d4bd 3443 f33d b7ea 793d 9880 8bbc
000000c0: 0aec 11bd ee5f 8a3d db6a 4ebd 4743 af3d
000000d0: 9be6 c83d 044c b1bd 9602 97ba cfcf d2bd
000000e0: 6f0f 063d 9cf0 87bd 3396 9cbd 0e5a ecbd
000000f0: 8f37 c63d 93fe 97bd ce68 b33d edb3 633d
-0.097836316 -0.1141143 -0.030972697 0.034011688 -0.06423442 -0.08339064 -0.04439394 -0.0090062
-0.04490265 0.05798931 0.11587988 0.043402065 -0.019007284 0.06378027 0.09584562 0.045959406
0.115753114 0.0097052045 -0.04511777 0.043748725 0.06329003 -0.058953967 -0.017539434 -0.08314322
0.0969177 -0.012907762 0.07750255 -0.009367682 0.052375842 -0.09263984 0.07232786 0.035147782
-0.120663665 -0.024142837 -0.036928713 0.041184507 0.12777092 -0.0013459927 -0.008265568 0.09809524
-0.006928945 0.026794773 0.044198453 -0.04558537 -0.10363184 0.11878052 0.061014857 -0.017029092
-0.035625495 0.067565784 -0.050394874 0.08557754 0.098096095 -0.08657077 -0.0011521156 -0.102935426
0.032729562 -0.066376895 -0.07645836 -0.11540614 0.09678566 -0.07421603 0.08760224 0.055591512

conv2.lin_edge.weight f4 [64, 1]
00000000: 0151 8d3e 9c4a 863e 5bf2 9f3d 8e02 29be
00000010: 46d3 7f3e 7879 b63d 86e4 453d 1b11 48bd
00000020: b3a7 7e3e e5af 4c3e 7bed 47be cfb8 29be
00000030: 8f29 0dbe b672 27bc 07fa cfbd 4738 873e
00000040: 5326 39be 5267 a4bd 8cf6 913e ee0a a23c
00000050: 98df 873c 627a 80bd b952 28bd 44cc ebbd
00000060: 7bc1 d8bd d371 7f3e 21ba b93c b182 743e
00000070: 21cb 983b b331 84be 4fff 303e 0e47 c53d
00000080: f580 963e 723f 603e 9feb 1e3e 1e49 fb3d
00000090: 514b ff3d b42c 0c3e 4e84 81be da0a 443e
000000a0: 935c 5a3e 0c51 8d3e 5842 c8bd 9e0f 983b
000000b0: 9c75 33be dbb0 8a3e 4046 e03c 0412 153e
000000c0: 7ebe 953d aa02 8c3e c00d 843d 5a34 653e
000000d0: 9579 9b3e a81f f33d 8ec4 103e 2c37 7e3e
000000e0: 6781 8e3c 6d0e 383e ae54 0abe f3bf dabc
000000f0: 3ae9 53be 6b40 47be 79f4 07be a6ff 5e3e
0.27600864 0.26228797 0.078098975 -0.16504881 0.24982938 0.08909887 0.04831364 -0.048844438
0.2486866 0.19988973 -0.19524185 -0.16574405 -0.13785385 -0.01022022 -0.10155111 0.26410124
-0.18081026 -0.08027519 0.28508413 0.019780602 0.01658611 -0.06273343 -0.041094515 -0.1151357
-0.105837785 0.24945764 0.022671761 0.2387798 0.0046628867 -0.25819167 0.17284892 0.09632693
0.2939526 0.21899202 0.1551957 0.12269805 0.12465537 0.13688928 -0.25296253 0.19144765
0.21324377 0.27600896 -0.09778279 0.0046405336 -0.17525333 0.27088055 0.027377248 0.14557654
0.07311724 0.27345783 0.06447935 0.22383252 0.30366197 0.11871272 0.1413748 0.24825734
0.017395688 0.17974253 -0.13508865 -0.026702857 -0.20694438 -0.19458167 -0.13276853 0.2177721

norm2.weight f4 [64]
00000000: 1f97 7f3f 0000 803f 0000 803f 4285 7f3f
00000010: fbe5 803f 31b5 803f 276f 803f 0000 803f
00000020: 62d7 803f 934e 7f3f 1ca9 813f bf63 7d3f
00000030: 040d 813f 0000 803f 0000 803f 0000 803f
00000040: 0000 803f b7a5 803f 75d2 7f3f c434 803f
00000050: 0000 803f 76d6 803f 0000 803f 0000 803f
00000060: ecf7 803f 74f4 803f c622 7f3f 6549 803f
00000070: 5369 823f 0000 803f be9e 7d3f 9747 7c3f
00000080: 0000 803f 0000 803f 7fe0 803f f7a8 803f
00000090: eb36 7f3f 64ac 803f 586e 7e3f 7154 7f3f
000000a0: 0685 7e3f 0000 803f 0000 803f 2dee 803f
000000b0: 674c 7e3f 945a 7f3f 6d44 803f 0000 803f
000000c0: 3ea8 803f 7225 813f 0000 803f b00f 7e3f
000000d0: 0000 803f 43b2 803f 0000 803f 0000 803f
000000e0: 5763 813f 0000 803f 0000 803f 9512 803f
000000f0: 0000 803f 15f7 7e3f 0d58 7f3f 0351 7f3f
0.9983997 1.0 1.0 0.9981271 1.0070184 1.0055295 1.0033921 1.0
1.006573 0.9972927 1.0129733 0.98980325 1.0082097 1.0 1.0 1.0
1.0 1.0050572 0.99930507 1.0016103 1.0 1.0065448 1.0 1.0
1.007566 1.0074601 0.99662435 1.0022398 1.0188392 1.0 0.99070346 0.9854674
1.0 1.0 1.0068511 1.0051564 0.99693173 1.005261 0.9938712 0.9973822
0.9942173 1.0 1.0 1.0072685 0.9933533 0.99747586 1.0020882 1.0
1.0051343 1.0089552 1.0 0.9924269 1.0 1.0054401 1.0 1.0
1.0108441 1.0 1.0 1.0005671 1.0 0.9959577 0.9974373 0.9973299

norm2.bias f4 [64]
00000000: 3cbf 9d3b 0000 0000 0000 0000 6336 86ba
00000010: 94fe d93b ce3f b73b 4d8d 333b 0000 0000
00000020: b90e ca3b 6769 6bbb d3ac fa3b 1ed0 1bbc
00000030: 2a09 f83b 0000 0000 0000 0000 0000 0000
00000040: 0000 0000 c40c f83b 1362 5cba ecdc 0b3b
00000050: 0000 0000 0e3f cc3b 0000 0000 0000 0000
00000060: 3892 ec3b 8ea1 f03b d79b 69bb 60eb 353b
00000070: 03aa 573c 0000 0000 0fba 2dbc 7c51 d7bb
00000080: 0000 0000 0000 0000 908f 0a3c 511e bb3b
00000090: de86 4abb 2f23 b83b e1b0 d4bb 08e4 c3b7
000000a0: fd2b 1fbc 0000 0000 0000 0000 05af eb3b
000000b0: 260a b8bb a5d8 9cbb 4014 343b 0000 0000
000000c0: cb78 bf3b 7ba6 e93b 0000 0000 51d1 03bc
000000d0: 0000 0000 af71 b43b 0000 0000 0000 0000
000000e0: 290f 283c 0000 0000 0000 0000 5d21 8a3a
000000f0: 0000 0000 c7bf b1bb a773 9abb 2154 15bb
0.0048140567 0.0 0.0 -0.0010239597 0.0066526625 0.005592323 0.0027397454 0.0
0.006166306 -0.003592098 0.007649997 -0.009510068 0.007569452 0.0 0.0 0.0
0.0 0.007569881 -0.0008406948 0.0021341396 0.0 0.0062331026 0.0 0.0
0.007219579 0.0073434776 -0.0035645866 0.0027758703 0.013163093 0.0 -0.010603442 -0.006570993
0.0 0.0 0.0084570795 0.005710401 -0.003090314 0.0056194286 -0.006490812 -2.3351997e-05
-0.0097150775 0.0 0.0 0.007192495 -0.005616444 -0.004786568 0.002747789 0.0
0.005843257 0.0071304417 0.0 -0.00804551 0.0 0.005506716 0.0 0.0
0.010257521 0.0 0.0 0.0010538507 0.0 -0.005424473 -0.004713494 -0.002278574

policy_head.0.weight f4 [32, 64]
00000000: 0426 9cbd a078 d63c f22f 8e3d 51dd d7bb
00000010: 3a4f e73d 1e25 10bd d245 e1bc ba59 e13d
00000020: 2567 653d 4b39 bdbd ca02 06bd 9fe5 56bd
00000030: 7122 3a3d 18c7 c03d e08c 02bc e070 fbbc
00000040: b8a9 7ebd f614 b43d 3aeb 5a3d 54e0 003c
00000050: 98c5 d63d 3705 9c3d b258 f03d 760b d3bd
00000060: 9f0e c93d d58d f73d 6973 123d 9f5f c7bd
00000070: fc96 96bd a4db e0bd 5228 ffbc e81f da3b
00000080: c4e9 4dbd 7cce febd fbfc b0bc 69d5 843d
00000090: 3d9a d13d 716f 513d 4d16 e0bd ae2a 9ebc
000000a0: 5726 e2bd ba23 ab3d 805d ec3c 043b 9a3d
000000b0: a238 03bc 4d82 d4bd cafd 8dbd 58ea 84bc
000000c0: 1dc0 45bd 7f80 b0bd 68ab de3d f825 1fbb
000000d0: a0ee e5bb c9fa 183d 9428 783d 3435 383d
000000e0: 7284 05bd de26 dcbd 5a33 b8bd ac5f bb3d
000000f0: c000 39bd c856 b0bd 0ca8 ecbd a430 683d
00000100: 2ee3 9bbd 6cea 71bd d472 2ebd 2844 d7bd
00000110: 5e2e ccbd 241b 0e3c ba33 b3bd a421 99bd
00000120: 519d 3abd 6b6a 97bc a40f fabd 8d6d 87bd
00000130: cd01 1bbd f0f7 c8bd 86f5 fd3d 10a0 f33c
00000140: 40ef 57bc bd35 0abd 192a e43d eb2b 5c3d
00000150: 2ed6 cdbd ad6b a9bc 1064 483c aac7 b43d
00000160: 52b1 f3bd 33d7 17bc 644d 223b bec3 5a3c
00000170: 8dc7 ee3c 00bb 8ebb 3b64 ddbb 6cae 04bd
00000180: 00fd f3ba 50a4 713d 967a 023e 5fce cbbd
00000190: 6803 b1bc d237 2e3d 1bbc 563d 5b1f ecbc
000001a0: ab90 fbbd 4caf 4f3d 6ed4 a7bd 85a0 2a3c
000001b0: d58c a93d 45f6 34bc 1727 e93c 6ec8 9fbd
000001c0: bb2f 853d 86ae 0cbd bc9c f53d 7403 143b
000001d0: d441 3dbd 2c09 733d 48ff d03d c8cb 323d
000001e0: fc3f 113c 9e78 84bd f053 b9bd a1bc ed3d
000001f0: fad4 de3d baf8 b43b c628 75bb c9d2 b13d
00000200: a8ba e23d 0085 143a fcc8 54bd 485f a93d
00000210: a6a7 a83d 58c0 ea3d 4016 fbbd d0e8 6c3c
00000220: 606a e93b a8a2 4c3d fcf8 69bd b885 6d3d
00000230: 60b8 1a3c 28fb 7fbd 4825 fd3d 6a8e bbbd
00000240: 80ef b53c c4ab 0abd 20de bd3d 4474 febd
00000250: c0e0 e3bb 8cd8 a73d 4e55 88bd 04fe 8dbd
00000260: 009f c1bd 0284 c53d 88fa 5ebd 683d dabc
00000270: e014 9cbc 408f 853b 401d d53d 607c c73c
00000280: 002d 7e3d 9ce5 d4bd 804d 5abd fcab 97bd
00000290: c86d 913d 1467 4bbd 5c8c 95bd 56cd aa3d
000002a0: 0e2d e7bd 647e 30bd 4214 93bd 20a4 b73c
000002b0: b88e 443d ac5b ffbd 409a fcbb e058 89bc
000002c0: f60b d1bd 285a ddbc d0a5 22bc b8e0 9ebd
000002d0: 30bf 493d 2c0a 43bd 60b9 973b 28d0 cc3c
000002e0: c661 d7bd 709e 05bd 0c62 35bd 5072 47bc
000002f0: 2011 893b 6c4a 453d 0a12 8a3d 2049 473d
00000300: a41b 4fbd 68ce f8bc 208a 9c3b d06b 40bc
00000310: 5039 66bd 2c4a 03bd 407e 763b a8b8 1ebd
00000320: cc45 a0bd 7ac0 83bd e859 eebd 9447 e13d
00000330: d876 54bd 703b 99bc c04e d2bd ccf4 4cbd
00000340: 180a c13d 0c6a 903d 40ce be3d 7c72 533d
00000350: 0075 49bb 249b 6ebd 2087 fb3c 8edf a03d
00000360: 00d3 22ba f091 32bc dce1 debd 8c11 783d
00000370: 7c39 7abd 8cd3 2e3d 84b6 a5bd d83d debc
00000380: e82b 0a3d 02a4 d7bd e07b 873c d8eb 383d
00000390: 6ae2 f73d b0bd ef3c 40cc 513b 80b9 eebd
000003a0: 509b 1fbd 8c0f 48bd 6497 afbd 206d 103d
000003b0: 1496 e1bd 884d 99bd 483e dcbd 1809 0abd
000003c0: fe9e 92bd c656 c9bd a666 c3bd f43f 663d
000003d0: 8042 2fbb 7a5f c3bd 2451 d83d 8016 ebba
000003e0: 0850 b43d e036 7ebd 9886 cc3c 9043 e7bd
000003f0: f886 6c3d 688e b1bc c0a5 003d d0c1 f33c
-0.076244384 0.026180565 0.069427386 -0.0065876623 0.11294408 -0.035191648 -0.027499113 0.11003442
0.05600657 -0.092394434 -0.032717504 -0.052465077 0.045443002 0.09412974 -0.0079681575 -0.030693471
-0.062173575 0.087930605 0.053446986 0.007865984 0.10486907 0.07618182 0.11735667 -0.103049204
0.09817242 0.12087599 0.035754595 -0.09735035 -0.07353017 -0.10979393 -0.031147156 0.0066566356
-0.050271764 -0.124417275 -0.021605005 0.06486017 0.10234497 0.05113167 -0.109417535 -0.01930746
-0.11042469 0.08356424 0.028853178 0.075307876 -0.008009108 -0.103764154 -0.06933172 -0.016225025
-0.048278917 -0.08618259 0.10872537 -0.0024284106 -0.0070169717 0.037348542 0.060585573 0.044972613
-0.032597013 -0.10749601 -0.089941695 0.09149107 -0.04516673 -0.08610302 -0.1155549 0.056687012
-0.076116905 -0.059061453 -0.042589977 -0.10511047 -0.09969781 0.008673463 -0.087501004 -0.074771196
-0.045560185 -0.018483361 -0.122100145 -0.06612692 -0.037843514 -0.09812915 0.124003455 0.02973941
-0.0131796 -0.033742655 0.11140842 0.05375282 -0.10050617 -0.020681227 0.012230888 0.088271454
-0.118990555 -0.009267616 0.0024765367 0.013352333 0.029147888 -0.004355788 -0.006756333 -0.032392904
-0.0018614829 0.05899459 0.12742075 -0.099514715 -0.02160807 0.042533703 0.052425485 -0.028823545
-0.122834526 0.050704286 -0.081948146 0.010414247 0.08278815 -0.011045043 0.028461022 -0.07801901
0.065032445 -0.034346126 0.11992785 0.0022585066 -0.046205357 0.05933492 0.10204941 0.043651372
0.008865353 -0.064683184 -0.09049213 0.11608244 0.10880466 0.0055228146 -0.0037408336 0.08682782
0.11070758 0.00056655705 -0.051949486 0.082701266 0.082351014 0.11462468 -0.12260103 0.014459804
0.0071232766 0.04995981 -0.057122216 0.057988852 0.0094433725 -0.06249538 0.123606265 -0.09158023
0.022208929 -0.033855215 0.092708826 -0.1242452 -0.0069542825 0.081956 -0.066568956 -0.06933215
-0.09454155 0.09644319 -0.054438144 -0.026640609 -0.019052923 0.0040759146 0.104059696 0.024351299
0.062054634 -0.10395357 -0.053296566 -0.0740585 0.07101017 -0.04965885 -0.07302162 0.08339946
-0.112878904 -0.043089285 -0.07181598 0.022417128 0.04798767 -0.12468657 -0.0077088177 -0.016766012
-0.102073595 -0.027020529 -0.009927228 -0.077577055 0.049254596 -0.047617123 0.0046302527 0.0250016
-0.10516696 -0.0326218 -0.044282958 -0.01217325 0.0041829497 0.048166677 0.06741722 0.04865372
-0.05056347 -0.03037186 0.004777208 -0.0117444545 -0.056207 -0.032053158 0.0037611872 -0.03875032
-0.07825813 -0.06433196 -0.11638242 0.109999806 -0.05187115 -0.0187051 -0.102689266 -0.050038144
0.09425753 0.07051477 0.09316683 0.051622853 -0.0030739903 -0.058253422 0.030704081 0.0785514
-0.0006211251 -0.010899052 -0.10882923 0.06056361 -0.061089978 0.042682216 -0.08091453 -0.027129099
0.03373328 -0.10529329 0.01653856 0.045146793 0.12103732 0.029265255 0.0032012612 -0.11656475
-0.038966477 -0.04884295 -0.08573797 0.03526032 -0.11014953 -0.07485491 -0.10754067 -0.03370008
-0.071592316 -0.09831004 -0.09541063 0.056213334 -0.0026742518 -0.09539695 0.10562351 -0.0017935783
0.08804327 -0.06206405 0.024966523 -0.112921834 0.057745904 -0.02167435 0.03140807 0.029755503

policy_head.0.bias f4 [32]
00000000: 73b0 47bd 1783 d23d ae19 d9bd a89d 783d
00000010: 2050 e53d db14 79bc bfaa 98bc f677 0a3d
00000020: 89ea 543d 38dd cbbd acac 033c 3469 2bbd
00000030: b8bd 83bc 1584 a1bb a8b9 38bd deac 8d3d
00000040: 07c8 8ebd ac76 88bd 7e92 f9bd c88d d8bc
00000050: 7073 e4bd 7c04 8fbd 80ed 7b3d 9530 e93d
00000060: 806a 29bd 10fd f23c c629 ca3d 2448 4cbd
00000070: 301a efbc 8920 4cbc 8338 863c 6003 9abb
-0.04875226 0.1027891 -0.10600601 0.060697228 0.11196923 -0.015202726 -0.018636106 0.03380581
0.051981483 -0.099543035 0.008036774 -0.041848376 -0.016081676 -0.0049290755 -0.04509893 0.069177374
-0.06971746 -0.0666326 -0.12186144 -0.026434794 -0.111548305 -0.06983277 0.061505795 0.113862194
-0.041361332 0.029661685 0.09871249 -0.049873486 -0.029187292 -0.012458929 0.016384369 -0.0047001094

policy_head.2.weight f4 [2, 32]
00000000: 279b 353e 0957 f6bd c2d3 8d3d 9bd7 97bd
00000010: fe6d f1bd 4f0d 06bd f1f0 913d e5f7 15be
00000020: 9a77 fa3b 6d6a 0cbe 5fe7 ce3d 38a6 0bbd
00000030: 00f7 173d c56e bdbc 3f2c adbd d3f0 ea3c
00000040: 7c8f ebbd ff5d 083e a53f 0d3e aca2 0bbe
00000050: b9bd 213e 0b65 193e 0cb6 f0bd 6491 8f3d
00000060: 82a6 983d 4a51 ab3d 2de4 4e3d 83c7 0dbe
00000070: 2d14 14bd 936c f8bd 1133 17be aad5 03be
00000080: d466 7bbd f607 883c bc7a cbbd 37fb 213e
00000090: 093d 143e 2ace 113e 539d ebbd 6729 b83d
000000a0: c4a5 093e 509e 3c3c 43ce 2a3e bb02 063e
000000b0: d88d 80bc 8d96 e73d b977 2a3e ace5 04be
000000c0: de52 9b3d a295 edbd 9ea9 1d3e 88b3 443d
000000d0: b0b4 d3bc 48a2 1cbe 4954 f7bd 4b54 a63d
000000e0: 2014 a3bc b22b 1abe 6663 f9bb baa7 8dbd
000000f0: 16e4 053e e8ae 31be 5f74 f63d 4a29 5dbd
0.17734967 -0.120283194 0.06925155 -0.0741417 -0.117885575 -0.032727536 0.07126034 -0.14645346
0.007643652 -0.13712473 0.10102724 -0.034094065 0.037100792 -0.023124108 -0.08455705 0.028679287
-0.11501977 0.13317107 0.1379381 -0.13636273 0.1579503 0.14979951 -0.11753473 0.07010153
0.07453634 0.08365114 0.050510574 -0.13845639 -0.036152054 -0.12130084 -0.14765574 -0.12874475
-0.06137736 0.016605359 -0.09935519 0.15818487 0.14476408 0.14238802 -0.115046166 0.08992272
0.13442141 0.011512354 0.16680245 0.13086979 -0.015692636 0.11308012 0.16647233 -0.12978238
0.07584165 -0.11600806 0.15396735 0.048022777 -0.025842994 -0.1529628 -0.12076623 0.08121546
-0.019907057 -0.15055731 -0.007610726 -0.06916757 0.13075289 -0.17351878 0.12033915 -0.053994454

policy_head.2.bias f4 [2]
00000000: a780 053e 4415 913d
0.13037358 0.07084134
