model/samples/robust_gat_decoder.pth (torch, 62002 bytes, 21 tensors)

conv1.att f4 [1, 8, 8]
0	0xbf43ccc5	-0.7648433
1	0x3f11198f	0.56679624
2	0xbf05abc9	-0.5221525
3	0xbf942ee1	-1.1576806
4	0xbf8e50a8	-1.1118364
5	0xbf8053d3	-1.0025581
6	0xbf3047d9	-0.6885963
7	0xbecd335b	-0.40078244
8	0x3f2b3de1	0.66891295
9	0x3ed5edb1	0.41782907
10	0x3e3a1a1b	0.18174021
11	0x3ed1c701	0.4097214
12	0xbf86897e	-1.0510709
13	0x3dba580e	0.09098826
14	0x3f3e4c0c	0.7433479
15	0x3dfee484	0.1244593
16	0x3f665d78	0.8998637
17	0x3f60f364	0.87871385
18	0x3e7d223a	0.24720088
19	0xbf318188	-0.69338274
20	0x3f4e2a3a	0.8053318
21	0xbe98cd06	-0.2984392
22	0xbe8b94a3	-0.27261838
23	0x3eff4a14	0.49861205
24	0xbdfb3ef0	-0.12267864
25	0xbf5ca50b	-0.86189336
26	0x3ed84737	0.42241833
27	0xbf973302	-1.1812441
28	0x3f23d151	0.63991266
29	0xbf5c2119	-0.85988003
30	0x3f0a87ea	0.5411364
31	0xbf449f05	-0.76805145
32	0xbf3577ba	-0.70885813
33	0x3fc812cf	1.563074
34	0x3f833105	1.0249335
35	0x3fccbb9c	1.5994754
36	0x3fc19b08	1.5125437
37	0x3d8174a8	0.063210785
38	0x3f28b850	0.6590624
39	0xbfa6e497	-1.303851
40	0x3ed537b9	0.41644076
41	0x3f1e90a0	0.6193943
42	0xbf026c0a	-0.50946105
43	0x3ed0a927	0.40754053
44	0x3eb36f22	0.35045725
45	0x3d92e585	0.071726836
46	0xbe96bd44	-0.29441273
47	0xbeae88d3	-0.34088764
48	0x3c8df615	0.017329255
49	0xbeffa770	-0.49932432
50	0x3f2bc1d1	0.67092615
51	0xbf289f68	-0.65868235
52	0x3f396df1	0.7243338
53	0x3f811c1b	1.0086702
54	0x3f7c27c3	0.9849817
55	0x3f27c497	0.6553435
56	0x3ddd7fa8	0.10815364
57	0xbd29acf1	-0.041424695
58	0x3f1d58ae	0.6146344
59	0xbf075177	-0.5285868
60	0xbec5487c	-0.38531864
61	0x3f4e9c84	0.80707574
62	0x3f5325c3	0.82479495
63	0xbf315ed9	-0.6928535

conv1.bias f4 [64]
0	0xbd8009c8	-0.062518656
1	0xbde205dc	-0.11036274
2	0x3e4d3e13	0.2004321
3	0xbe14e461	-0.14540245
4	0x3decd29c	0.11563608
5	0x3e8cb531	0.27481988
6	0x3e78a074	0.24279958
7	0x3d8bf4ca	0.06833799
8	0x3e8a830e	0.27053112
9	0xbcd95fce	-0.026534941
10	0xbbecd1e5	-0.00722717
11	0x3e8130f7	0.2523267
12	0x3da570ca	0.080781534
13	0x3d74959a	0.059712984
14	0xbd1adaa7	-0.03780618
15	0xbdae2825	-0.08503751
16	0x3e560cdc	0.20903343
17	0x3e7a85ba	0.24465075
18	0x3eea426f	0.4575381
19	0x3eb52b92	0.35384804
20	0x3e039111	0.12848307
21	0x3a8ba460	0.0010653846
22	0xbe07a1c4	-0.13245302
23	0xbc26cdd8	-0.010180913
24	0x3d89eb1e	0.06734298
25	0x3e3f9635	0.18709643
26	0x3d895bb9	0.06706948
27	0x3d0c67b7	0.034278598
28	0xbe134bbd	-0.1438436
29	0x3e5addec	0.21373719
30	0x3e9822ff	0.297142
31	0x3e6c8a0f	0.2309954
32	0x3e8329c0	0.2561779
33	0x3ec9e739	0.3943422
34	0xbc8f6881	-0.017505886
35	0x3d0cd4ce	0.034382634
36	0xbd88ffd4	-0.0668942
37	0x3ddaac67	0.106774144
38	0xbe83765a	-0.25676233
39	0x3da7c669	0.081921406
40	0x3d7ae9ac	0.061258003
41	0x3d8823e1	0.06647468
42	0x3de61718	0.112348735
43	0x3da195ef	0.07889926
44	0x3d2ecbac	0.042674705
45	0x3b66d217	0.0035220438
46	0x3ebd03c7	0.36916944
47	0x3e20d22b	0.15705173
48	0xbda20e92	-0.07912935
49	0x3e007193	0.12543325
50	0x3e9ed420	0.31021214
51	0x3e341612	0.17586544
52	0x3d8b1757	0.06791561
53	0xbe20dbef	-0.15708898
54	0xbda80e4a	-0.082058504
55	0x3eafaae9	0.34310082
56	0xbb8b14c8	-0.0042444207
57	0x3d88e79c	0.06684801
58	0x3e334bd4	0.17509395
59	0x3e2dcd11	0.16972758
60	0x3d8ef1a5	0.06979684
61	0x3c595c46	0.013266629
62	0x3e8d3ad1	0.27583936
63	0x3d10a371	0.03531212

conv1.lin_l.weight f4 [64, 2]
0	0xbe9c7f3d	-0.30565825
1	0x3c1b6c15	0.009486218
2	0x3ee6ddd3	0.45091113
3	0x3d9720bf	0.07379293
4	0x3ea11b8a	0.31466323
5	0xbe4c6d94	-0.19963676
6	0x3cf51709	0.02991821
7	0x3e96c29a	0.29445344
8	0x3ed9ca4f	0.42537162
9	0x3ec7e684	0.39043057
10	0x3e9091a6	0.2823612
11	0x3eec16c6	0.46111125
12	0xbe9d1d34	-0.30686343
13	0xbe3736b8	-0.17891967
14	0x3edd28c8	0.43195176
15	0x3e8a0607	0.26957723
16	0xbe6c47cc	-0.23074263
17	0x3f040f82	0.51586163
18	0xbefe6b5a	-0.49691278
19	0x3ee90776	0.45513505
20	0xbec2a003	-0.38012704
21	0x3ebdbaf8	0.37056708
22	0x3e8bc0d5	0.27295557
23	0x3e7be860	0.24600363
24	0xbe3f5f77	-0.1868876
25	0xbf13b483	-0.57697314
26	0xbf259bbc	-0.64690757
27	0xbec5baf0	-0.38619184
28	0xbebd97d3	-0.37029895
29	0xbf0f4185	-0.5595935
30	0x3ca0980a	0.019603748
31	0xbf233df7	-0.63766426
32	0xbeac978c	-0.3370937
33	0xbf121cf3	-0.57075423
34	0xbde60f13	-0.11233344
35	0xbf00dd67	-0.50337833
36	0xbcf749e7	-0.030186607
37	0xbe56b787	-0.20968448
38	0xbedcccbc	-0.4312495
39	0xbdebbe9c	-0.11510965
40	0xbe81f786	-0.25384158
41	0xbf08e833	-0.5347931
42	0xbf29eab5	-0.6637376
43	0xbe206477	-0.15663324
44	0x3e7ed51a	0.2488598
45	0x3e5c8b72	0.21537569
46	0x3e636fa5	0.22210558
47	0xbe9dff3a	-0.30858785
48	0x3ee6eded	0.45103398
49	0xbe8f7c4e	-0.28024524
50	0xbec44fbe	-0.38342088
51	0xbee3d945	-0.445017
52	0xbea2012c	-0.3164152
53	0xbed00970	-0.406322
54	0xbe44e9ea	-0.19229856
55	0xbe91a575	-0.28446546
56	0x3d32abe5	0.043620963
57	0x3ecb34ea	0.39688808
58	0x3eb41982	0.3517571
59	0x3e2179dd	0.15769143
60	0x3d9c37fd	0.076278664
61	0xbbc822af	-0.00610765
62	0xbecc9cbd	-0.39963332
63	0xbf18bb34	-0.5966065
64	0xbed2f4a7	-0.4120228
65	0xbeb343c0	-0.35012627
66	0x3d830974	0.063982874
67	0xbda543f3	-0.08069601
68	0xbed2c784	-0.41167843
69	0xbe503a2b	-0.2033469
70	0xbe32e77b	-0.17471115
71	0xbec68af4	-0.38777888
72	0x3e0f8b2f	0.14017938
73	0xbe8386e1	-0.25688842
74	0xbe9e8e9e	-0.30968183
75	0xbee9b7d4	-0.45648062
76	0x3ed428ca	0.4143737
77	0x3e8536c4	0.26018345
78	0xbf06f1c0	-0.5271263
79	0x3f05563b	0.520847
80	0x3efab88d	0.48968926
81	0x3ed63b87	0.4184229
82	0xbf1cbd4a	-0.6122633
83	0x3eb2550b	0.34830508
84	0xbf1edd47	-0.6205639
85	0xbee0fb4c	-0.43941724
86	0xbee63144	-0.44959462
87	0x3ec40eda	0.3829258
88	0x3f0918ba	0.53553355
89	0xbf01d8c2	-0.5072137
90	0x3ec2f854	0.38080084
91	0x3ebac6d5	0.36479822
92	0xbdac7dff	-0.08422469
93	0xbcf8ae30	-0.030356497
94	0x3c412774	0.0117891915
95	0xbc0b9ca4	-0.008521233
96	0xbd210145	-0.03930785
97	0x3eff6f3a	0.49889547
98	0xbc455011	-0.012043015
99	0xbcc629b6	-0.024189811
100	0x3e96106f	0.29309413
101	0x3d046fdf	0.03233325
102	0xbe83a587	-0.25712225
103	0xbdd88a3a	-0.105732396
104	0x3eabc3f8	0.3354795
105	0x3ee778a7	0.45209238
106	0x3e8b6245	0.2722341
107	0xbe006d8c	-0.12541789
108	0x3f02821c	0.5097978
109	0xbf08940a	-0.5335089
110	0x3e33084b	0.17483632
111	0xbda6ed16	-0.08150689
112	0xbca01eea	-0.019545991
113	0xbdfbfd5f	-0.12304186
114	0x3e39ef4a	0.18157688
115	0xbe46b67f	-0.19405554
116	0x3ed3e2a8	0.41383862
117	0x3ef5d327	0.4801266
118	0x3f1e8f43	0.6193735
119	0xbeb2acca	-0.34897453
120	0xbece749c	-0.4032334
121	0x3ea27baa	0.31734973
122	0xbf2959fe	-0.6615294
123	0x3e84ef6a	0.25963908
124	0xbe88eb5e	-0.2674207
125	0x3e0a25e4	0.13491017
126	0x3f38c29b	0.72171944
127	0xbeea0e42	-0.45714003

conv1.lin_l.bias f4 [64]
0	0x3f038781	0.5137864
1	0x3e0f240e	0.13978598
2	0xbe67ba38	-0.2262963
3	0x3edae98e	0.42756313
4	0xbe0d20a5	-0.13781984
5	0xbec6cfe8	-0.38830495
6	0x3dd2925f	0.10281824
7	0x3dcb0f23	0.099149965
8	0xbebd4a37	-0.36970684
9	0x3d019c24	0.031643048
10	0x3eb41a6b	0.35176405
11	0xbeb2d471	-0.34927705
12	0x3ee0ce13	0.43907222
13	0x3e8765d4	0.26444876
14	0x3f25f6da	0.6482979
15	0x3f196f80	0.5993576
16	0x3e018c53	0.12651186
17	0x3cdc3f18	0.026885554
18	0xbe7c96c9	-0.24666895
19	0xbc5b806c	-0.013397317
20	0x3e8b3347	0.2718756
21	0x3edf3d18	0.43601298
22	0x3ed21561	0.41031936
23	0x3e9a5552	0.3014322
24	0xbb3458c2	-0.0027518724
25	0x3eb901f2	0.36134297
26	0x3ee780d5	0.4521548
27	0x3f0fb33d	0.5613287
28	0x3ea456e0	0.3209753
29	0xbe2df35e	-0.16987368
30	0xbcf360f9	-0.029709326
31	0x3dd2508a	0.10269268
32	0x3e6c9c25	0.2310644
33	0xbe91263c	-0.28349483
34	0x3f108eb7	0.56467766
35	0x3f0426ba	0.5162159
36	0x3f0d732e	0.55253875
37	0x3ebee6d2	0.37285477
38	0x3eefe177	0.46851704
39	0x3d2a0896	0.041512094
40	0xbdb7a946	-0.08967833
41	0x3e12bf10	0.14330697
42	0x3e90a95f	0.2825422
43	0x3e8c8ac4	0.2744962
44	0x3c4e4d35	0.01259165
45	0xbaa18e85	-0.0012325799
46	0xbdce80dd	-0.100831725
47	0x3e15676f	0.14590238
48	0x3e964f9a	0.29357606
49	0x3dff0a9e	0.12453197
50	0xbea89e32	-0.32933193
51	0x3dbd07f9	0.09230036
52	0xbe1eff20	-0.1552701
53	0x3ea8f196	0.32996815
54	0x3ec360f6	0.38159913
55	0xbdd4dcd4	-0.10393682
56	0x3e9016c6	0.28142375
57	0x3e6dfe5c	0.23241562
58	0xbe8d342b	-0.27578864
59	0xbd79d979	-0.060998414
60	0x3e123b44	0.1428042
61	0x3eb60750	0.35552454
62	0xbc6a533a	-0.014302069
63	0x3e732973	0.2374628

conv1.lin_r.weight f4 [64, 2]
0	0x3d251886	0.04030659
1	0xbe7e722f	-0.24848245
2	0xbdcddff2	-0.1005248
3	0xbc9e1192	-0.019295488
4	0x3ed2a89c	0.41144264
5	0x3ea4ff83	0.3222619
6	0xbe35cf8b	-0.17754953
7	0xbdd9761c	-0.10618231
8	0x3f4c4485	0.7979205
9	0x3f34489c	0.70423293
10	0xbd8c488f	-0.06849777
11	0x3f5414a3	0.8284399
12	0xbd4b40c8	-0.049622327
13	0xbf5af543	-0.8553049
14	0xbd6465f0	-0.055761278
15	0x3ee4443b	0.44583306
16	0xbef46e87	-0.47740576
17	0x3e5eff43	0.21777062
18	0xbe86f00d	-0.2635502
19	0x3f57060f	0.8399362
20	0xbe6c9570	-0.23103881
21	0x3ef8390f	0.48481032
22	0xbe8417f5	-0.25799528
23	0xbe513289	-0.20429434
24	0xbec66be8	-0.387542
25	0x3f07762b	0.52914685
26	0xba7a0d88	-0.00095387595
27	0xbd7f1e5e	-0.06228482
28	0x3f0787f3	0.5294182
29	0xbf75c4d3	-0.96003455
30	0x3f0e5015	0.55590945
31	0x3f0a60fc	0.54054236
32	0x3f3bbf1b	0.7333848
33	0xbda14cd3	-0.07875981
34	0xbd00cd9b	-0.03144608
35	0x3eb5ac4b	0.35483012
36	0x3e57be39	0.21068658
37	0x3c264ac2	0.01014966
38	0xbf19916d	-0.5998753
39	0xbf1ca491	-0.6118861
40	0xbe69a042	-0.2281504
41	0x3cb525fc	0.022112839
42	0xbec02bec	-0.3753351
43	0xbeee1bce	-0.46505588
44	0x3e9b4dcd	0.30332795
45	0xbb1c863a	-0.0023883716
46	0xbe6718f4	-0.22568113
47	0xbe59b29e	-0.21259543
48	0x3e504dcf	0.20342182
49	0x3e547a84	0.20749861
50	0xbf5fdde2	-0.8744794
51	0x3f464e49	0.77463204
52	0x3cf9b4e9	0.030481772
53	0x3d34373c	0.043997988
54	0xbf2df96f	-0.6795873
55	0x3f20f6fc	0.6287687
56	0x3ea1aed0	0.31578684
57	0x3d7ebbcc	0.062190816
58	0xbeef21ca	-0.46705467
59	0xbb81024b	-0.003937041
60	0x3e7d201d	0.24719281
61	0x3e13feb6	0.14452633
62	0xbf53e02b	-0.8276393
63	0x3f4ded28	0.80439997
64	0xbf6b3c6f	-0.9188909
65	0x3ebc45ed	0.367721
66	0xbdaeb779	-0.085310884
67	0xbc9d92bd	-0.01923501
68	0xbf06b352	-0.5261737
69	0x3e9939d5	0.29926935
70	0x3f10969a	0.564798
71	0x3f15f0aa	0.5857035
72	0x3ea607cf	0.32427832
73	0x3eb51215	0.35365358
74	0x3deb6614	0.11494079
75	0x3eba551e	0.36393064
76	0xbe63bac8	-0.2223922
77	0xbdd9fab9	-0.10643525
78	0x3e6c6f6b	0.23089378
79	0xbe932268	-0.28737187
80	0x3f1dd920	0.6165943
81	0xbf29a4e3	-0.6626722
82	0xbee6235f	-0.4494886
83	0x3eb46a41	0.35237315
84	0x3f6137f7	0.8797602
85	0xbf653889	-0.8953939
86	0x3d5d6dc8	0.054059774
87	0xbe05dc84	-0.13072401
88	0x3d55ea92	0.052225657
89	0xbed5159c	-0.4161805
90	0xbe5aa939	-0.21353616
91	0xbe6e9683	-0.23299603
92	0xbdfff55e	-0.12497972
93	0xbe7a0af7	-0.24418245
94	0xbcc930c7	-0.024559392
95	0xbe518224	-0.20459801
96	0xbc9413a6	-0.018075775
97	0xbcf3f1c1	-0.029778363
98	0x3d1e20ab	0.038605373
99	0xbdb58475	-0.08863155
100	0x3d802394	0.06256786
101	0x3f1ec4c6	0.62019
102	0xbf0fc3a8	-0.5615792
103	0x3f001e0d	0.50045854
104	0xbf7015f1	-0.9378348
105	0x3f63ba87	0.88956493
106	0xbd9a33d0	-0.07529414
107	0x3dc80920	0.097673655
108	0x3da53eb6	0.08068602
109	0x3e8d7fd0	0.27636576
110	0xbe874104	-0.2641679
111	0xbe582272	-0.2110689
112	0x3e914f04	0.28380597
113	0x3bb6a89e	0.0055743
114	0x3cf36b68	0.029714301
115	0x3b8e426c	0.004341414
116	0xbe4f56c0	-0.20247936
117	0x3e885813	0.26629695
118	0xbd936dfd	-0.07198713
119	0x3e3d6c3b	0.18498318
120	0xbe151e09	-0.14562239
121	0x3f01f071	0.5075751
122	0xbe651c20	-0.2237401
123	0x3e44feca	0.1923782
124	0x3e9cfa0b	0.30659518
125	0xbe6cb534	-0.23115999
126	0xbd8d80a8	-0.06909305
127	0x3e8fb5f4	0.28068507

conv1.lin_r.bias f4 [64]
0	0x3ccb0334	0.0247818
1	0xbf43523b	-0.7629735
2	0xbd7899b6	-0.060693465
3	0xbe293bf4	-0.16526777
4	0xbf54f3e2	-0.83184636
5	0xbde8b3f9	-0.11362452
6	0x3eb100e6	0.34570998
7	0xbeff4010	-0.49853563
8	0x3f163ffc	0.5869138
9	0xbdff023b	-0.12451597
10	0x3dd6d699	0.1049015
11	0x3d884277	0.06653302
12	0xbf27f6ad	-0.6561077
13	0xbe997ab6	-0.29976434
14	0x3c07e142	0.008293452
15	0xbeac2e20	-0.3362894
16	0x3f02813f	0.50978464
17	0x3de5c9e0	0.11220145
18	0x3e526e4e	0.2054989
19	0x3f01a03b	0.5063512
20	0xbe987ebe	-0.29784197
21	0xbc5f6344	-0.013634507
22	0xbe9ceb54	-0.3064829
23	0xbf1df485	-0.6170123
24	0x3ea321a9	0.31861618
25	0xbca09900	-0.019604206
26	0x3ef620f4	0.48072016
27	0xbf05947f	-0.5217971
28	0x3f411920	0.7542896
29	0xbf5c6a25	-0.86099464
30	0xbeeb6e66	-0.45982665
31	0x3ec5d22f	0.3863692
32	0xbec14404	-0.37747204
33	0xbec8351d	-0.39103022
34	0x3e292ddc	0.165214
35	0x3d6c203c	0.05764793
36	0x3f82e77b	1.0226892
37	0xbf17638f	-0.5913629
38	0xbf171061	-0.5900937
39	0xbee3dc00	-0.44503784
40	0xbe8b8182	-0.27247244
41	0x3d11c311	0.03558642
42	0xbea475d9	-0.3212116
43	0xbf50451b	-0.81355447
44	0x3df7e221	0.121036775
45	0xbf4aa263	-0.7915403
46	0xbe306a30	-0.17228007
47	0xbf04b45a	-0.51837695
48	0x3de1fcd3	0.110345505
49	0xbe36b421	-0.17842151
50	0xbec2bb0b	-0.38033327
51	0x3ee02c4c	0.43783796
52	0x3d94eda0	0.07271886
53	0x3e53816f	0.20654844
54	0x3e8bb221	0.2728434
55	0xbbcdd2d2	-0.0062812353
56	0x3e563cbc	0.20921606
57	0xbf375564	-0.7161467
58	0x3f0f4f73	0.55980605
59	0x3f3cf99b	0.7381837
60	0xbe1cf7fa	-0.1532897
61	0x3f1679bf	0.5877952
62	0xbeacbc0d	-0.3373722
63	0x3f23014c	0.63673854

conv1.lin_edge.weight f4 [64, 1]
0	0x3f56cb8a	0.83904326
1	0xbf89c6dc	-1.0763812
2	0x3eb6feda	0.3574131
3	0x3f96ab78	1.1771078
4	0x3ee7748f	0.45206115
5	0xbf1ecbe8	-0.62029886
6	0x3ef6b7cd	0.48187104
7	0x3da437e9	0.080184765
8	0xbe86a1ee	-0.26295418
9	0xbec36291	-0.38161138
10	0xbf1dd160	-0.61647606
11	0xbf242ee4	-0.6413405
12	0x3f188d86	0.5959095
13	0xbebcb7aa	-0.36858875
14	0xbeeb84c5	-0.45999733
15	0xbe06b613	-0.13155393
16	0xbf13471e	-0.5753039
17	0x3e85f035	0.26159826
18	0xbf149774	-0.580436
19	0x3dca2540	0.09870386
20	0xbf070408	-0.52740526
21	0x3ec5b57d	0.38615027
22	0xbd03fdf6	-0.032224618
23	0xbf4ac4f3	-0.7920677
24	0x3e235d1b	0.15953486
25	0x3f7f6465	0.99762565
26	0xbf1d1541	-0.61360556
27	0x3f66a313	0.9009258
28	0xbf89eda6	-1.077565
29	0x3f80d297	1.0064267
30	0xbf7494b6	-0.95539415
31	0x3f533500	0.82502747
32	0x3f3646b6	0.71201646
33	0xbfb52b38	-1.4153814
34	0xbf65b066	-0.8972229
35	0xbf16b1c5	-0.58865005
36	0xbfd45b0a	-1.6590283
37	0x3df7d6e5	0.12101535
38	0xbf66b39c	-0.9011781
39	0x3f526f60	0.82201195
40	0xbf46dc99	-0.77680355
41	0x3e939c99	0.28830412
42	0x3d582955	0.052773792
43	0x3d164345	0.036685247
44	0xbc44f5d6	-0.0120215025
45	0xbc839a39	-0.01606475
46	0x3e7b9876	0.24569878
47	0x3e9e18c3	0.30878267
48	0x3e68cfc7	0.22735511
49	0xbf2847fc	-0.6573484
50	0x3f7da565	0.990805
51	0xbe1bb08a	-0.15204063
52	0x3e86c202	0.2631989
53	0x3ed5bb94	0.41744673
54	0x3e9b618d	0.30347863
55	0x3e459e86	0.19298753
56	0x3e0a1c31	0.13487317
57	0xbe2c14af	-0.16804765
58	0x3e9e8826	0.30963248
59	0xbe93709a	-0.28796846
60	0xbe2b7a19	-0.16745795
61	0x3f1da936	0.6158632
62	0x3f07b92a	0.5301691
63	0xbed299de	-0.41133016

norm1.weight f4 [64]
0	0x3f3a56c9	0.72788674
1	0x3f6a6345	0.91557723
2	0x3f8a9459	1.0826522
3	0x3f2b49eb	0.66909665
4	0x3fb74375	1.4317461
5	0x3ffb3773	1.9626297
6	0x3f113838	0.5672641
7	0x3f870302	1.0547793
8	0x3fdfe447	1.749154
9	0x3faae8aa	1.3352253
10	0x3f673a19	0.90323025
11	0x3f9d66dc	1.2297015
12	0x3f69f7d1	0.9139376
13	0x3fb1bf47	1.3886498
14	0x3f5dd192	0.86647904
15	0x3f4b5d2b	0.7943904
16	0x3f81f47f	1.0152739
17	0x3f482057	0.78174347
18	0x3f800448	1.0001307
19	0x3f114ad0	0.5675478
20	0x3f4b7f52	0.7949115
21	0x3f719bd5	0.94378406
22	0x3f2ed752	0.682973
23	0x3f280b00	0.65641785
24	0x3fd3605e	1.6513784
25	0x3fc98dc7	1.5746392
26	0x3f98630b	1.1905226
27	0x3f485059	0.782476
28	0x3f51513f	0.81764597
29	0x3f6c555c	0.9231775
30	0x3f46dea9	0.776835
31	0x3fc147b0	1.5100002
32	0x3fc600e9	1.5469028
33	0x3f57b5f8	0.8426204
34	0x3f510df3	0.8166191
35	0x3f37c9d7	0.7179236
36	0x3f2d4f7d	0.67699414
37	0x3f9916e7	1.1960114
38	0x3f4d0175	0.8008035
39	0x3fca51ea	1.5806248
40	0x3fd1b639	1.6383735
41	0x3f9a71f2	1.2066023
42	0x3fa4ab69	1.286481
43	0x3f753e77	0.9579844
44	0x3fc94678	1.572463
45	0x3fc16e4d	1.5111786
46	0x3f530c7d	0.8244093
47	0x3ef4d9e7	0.47822496
48	0x3f649528	0.89290094
49	0x3f490425	0.7852195
50	0x3f908605	1.12909
51	0x3f53f650	0.8279772
52	0x3faa499d	1.3303715
53	0x3f40d07b	0.75318116
54	0x3f6641d6	0.8994421
55	0x3f58973a	0.84605753
56	0x3f23a213	0.6391918
57	0x3f38ea9a	0.72232974
58	0x3fb0ea5b	1.382152
59	0x3f9ad6c8	1.2096796
60	0x3f778379	0.96684986
61	0x3f48ae72	0.7839118
62	0x3f0de6b9	0.5543018
63	0x3fa25ead	1.2685143

norm1.bias f4 [64]
0	0xbe6bfb58	-0.23045099
1	0xbe35809c	-0.17724842
2	0x3d803c7a	0.06261535
3	0xbeacb4b6	-0.33731622
4	0xbd8102a9	-0.062993355
5	0x3e26ad69	0.16277088
6	0xbecd53a8	-0.40102887
7	0x3d3e6970	0.04648727
8	0x3e0df27d	0.13862033
9	0xbcd77fa2	-0.026305977
10	0xbdbeecc8	-0.09322506
11	0xbcd30879	-0.025760876
12	0xbd64bc20	-0.055843472
13	0xbd0af486	-0.033924602
14	0xbe712ab3	-0.23551445
15	0xbe8c49a5	-0.27399936
16	0xbd1a9cf9	-0.037747357
17	0xbe5ace1d	-0.21367688
18	0xbdaeb2f4	-0.08530226
19	0xbee147e1	-0.44000152
20	0xbdc874af	-0.09787881
21	0xbe059bf3	-0.13047771
22	0xbea8e382	-0.32986075
23	0xbe90412e	-0.28174728
24	0x3d9b9cea	0.07598288
25	0x3e0cce3b	0.13750546
26	0xbbbf29e6	-0.005833852
27	0xbde3ae67	-0.11117249
28	0xbe8d6fb2	-0.2762428
29	0x3d4ac9ac	0.049508736
30	0xbe62c6ca	-0.22146145
31	0x3e85ea2f	0.2615523
32	0x3d95d3a1	0.07315756
33	0xbaef943f	-0.0018278434
34	0xbe450566	-0.1924034
35	0xbda6f1db	-0.08151599
36	0xbe9039cf	-0.28169104
37	0xbd273b7f	-0.040828224
38	0xbea93872	-0.33050877
39	0x3d6df6df	0.058096763
40	0x3d236806	0.039894126
41	0x3a2b949e	0.0006545278
42	0xbd00fb38	-0.03148958
43	0xbd780bdc	-0.060558185
44	0x3d0261ac	0.03183143
45	0x3ba6619e	0.005077555
46	0xbe2119be	-0.15732476
47	0xbed88d39	-0.42295244
48	0xbe426f2d	-0.18987723
49	0xbead97ae	-0.33904785
50	0x3d22f3c1	0.039783243
51	0xbe7ac37f	-0.24488638
52	0x3d12b491	0.035816733
53	0xbeaaa454	-0.33328497
54	0xbe4bd686	-0.19906053
55	0xbe374d12	-0.17900494
56	0xbe958d52	-0.2920938
57	0xbe3632f0	-0.17792869
58	0x3def47a7	0.116835885
59	0xbdd4e662	-0.103955045
60	0xbd3b0c90	-0.045666277
61	0xbe25222d	-0.16126318
62	0xbecc9f50	-0.39965296
63	0xbcc427ea	-0.023944814

conv2.att f4 [1, 8, 8]
0	0x3f35848a	0.70905364
1	0xbf58af0b	-0.84642094
2	0x400d8873	2.2114532
3	0xbf986860	-1.1906853
4	0xbfdd9b75	-1.7313067
5	0x3d83b6b4	0.06431332
6	0xbe9ca930	-0.3059783
7	0xbf1df9a0	-0.6170902
8	0x400f52e8	2.2394352
9	0xbf94a9e3	-1.1614345
10	0xbf8abb24	-1.0838361
11	0xbec48fac	-0.38390863
12	0xc01ba427	-2.431894
13	0x3f904473	1.1270889
14	0x40065c29	2.099375
15	0xc0177177	-2.3663003
16	0xbf96257e	-1.1730192
17	0xbe276fb9	-0.16351213
18	0x3fbc340c	1.4703383
19	0x3fc8ee66	1.5697753
20	0xbfda74eb	-1.706693
21	0xbfe37e20	-1.7772865
22	0xbf91c0a9	-1.138692
23	0xbfc1a071	-1.5127088
24	0xbf0ea24b	-0.5571639
25	0x3e8bf82e	0.27337784
26	0x3f9d3b93	1.2283806
27	0x4019856d	2.3987687
28	0x3ff817d1	1.9382268
29	0x3f92026a	1.1406987
30	0x3fc8f4a0	1.5699654
31	0xbf6e9ad8	-0.9320502
32	0xbe65ade7	-0.2242962
33	0x3f7c3a5d	0.98526555
34	0xbddb2c5b	-0.107018195
35	0xbe5ddd98	-0.21666563
36	0xbf313450	-0.6922045
37	0xbe5b2896	-0.21402201
38	0xbf39f5bd	-0.7264059
39	0x3fe6642f	1.7999324
40	0x401196ff	2.274841
41	0x3faa84fa	1.3321831
42	0x3fb3682d	1.4016167
43	0xbf62b7b0	-0.88561535
44	0xbfcc713b	-1.5972055
45	0x3f02a936	0.51039445
46	0x3f46746e	0.7752141
47	0xbf5f0b1e	-0.8712634
48	0x3fde1a24	1.7351727
49	0x3fbf6258	1.4951887
50	0x3ffbfc33	1.968634
51	0x3f91c30d	1.138765
52	0xbf85930c	-1.04355
53	0xbf8f9b3e	-1.1219251
54	0x3fd5959a	1.668628
55	0x40270ef1	2.610287
56	0x3f1342da	0.5752388
57	0xbfe587a1	-1.7932016
58	0x3fd23514	1.6422448
59	0x3ceda728	0.02901037
60	0xbdd98fff	-0.10623168
61	0xc00133ba	-2.0187821
62	0x3f40d15e	0.7531947
63	0xbfcd35e5	-1.6032072

conv2.bias f4 [64]
0	0xbc187862	-0.009306045
1	0x3cc538f2	0.024075005
2	0x3dc311df	0.09524893
3	0x3be2a47e	0.0069165817
4	0xbdb6d5b8	-0.08927482
5	0x3c28ccff	0.010302781
6	0xbaf614df	-0.0018774531
7	0x3da4b4cd	0.080422975
8	0xbea2a0ed	-0.31763402
9	0x3de859d6	0.1134526
10	0x3d86861b	0.06568547
11	0x3dbbc51b	0.09168454
12	0x3d9dbda5	0.077021874
13	0x3d3a412a	0.0454723
14	0xbe38645f	-0.18007039
15	0x3d532fae	0.051559143
16	0x3a141d16	0.0005650086
17	0x3d9d0c7f	0.07668399
18	0x3d1fe898	0.039040178
19	0x3db3f857	0.087876014
20	0x3c899b52	0.016797695
21	0x3d5c7645	0.053823728
22	0x3cc79e45	0.024367461
23	0x3dc65e15	0.096859135
24	0xb9a85339	-0.00032105463
25	0x3c7f66f3	0.01558851
26	0xbdeb8def	-0.11501681
27	0xbd8b858f	-0.06812584
28	0x3cede6b0	0.029040664
29	0xbd2a2c35	-0.041546065
30	0x3d3274ff	0.043568607
31	0x3b37bd03	0.0028036244
32	0x3d1dbb6e	0.038508825
33	0xbc0d7874	-0.008634675
34	0x3d86b0ef	0.06576716
35	0xbd257664	-0.04039611
36	0xbcdd6a51	-0.027028235
37	0xbd9b65ba	-0.07587762
38	0x3d3be7d8	0.0458754
39	0x3debcd5d	0.11513779
40	0x3c70cedd	0.014697758
41	0x3b1d52ef	0.002400573
42	0x3d84b43f	0.06479692
43	0x3e08ff88	0.13378727
44	0x3d5812ef	0.05275243
45	0x3cced3bc	0.025247447
46	0x3d8c103d	0.06839035
47	0x3e052e73	0.13006
48	0xbc37951c	-0.011204984
49	0x3d8bc567	0.06824761
50	0xbd928c42	-0.07155658
51	0xba0bf4ae	-0.00053388893
52	0x3da1608d	0.07879744
53	0x3de5964e	0.11210309
54	0x3c9b68a8	0.018970802
55	0xbd8a89ab	-0.06764539
56	0x3d6b0091	0.057373587
57	0x3d968891	0.07350267
58	0xbe158b18	-0.14603841
59	0xbd2a91ac	-0.04164283
60	0xbb6c0c43	-0.003601805
61	0x3d9ff5c9	0.07810552
62	0xbde79603	-0.11307909
63	0x3d8d8ed4	0.06912008

conv2.lin_l.weight f4 [64, 64]
0	0x3e2946e4	0.16530949
1	0x3e819221	0.253068
2	0xbdabd5cd	-0.08390389
3	0xbd3436fa	-0.043997742
4	0x3e96b4b2	0.29434735
5	0x3adb1830	0.0016715582
6	0x3e5180a7	0.20459233
7	0x3dfd1be9	0.12358839
8	0x3ebb1dce	0.36546177
9	0xbdfe00c9	-0.124024935
10	0xbd701e6f	-0.058622774
11	0x3de55c38	0.1119923
12	0x3e2a012c	0.1660201
13	0x3ed05fb7	0.40698025
14	0x3dc35f61	0.095396765
15	0x3d3d582a	0.046226658
16	0x3eaf9318	0.3429191
17	0x3eb7a2dc	0.3586644
18	0x3e5914f7	0.21199404
19	0x3eb87e05	0.36033645
20	0x3e246616	0.16054568
21	0x3e193532	0.14961699
22	0x3dc4e94d	0.09614811
23	0xbeb08bcb	-0.34481654
24	0xbe125962	-0.1429191
25	0x3e9fbd1f	0.31198975
26	0x3ce1d8f5	0.027569273
27	0xbd9e5a03	-0.07732012
28	0x3d7e7517	0.062123384
29	0x3eaa545e	0.33267492
30	0xbcc0c7d1	-0.02353278
31	0x3f385469	0.720038
32	0xbdbf8ab8	-0.093526304
33	0x3d823571	0.063578494
34	0xbe0d92f8	-0.13825595
35	0xbe821713	-0.2540823
36	0xbe64b37a	-0.2233409
37	0x3d84abbb	0.064780675
38	0x3e523022	0.20526174
39	0xbe685c8d	-0.22691555
40	0x3ceb46fd	0.028720373
41	0xbda62cc1	-0.08114005
42	0x3ea9ccbb	0.3316401
43	0x3e98fc6a	0.29880077
44	0xbe738210	-0.23780084
45	0x3e12494c	0.14285773
46	0x3eadcbba	0.33944494
47	0x3e0c7404	0.13716131
48	0xbcc8c38b	-0.024507305
49	0x3e9d906c	0.30774248
50	0xbe25263f	-0.16127871
51	0x3ecb00ea	0.39649135
52	0xbe13ccbd	-0.1443357
53	0xbe855ecf	-0.26048896
54	0xbe90fbda	-0.28317147
55	0xbd3e8b95	-0.046519835
56	0x3e0dc832	0.138459
57	0x3e0a3022	0.13494924
58	0xbd37d98f	-0.044885214
59	0x3d6819fc	0.056665406
60	0xbdc97347	-0.098364405
61	0x3d8fe2dd	0.070256926
62	0x3e2f60db	0.17126791
63	0xbd3abed5	-0.045592148
64	0xbdc974ac	-0.098367065
65	0x3de530ff	0.11190986
66	0x3e585490	0.21126008
67	0xbc80ffed	-0.015747035
68	0x3e73808c	0.23779505
69	0x3e65df1d	0.22448392
70	0x3bf64980	0.007516086
71	0x3dd5a7d4	0.10432401
72	0xbed1cc3b	-0.40976128
73	0xbeeba85d	-0.46026888
74	0x3e08b173	0.13348942
75	0x3da9cc63	0.08290937
76	0x3dd69a89	0.10478694
77	0x3d8bcd53	0.06826272
78	0x3cafde14	0.0214682
79	0xbe16f080	-0.14740181
80	0x3d8b975b	0.06815978
81	0x3e8420b5	0.25806203
82	0xbd806d6b	-0.0627087
83	0x3d990098	0.074708164
84	0x3db5fe23	0.08886363
85	0xbd3fad1a	-0.046795942
86	0xbc8d3e54	-0.017241634
87	0xbde8530d	-0.11343966
88	0x3f5b0fb5	0.8557084
89	0xbe90912c	-0.28235757
90	0xbeab2c90	-0.33432436
91	0xbdce2df4	-0.100673586
92	0x3e9f6e46	0.3113882
93	0x3ee63d66	0.44968718
94	0xbdc65c58	-0.09685582
95	0x3f29a44c	0.6626632
96	0x3e312ac4	0.1730147
97	0xbda42c8e	-0.08016311
98	0xbdbbde10	-0.091732144
99	0xbe1633c9	-0.14668192
100	0x3e51b39c	0.20478672
101	0xbc9dc2e7	-0.019257976
102	0xbc8c38b0	-0.017116874
103	0x3eabc58d	0.33549157
104	0xbf04e931	-0.5191832
105	0xbe157e22	-0.14598897
106	0x3e928eb1	0.2862449
107	0x3d511583	0.051045906
108	0x3db5feac	0.088864654
109	0xbf07450b	-0.52839726
110	0xbdaddeac	-0.08489737
111	0xbdda7c9e	-0.106683
112	0x3eb11bcb	0.34591517
113	0x3b50d5d9	0.0031865744
114	0xbe9613c0	-0.29311943
115	0x3e155a6b	0.14585273
116	0x3ef4b9a2	0.47797877
117	0x3da6850e	0.08130847
118	0x3ca2b63c	0.019862287
119	0xbd7ed4bc	-0.062214598
120	0x3e181a4b	0.1485378
121	0xbd846410	-0.06464398
122	0x3e86ed5a	0.2635296
123	0xbef976e2	-0.48723513
124	0xbd739d04	-0.059475914
125	0xbd5a0c41	-0.053234342
126	0xbe577897	-0.21042095
127	0x3ea4035e	0.3203382
128	0x3b2adb81	0.0026070776
129	0x3e06e4b0	0.13173175
130	0x3e656917	0.2240337
131	0x3e31e7dc	0.17373604
132	0x3e9635b2	0.2933784
133	0x3ec7a7ab	0.38995108
134	0xbdcc3e38	-0.09972805
135	0x3e804661	0.25053695
136	0xbf760994	-0.96108365
137	0x3d3e30dd	0.04643332
138	0xbd8daa3c	-0.06917235
139	0x3c24d0e0	0.010059565
140	0x3d7a590c	0.061120078
141	0xbd9ffaee	-0.07811533
142	0x3adccec9	0.0016846295
143	0x3e442d5a	0.19157925
144	0x3d09ea10	0.033670485
145	0x3dec7d65	0.115473546
146	0xbd68ca06	-0.05683329
147	0x3e33c12a	0.17554155
148	0xbc964460	-0.01834315
149	0x3e8bbf22	0.2729426
150	0x3cb34278	0.02188228
151	0x3e1ae921	0.15127994
152	0x3e129d4e	0.1431782
153	0xbe5f4496	-0.21803507
154	0xbe3e737b	-0.1859874
155	0xbdd0c471	-0.10193718
156	0xbd75b1e0	-0.059984088
157	0x3e35aa99	0.17740859
158	0xbe81da14	-0.25361693
159	0xbee9b91d	-0.45649043
160	0xbe94b931	-0.2904754
161	0xbd13967b	-0.03603218
162	0xbd07641c	-0.033054456
163	0xbdad8a28	-0.08473617
164	0x3e804896	0.2505538
165	0x3ddc937c	0.10770318
166	0x3ea837d9	0.32855108
167	0x3f059706	0.5218357
168	0x3dc15fe5	0.094421186
169	0x3e403d60	0.18773413
170	0x3e846345	0.25856987
171	0x3e81404d	0.2524437
172	0xbeb673f8	-0.35635352
173	0x3e1c62e5	0.152721
174	0xbdc4139a	-0.09574051
175	0xbe580c7b	-0.21098511
176	0x3d74a34a	0.059726037
177	0x3bf2c763	0.0074090227
178	0xbed6b6a7	-0.41936228
179	0x3e839763	0.25701436
180	0xbe9169c2	-0.28401
181	0xbe96dbc6	-0.2946455
182	0x3e3d0d0a	0.18462005
183	0xbefdd55e	-0.4957685
184	0xbe810e89	-0.25206402
185	0xbe6ec280	-0.23316383
186	0xbbb6b930	-0.0055762753
187	0xbed4f0f7	-0.41590092
188	0x3e9177ac	0.28411615
189	0x3e7fc5f8	0.24977863
190	0xbe24c798	-0.16091764
191	0xbe3fa72a	-0.18716112
192	0xbe2ebcdb	-0.1706423
193	0x3e0a26c1	0.13491346
194	0x3e897b0e	0.26851696
195	0xbdce2f14	-0.10067573
196	0x3da26443	0.0792928
197	0x3e6662a3	0.22498564
198	0xbd1ce253	-0.038301777
199	0x3db0882c	0.08619723
200	0x3fa7f28a	1.3120892
201	0xbd3648e1	-0.044503096
202	0xbb338467	-0.002739215
203	0x3c372ebd	0.011180577
204	0x3cfe445f	0.031038461
205	0x3d404fee	0.046951227
206	0xbe0fb332	-0.14033201
207	0xbceaf9ca	-0.028683562
208	0xbca145d1	-0.019686611
209	0xbd95f1a5	-0.07321481
210	0xbd99e18a	-0.07513721
211	0x3e6167a9	0.220122
212	0xbd8e97b8	-0.06962532
213	0xbd8fd775	-0.07023517
214	0xbe18703a	-0.14886561
215	0xbe30ddca	-0.17272106
216	0x3ee3a554	0.44462073
217	0x3e96c6bc	0.29448497
218	0x3da664b9	0.0812468
219	0xbca0998c	-0.019604467
220	0x3c99926e	0.01874658
221	0x3e9ce116	0.30640477
222	0xbc885f26	-0.016646933
223	0x3e9b5e79	0.30345514
224	0x3d5cc2c0	0.053896666
225	0x3e64d547	0.22346984
226	0xbc4bac96	-0.012431284
227	0x3daa056f	0.083018176
228	0xbb8de45a	-0.0043302
229	0xbdae6231	-0.08514822
230	0xbe1a82b1	-0.15088917
231	0xbf1c99f4	-0.61172414
232	0xbe85735a	-0.2606457
233	0xbcbfe4ff	-0.023424624
234	0x3dd04435	0.101692595
235	0x3e17292d	0.14761801
236	0x3e561ca3	0.20909362
237	0xbdc70f72	-0.09719743
238	0xbe93dd86	-0.28879946
239	0x3e66e71c	0.22549099
240	0xbca54377	-0.020173771
241	0xbef3206d	-0.47485676
242	0x3e2c958f	0.16853927
243	0xbe212d0e	-0.15739843
244	0x3e579f95	0.2105697
245	0xbe7372a5	-0.23774202
246	0x3ddabaf5	0.106801905
247	0xbe71d966	-0.23618087
248	0x3dad6c0b	0.08467873
249	0x3db63d73	0.08898439
250	0xbe860ab9	-0.26180056
251	0x3df732a7	0.12070208
252	0x3d54e313	0.051974367
253	0x3e990f90	0.29894686
254	0xbd848af4	-0.06471816
255	0xbe9b469b	-0.30327305

conv2.lin_l.bias f4 [64]
0	0x3d6c0a42	0.05762697
1	0x3d92ab7c	0.07161614
2	0x3d93cda7	0.072169594
3	0x3df65ae7	0.12029057
4	0xbca5a739	-0.02022134
5	0xbcad99db	-0.021191528
6	0xbd295b21	-0.041346673
7	0x3c1c3e55	0.0095363455
8	0xbe194794	-0.14968711
9	0x3dae6a83	0.08516409
10	0x3cb53f9a	0.022125054
11	0x3e199509	0.14998259
12	0x3df6301d	0.12020896
13	0x3cfa1cb5	0.030531267
14	0xbd91a95e	-0.07112382
15	0x3d934c55	0.071922936
16	0xbdba9a34	-0.09111443
17	0xbd29a7de	-0.041419856
18	0x3e05a42f	0.13050912
19	0x3d9f50bd	0.077790715
20	0xbdcd5f21	-0.1002791
21	0x3cf9282c	0.030414663
22	0xbdc1d5ee	-0.09464632
23	0xbd197a85	-0.03747036
24	0x3dfcec11	0.123497136
25	0x3de046dd	0.10951016
26	0xbe13a22f	-0.14417337
27	0x3d457fc8	0.048217565
28	0x3dbaf23d	0.091282345
29	0xbd14005b	-0.03613315
30	0xbce02a57	-0.02736394
31	0x3d833ac2	0.064076915
32	0x3d0cf17a	0.034409977
33	0x3d78a2b0	0.060702026
34	0xbd27ab43	-0.040934812
35	0x3dbbae04	0.0916405
36	0x3bd1e92b	0.0064059696
37	0x3c70032b	0.014649193
38	0x3d6007c9	0.054694925
39	0x3d9cbed9	0.07653589
40	0x3cd7c1a5	0.026337454
41	0xbdbeea7a	-0.093220666
42	0xbd3196fe	-0.043356888
43	0x3c8c03c6	0.017091643
44	0xbd4b9300	-0.049700737
45	0xbd5f39c5	-0.054498453
46	0xbd0a5222	-0.033769734
47	0x3d73afde	0.059493892
48	0x3cb7fa36	0.022458177
49	0x3dad2ef4	0.08456221
50	0xbc80d8af	-0.015728323
51	0x3d42cb1b	0.047556978
52	0x3d09c821	0.033638123
53	0x3e589380	0.21150017
54	0x3de53131	0.11191023
55	0xbda024d9	-0.07819528
56	0x3c4a720d	0.012356293
57	0x3df406c1	0.11915351
58	0xbe184eab	-0.1487376
59	0xbdaad6cc	-0.083417505
60	0xbb7b5d69	-0.0038355237
61	0x3e065369	0.13117756
62	0xbdad1a57	-0.084522896
63	0x3e20ab0c	0.15690249

conv2.lin_r.weight f4 [64, 64]
0	0x3e0dee61	0.13860466
1	0x3d2a4d89	0.04157785
2	0xbe0acd07	-0.13554774
3	0xbb34cdb0	-0.002758842
4	0x3ca989ec	0.02069565
5	0x3e148e20	0.14507341
6	0xbddf4763	-0.10902288
7	0x3dedf3e4	0.11618784
8	0x3d968bbf	0.07350873
9	0x3ea9006f	0.33008143
10	0xbd2a36ec	-0.041556284
11	0x3dd5583b	0.10417219
12	0xbe941e6e	-0.28929466
13	0x3d8df880	0.06932163
14	0xbeecf261	-0.4627867
15	0x3cc6c8db	0.024265697
16	0x3c4d500e	0.012531294
17	0xbe496070	-0.19665694
18	0xbc60b494	-0.013714928
19	0x3cc0d369	0.023538308
20	0xbe3f38f3	-0.18674068
21	0xbdf62285	-0.12018303
22	0x3e7e00bb	0.24804966
23	0xbe1355ba	-0.14388171
24	0xbcf6999a	-0.03010254
25	0xbdc2d5c8	-0.09513432
26	0xbe63b21a	-0.22235909
27	0x3cd93b55	0.02651755
28	0x3df1999c	0.11796877
29	0x3cb299c5	0.021801839
30	0xbc5d7225	-0.013515984
31	0x3dfe87e7	0.12428265
32	0xbe775641	-0.24153997
33	0xbe6fa319	-0.2340206
34	0x3e22648d	0.1585867
35	0x3d924980	0.07142925
36	0xbe818164	-0.2529403
37	0xbde9f3bf	-0.11423444
38	0xbe2eda6f	-0.17075513
39	0x3eecca6e	0.46248192
40	0x3d3a3cd5	0.04546817
41	0x3e44353a	0.1916093
42	0xbe337428	-0.17524779
43	0xbdfa814c	-0.12231693
44	0x3b40569b	0.0029348496
45	0x3db236e1	0.087018736
46	0x3e1c98a4	0.15292603
47	0x3e592cfd	0.21208568
48	0x3da95c26	0.08269529
49	0xbe604e74	-0.21904927
50	0x3ceb6579	0.02873491
51	0xbe1ba4a3	-0.15199523
52	0xbe2402ca	-0.16016689
53	0x3ce8d984	0.028424032
54	0x3d1d5d6e	0.03841918
55	0xbe93b6fa	-0.28850538
56	0x3dcf0af8	0.10109514
57	0x3d92b4cf	0.07163393
58	0x3e36366e	0.17794201
59	0xbcf7d745	-0.030254016
60	0x3d3cd057	0.046097126
61	0xbdfbcbf9	-0.12294764
62	0xbd0b2851	-0.033973996
63	0xbd6e94e0	-0.058247447
64	0x3d12aa79	0.035807107
65	0x3df6a213	0.12042632
66	0xbdee5191	-0.11636651
67	0x3d95c3a7	0.07312708
68	0xbe96bfa2	-0.2944308
69	0xbdc9b36d	-0.09848676
70	0xbddffee9	-0.10937292
71	0x3c58e7f4	0.013238896
72	0x3daa72f6	0.08322708
73	0x3ed323e1	0.4123831
74	0x3e4134c4	0.18867785
75	0x3e1db93f	0.15402697
76	0xbcc6bea8	-0.024260834
77	0xbe9660e4	-0.29370797
78	0x3dde1b27	0.10845023
79	0xbe3088d5	-0.17239697
80	0xbe4fbde0	-0.20287275
81	0x3bf4c7c7	0.0074701044
82	0xbda50b2e	-0.08058773
83	0xbd30907a	-0.043106534
84	0xbef2145c	-0.47281158
85	0x3da26d32	0.079309836
86	0x3e95a65a	0.2922848
87	0x3bdd8740	0.006760508
88	0xbd9f362f	-0.077740066
89	0xbe318132	-0.1733444
90	0xbe97e35c	-0.2966565
91	0xbc22bb06	-0.009932285
92	0x3e19f929	0.15036453
93	0x3e182a04	0.14859778
94	0x3d2952ac	0.041338608
95	0xbf33112d	-0.69948083
96	0xbdd01817	-0.10160845
97	0xbdea600d	-0.114441015
98	0xbd57cca1	-0.052685384
99	0x3d117bc2	0.035518415
100	0x3bfb9e46	0.00767878
101	0x37ad56da	2.066365e-05
102	0x3e675f26	0.2259489
103	0xbed01236	-0.40638894
104	0x3e28b9be	0.16477105
105	0x3d6f0b5f	0.058360454
106	0xbedf35b2	-0.43595654
107	0x3d95758f	0.07297813
108	0xbe47322c	-0.19452733
109	0x3d06e46e	0.03293269
110	0x3e7a1bf9	0.24424733
111	0xbdff1b08	-0.12456328
112	0xbddba9b6	-0.10725729
113	0xbd2e8eff	-0.04261684
114	0xbe436500	-0.19081497
115	0x3e036a05	0.12833412
116	0x3edea129	0.4348233
117	0xbdac83fb	-0.08423611
118	0x3e96cb3a	0.29451925
119	0xbe0ca460	-0.13734579
120	0xbe178e17	-0.14800297
121	0x3e03f2f7	0.12885652
122	0x3d8e2d16	0.06942193
123	0x3e750928	0.23929274
124	0xbe87d531	-0.2652984
125	0xbeab600a	-0.3347171
126	0x3e949c49	0.29025486
127	0x3e6b77c0	0.229949
128	0x3f016e99	0.50559384
129	0xbe88d5c9	-0.26725605
130	0xbe8b6197	-0.27222893
131	0xbd8142ea	-0.06311591
132	0xbf2a5e92	-0.6655055
133	0xbf8568c8	-1.0422602
134	0xbe429d24	-0.19005257
135	0xbe05a0ee	-0.13049671
136	0xbf2a5f87	-0.66552013
137	0xbe23a018	-0.1597904
138	0xbec76540	-0.38944435
139	0xbec9520b	-0.39320406
140	0x3e6bb6af	0.23018907
141	0xbd97833e	-0.07398079
142	0x3ea91499	0.33023527
143	0x3ebfe479	0.37478998
144	0xbe01080d	-0.12600727
145	0xbe7ac3d9	-0.24488772
146	0xbe124bb7	-0.14286695
147	0xbe13e7fa	-0.14443961
148	0x3d316377	0.043307748
149	0x3ec73d1b	0.38913807
150	0x3e0ffa1c	0.14060253
151	0x3e98a5e7	0.29814073
152	0xbd66ba22	-0.056329854
153	0x3e422797	0.18960415
154	0x3ea161f2	0.3152004
155	0x3ed7d22f	0.42152545
156	0x3dabf023	0.08395412
157	0xbf503e2d	-0.8134487
158	0xbbaa9009	-0.0052051586
159	0x3e70bbe1	0.2350917
160	0x3e907a9e	0.2821855
161	0x3c5b5e2e	0.013389153
162	0x3efbe1f4	0.49195826
163	0x3e9d32dc	0.30702865
164	0x3e99773b	0.29973778
165	0x3decd832	0.115646735
166	0xbc76ffef	-0.015075668
167	0x3e4fac78	0.20280635
168	0xbf0ba00a	-0.54541075
169	0x3e70053f	0.23439501
170	0xbe6a5c0a	-0.22886673
171	0xbe805b3a	-0.250696
172	0x3e3b8f24	0.18316323
173	0xbf2687a9	-0.6505075
174	0x3df4362a	0.119243935
175	0xbee62454	-0.4494959
176	0x3e29b597	0.16573177
177	0x3dc50dd4	0.09621778
178	0xbd6b817e	-0.05749654
179	0x3f03fd80	0.51558685
180	0xbf2565f4	-0.64608693
181	0x3d8f0959	0.06984205
182	0x3e2fbc5b	0.17161696
183	0xbe9d008c	-0.3066448
184	0xbe12196e	-0.14267513
185	0xbe1c6b9a	-0.15275422
186	0xbf0d7a66	-0.5526489
187	0xbf36678e	-0.7125176
188	0x3d9482c0	0.07251501
189	0x3eb0f7ca	0.34564048
190	0x3cd504cb	0.026003262
191	0x3cc61a11	0.024182351
192	0xbd453d9a	-0.04815445
193	0xbe52fc89	-0.20604147
194	0x3e534071	0.20630051
195	0xbdeb45ba	-0.11487909
196	0xbc30d00f	-0.0107917925
197	0xbd83b17c	-0.06430337
198	0x3d0a8669	0.03381959
199	0xbe01adc5	-0.12663944
200	0xbe745e6a	-0.23864141
201	0x3e3e2bc0	0.18571377
202	0xbd267012	-0.040634222
203	0xbe6bb8f1	-0.23019768
204	0xbd04f3b7	-0.032458987
205	0x3e33b1cf	0.17548297
206	0x3e820612	0.25395256
207	0x3e4aba94	0.19797736
208	0x3e726c4c	0.23674124
209	0xbd547af9	-0.05187509
210	0xbbec619e	-0.0072137853
211	0xbe18425f	-0.14869069
212	0x3e869f0a	0.26293212
213	0x3e5301bb	0.20606129
214	0x3e00995b	0.125585
215	0x3e32c60f	0.17458366
216	0xbbc1e3fd	-0.005917071
217	0x3dbc76bc	0.09202334
218	0x3e450b42	0.19242576
219	0xbe48491f	-0.19559143
220	0x3ca92670	0.020648211
221	0x3e844850	0.2583642
222	0xbe3131b3	-0.17304115
223	0xbd3840e0	-0.044983745
224	0x3eac04c3	0.33597383
225	0xbbb29c5e	-0.0054507693
226	0x3dfd3d30	0.12365186
227	0x3aa6e245	0.0012732228
228	0x3ebf0414	0.373078
229	0xbc961412	-0.018320117
230	0xbd1d8cda	-0.038464405
231	0xbeda4c1f	-0.426362
232	0xbe68b25c	-0.22724289
233	0xbd3d5108	-0.046219856
234	0x3e03e0a6	0.12878665
235	0xbc2acc03	-0.010424617
236	0x3e66fc99	0.22557296
237	0x3da7c5ba	0.0819201
238	0xbe6194a5	-0.2202936
239	0xbe1ddcd2	-0.15416268
240	0x3ea8aa3e	0.32942384
241	0xbd93b9a1	-0.0721314
242	0x3caf8bb3	0.021428918
243	0xbef86383	-0.4851342
244	0x3df6c052	0.12048401
245	0xbe9690af	-0.2940726
246	0xbe008cb4	-0.12553674
247	0x3d91712a	0.071016625
248	0x3cadb0bd	0.02120244
249	0x3e6ee759	0.2333044
250	0xbe937939	-0.28803423
251	0x3e3af1b5	0.18256266
252	0xbd74a240	-0.059725046
253	0x3e28f67c	0.16500276
254	0xbdf565db	-0.11982318
255	0x3dbf4192	0.093386784

conv2.lin_r.bias f4 [64]
0	0x3d5e50bf	0.054276224
1	0xbca81175	-0.020516137
2	0x3daad39a	0.08341141
3	0x397b1dad	0.0002394828
4	0x3dce3a01	0.10069657
5	0xbe0e49e2	-0.13895372
6	0x3e3d6c32	0.18498304
7	0x3c9c4d86	0.019079935
8	0x3e071e61	0.13195182
9	0xbd658a93	-0.056040358
10	0x3c00fceb	0.0078728
11	0xbeb8d6c3	-0.3610135
12	0xbdec6586	-0.115428016
13	0xbe44ba50	-0.19211698
14	0x3dfc8def	0.12331759
15	0x3e1edb12	0.15513256
16	0x3db1a21d	0.08673499
17	0xbe06b5eb	-0.13155334
18	0xbd4f3799	-0.05059013
19	0xbb061de0	-0.0020464584
20	0xbca5b103	-0.020226007
21	0x3e04928b	0.12946527
22	0xbd5e1818	-0.054222196
23	0x3d382e62	0.04496611
24	0x3e6d5b3c	0.23179334
25	0xbdff5e20	-0.12469125
26	0x3d324953	0.04352696
27	0x3b508608	0.003181817
28	0x3e51aa81	0.20475198
29	0x3e09a9da	0.134437
30	0x3f0af004	0.54272485
31	0xbdb552c5	-0.08853678
32	0xbd12f179	-0.035874818
33	0x3d91ad46	0.071131274
34	0x3d3d1046	0.046158098
35	0x3e573ddc	0.21019691
36	0xbdb73e46	-0.089474246
37	0x3d00bd44	0.031430498
38	0xbddae472	-0.10688104
39	0xbd33fa7e	-0.04394006
40	0xbd282f39	-0.04106066
41	0x3dfcf8e7	0.12352162
42	0xbe12d77b	-0.14340012
43	0x3d8b2c6e	0.06795584
44	0xbda2f5d2	-0.07957043
45	0xbe4c0fd2	-0.1992791
46	0x3e87e95a	0.2654522
47	0xbe36b970	-0.17844176
48	0xbcc059d2	-0.02348033
49	0xbe6efee0	-0.23339415
50	0x3e9e2d79	0.30894068
51	0x3bcc259f	0.0062300707
52	0xbe4cd21f	-0.2000203
53	0xbe1a7f42	-0.15087608
54	0xbe761705	-0.24032219
55	0x3d32eec1	0.043684725
56	0xbcf1a988	-0.029499784
57	0x3e96c842	0.2944966
58	0xbd6a850b	-0.057255786
59	0x3e83f956	0.25776166
60	0xbe37dbfa	-0.17955008
61	0x3e4fa2ef	0.20276998
62	0xbea843ad	-0.32864133
63	0xbd795899	-0.06087551

conv2.lin_edge.weight f4 [64, 1]
0	0xbfd1e2df	-1.639736
1	0x3f9b9ea3	1.2157787
2	0xbf8c637e	-1.0967863
3	0x3f44849a	0.76764834
4	0x3f830ae5	1.02377
5	0xbf412323	-0.7544424
6	0x3f80dc68	1.0067263
7	0x3fc65bd6	1.5496776
8	0xbfb15236	-1.3853214
9	0x3fb45812	1.4089377
10	0x3ff102f2	1.8829024
11	0x3fac62e1	1.3467675
12	0x3fd1d267	1.6392335
13	0xbfcf6650	-1.6203098
14	0xbfce120e	-1.609926
15	0x3fd38d4c	1.6527495
16	0x3f332762	0.6998197
17	0x3dedbfd0	0.11608851
18	0xbf931b76	-1.1492755
19	0xbf56d859	-0.8392387
20	0x3f0935b0	0.53597546
21	0x3f733ee7	0.95017856
22	0x3ecb18e0	0.39667416
23	0x3f1fc19d	0.62404805
24	0x3fb4ed77	1.4134969
25	0xbf6f4903	-0.9347078
26	0xbf9f5929	-1.2449085
27	0xbfa47626	-1.2848556
28	0xbf8cc61d	-1.0997959
29	0xbf9d0831	-1.2268125
30	0xbf945af7	-1.159026
31	0x3fa0970c	1.2546096
32	0xbe6dbc07	-0.23216258
33	0xbdd81212	-0.10550322
34	0x3eb6b67c	0.356861
35	0xbd6a4ae7	-0.05720034
36	0x3f0e3d0d	0.55561906
37	0x3f019820	0.5062275
38	0x3f0c12d5	0.54716235
39	0xbfa24b4c	-1.2679229
40	0xbfce3b6b	-1.6111883
41	0xbf64a5a7	-0.89315265
42	0xbff57d3a	-1.9178841
43	0x3f827fd8	1.0195265
44	0x3f2323f4	0.63726735
45	0xbfa2a9ed	-1.2708107
46	0xbf8813db	-1.063106
47	0x3f61463d	0.879978
48	0xbfba280b	-1.454347
49	0xbff0ea18	-1.882144
50	0xbff9394f	-1.9470614
51	0xbff0c54f	-1.8810214
52	0x3fe8c014	1.8183618
53	0x3fedcc32	1.857794
54	0xbff6ea1e	-1.9290197
55	0xbfd05507	-1.6275948
56	0xbf5a5cee	-0.8529805
57	0x3f47e461	0.78082854
58	0xbf13ca19	-0.5773025
59	0x3e7b4063	0.2453628
60	0xbf124558	-0.5713706
61	0x3f2f4091	0.68457896
62	0xbe99629a	-0.2995804
63	0xbdf42469	-0.11921007

norm2.weight f4 [64]
0	0x3f64a0a6	0.8930763
1	0x3f79dec8	0.9760556
2	0x3f2ba3fe	0.6704711
3	0x3f1ce516	0.6128706
4	0x3f2ddbc8	0.67913485
5	0x3f61243b	0.8794591
6	0x3f468225	0.77542335
7	0x3f5d4fe3	0.8645002
8	0x3fa511eb	1.2896093
9	0x3f8d3b3a	1.10337
10	0x3f4afe91	0.7929469
11	0x3f7704a9	0.96491486
12	0x3fb1c414	1.3887963
13	0x3faac599	1.3341552
14	0x3f801724	1.0007062
15	0x3f93ab61	1.1536676
16	0x3f8d3c86	1.1034095
17	0x3f517121	0.81813246
18	0x3f352f24	0.70775056
19	0x3f239a79	0.6390758
20	0x3f8307a4	1.0236707
21	0x3f804f5a	1.0024216
22	0x3f8b6854	1.0891213
23	0x3f79ff03	0.9765474
24	0x3f1a9d5d	0.6039637
25	0x3f6e7345	0.9314464
26	0x3f8f4a3e	1.1194532
27	0x3f007ed1	0.50193506
28	0x3f5e984d	0.8695114
29	0x3f59f9fe	0.8514708
30	0x3f6c6f1b	0.92357033
31	0x3f3a8899	0.7286468
32	0x3f0bf2bf	0.54667276
33	0x3f55d451	0.83527094
34	0x3fae6316	1.3623989
35	0x3f4325b1	0.7622939
36	0x3f4db2cd	0.80350953
37	0x3f9eddf3	1.2411484
38	0x3f387889	0.7205892
39	0x3f3d881f	0.7403583
40	0x3f8ad07a	1.0844872
41	0x3f3dae77	0.7409434
42	0x3fa7339b	1.3062624
43	0x3f23b1fa	0.63943446
44	0x3f9622bb	1.1729349
45	0x3f4a7014	0.7907727
46	0x3f27e0ad	0.65577203
47	0x3f91ee22	1.1400797
48	0x3f5822b0	0.8442793
49	0x3fa59a3f	1.2937697
50	0x3f6b1749	0.91832405
51	0x3f657590	0.8963251
52	0x3fa716e2	1.3053858
53	0x3fb5d44c	1.4205413
54	0x3f95a05b	1.1689562
55	0x3f5bf471	0.85919863
56	0x3f43d203	0.7649233
57	0x3f3c462c	0.73544574
58	0x3f9856ba	1.1901467
59	0x3f6dca15	0.9288648
60	0x3f976965	1.1829039
61	0x3f627454	0.8845875
62	0x3fa94314	1.3223596
63	0x3f7edcc4	0.9955561

norm2.bias f4 [64]
0	0xbe3f1f65	-0.1866432
1	0xbdc0fd9c	-0.09423372
2	0xbd2697d5	-0.040672142
3	0xbe8b49b8	-0.2720468
4	0xbe6cae91	-0.23113467
5	0xbe5a7ef8	-0.21337497
6	0xbe388244	-0.18018442
7	0xbe24babd	-0.1608686
8	0xbe766887	-0.24063312
9	0xbbf42cbd	-0.0074516223
10	0xbea824de	-0.32840627
11	0xbdefce8c	-0.117093176
12	0x3d50f76d	0.051017214
13	0xbbf2841c	-0.0074010026
14	0xbd8db620	-0.06919503
15	0xbd898077	-0.06713956
16	0xbdd418be	-0.10356282
17	0xbe0829b8	-0.13297164
18	0xbeda5253	-0.42640933
19	0xbe5607be	-0.20901391
20	0xbe3962b2	-0.18104056
21	0xbd4d8a98	-0.050181
22	0xbda6f9a5	-0.08153085
23	0xbe5394d4	-0.20662242
24	0xbebb9f6b	-0.36645064
25	0xbe650a2a	-0.22367159
26	0xbe00a25e	-0.12561938
27	0xbee67a8b	-0.45015368
28	0xbe817a43	-0.2528859
29	0xbe962e66	-0.29332274
30	0xbdcc2bbd	-0.0996928
31	0xbeb5a92b	-0.35480627
32	0xbe8def97	-0.27721855
33	0xbe522ab1	-0.20524098
34	0x3d97462f	0.07386433
35	0xbed5b280	-0.41737747
36	0xbe42e6c9	-0.1903335
37	0xbe24ecf6	-0.16106018
38	0xbe4017d1	-0.18759085
39	0xbe642668	-0.22280276
40	0xbdc41340	-0.09573984
41	0xbe8b8eba	-0.2725733
42	0xbe03d70b	-0.12875001
43	0xbeddc460	-0.43313885
44	0xbe2e3fa2	-0.17016461
45	0xbe9ebcdf	-0.31003472
46	0xbe460106	-0.19336328
47	0xbd090e54	-0.03346093
48	0xbe9356d7	-0.2877719
49	0xbbaf7029	-0.0053539467
50	0xbe7f68b2	-0.24942282
51	0xbe2b74ba	-0.16743746
52	0x3e114624	0.14186913
53	0xbe3890d3	-0.18023996
54	0xbd2c6b9c	-0.04209481
55	0xbe4e025f	-0.20118092
56	0xbebd2765	-0.36944118
57	0xbe8816e3	-0.2657996
58	0xbd7eba8a	-0.062189616
59	0xbe4eee85	-0.20208175
60	0xbe303ed5	-0.17211469
61	0xbdfe1bac	-0.12407622
62	0xbe2a6993	-0.16641836
63	0xbdd04a2f	-0.101703994

classifier.0.weight f4 [64, 64]
0	0xbd38441e	-0.044986837
1	0x3e1826be	0.14858529
2	0x3e1c1995	0.15244134
3	0x3e21706a	0.15765539
4	0x3dd0de60	0.10198665
5	0xbf181ead	-0.5942181
6	0x3d0a5634	0.033773616
7	0x3d448386	0.047976993
8	0xbe0bb80a	-0.13644424
9	0x3e7adc61	0.2449813
10	0xbce4dfeb	-0.027938804
11	0x3d9d598d	0.07683096
12	0xbf897fc1	-1.0742112
13	0x3ee22135	0.4416596
14	0x3d330f92	0.04371602
15	0xbf2956de	-0.66148174
16	0x3ec9f4c9	0.3944457
17	0x3d8fea8d	0.07027159
18	0xbd77472a	-0.0603706
19	0x3e1c4d7d	0.15263934
20	0x3cb1cd87	0.021704448
21	0xbdedb743	-0.1160722
22	0x3e4f19c8	0.20224679
23	0x3ec34ed7	0.38146088
24	0x3e50b583	0.20381741
25	0xbea7ae1b	-0.3275002
26	0xbe501371	-0.20319916
27	0x3e0d9956	0.13828024
28	0xbc658df9	-0.0140109
29	0x3da2d252	0.07950272
30	0x3e23ce5e	0.15996692
31	0x3c7be685	0.015374784
32	0x3ec5cd65	0.38633266
33	0x3ce6339b	0.02810078
34	0xbf051b03	-0.5199434
35	0x3e062650	0.13100553
36	0x3dc4a86e	0.09602438
37	0xbdc0dad2	-0.09416737
38	0x3f0121fc	0.5044248
39	0x3d3e2add	0.046427596
40	0xbefc84a6	-0.49319953
41	0x3e0a08ae	0.13479874
42	0x3e56d77e	0.20980641
43	0x3d05446a	0.032535948
44	0x3da91c13	0.08257308
45	0x3e1063cb	0.14100568
46	0x3e0b0cd4	0.13579112
47	0x3e50f7e1	0.20407058
48	0x3d787ffb	0.060668927
49	0x3dd26d69	0.102747746
50	0x3e3d9a89	0.18515982
51	0x3e9f9f0d	0.31176034
52	0xbf5a0230	-0.8515959
53	0xbe0dd7f9	-0.13851918
54	0x3d811fec	0.06304917
55	0x3e5d51ea	0.21613279
56	0x3e029e7c	0.1275577
57	0xbc96a79f	-0.018390475
58	0xbc7c7cb2	-0.015410589
59	0xbc81f6d1	-0.015864762
60	0x3f70ee5f	0.94113725
61	0x3d2788c8	0.04090193
62	0x3d7c2c11	0.061565462
63	0x3eaf11a6	0.34193152
64	0xbd62b48a	-0.055347957
65	0x3dc7a3b0	0.09748018
66	0x3da5721f	0.080784075
67	0xbd21eacf	-0.03953057
68	0xbe608446	-0.21925458
69	0x3d348d12	0.044079848
70	0xbd3da8ad	-0.04630344
71	0xbc4993f5	-0.012303342
72	0xbe1d50c8	-0.15362847
73	0xbe014224	-0.12622887
74	0xbe02196f	-0.12705015
75	0x3da1d0e6	0.07901172
76	0x3d6c8ea0	0.057753205
77	0x3de5aa7e	0.112141594
78	0x3dde43af	0.10852753
79	0x3e4d013a	0.20019999
80	0x3d678c2b	0.05653016
81	0xba851e28	-0.0010156082
82	0x3d43814f	0.04773074
83	0x3d98fcfa	0.074701265
84	0x3e2d350a	0.16914764
85	0x3dd969ef	0.10615908
86	0x3cb2a818	0.021808669
87	0x3e8ee6e4	0.2791053
88	0xbde1ca79	-0.11024947
89	0x3e1867c4	0.14883333
90	0xbeccc125	-0.39991108
91	0xbc962787	-0.018329395
92	0xbd2e037d	-0.042483795
93	0x3c08014e	0.008301092
94	0x3debc0a9	0.115113564
95	0xbe530f3a	-0.20611277
96	0xbde57ade	-0.11205076
97	0x3e28cd2c	0.16484517
98	0x3e27da30	0.16391826
99	0xbe338e82	-0.17534831
100	0x3d729faa	0.0592343
101	0xbe4fd37f	-0.20295523
102	0x3d479964	0.04873027
103	0x3e1083de	0.14112803
104	0xbe421872	-0.18954638
105	0x3d17ae13	0.037031244
106	0x3e39ffbf	0.18163966
107	0xbe5fc11e	-0.21851012
108	0x3e8537c5	0.2601911
109	0x3d0232c4	0.031786695
110	0xbe571e44	-0.21007639
111	0x3d382666	0.044958495
112	0xbdfeb982	-0.124377266
113	0x3e3fc1e8	0.18726313
114	0xbe846e93	-0.2586561
115	0x3e5d8f9c	0.21636814
116	0x3df5f594	0.12009731
117	0x3ebad3f3	0.3648983
118	0xbdc0fcf9	-0.09423251
119	0xbd1a9878	-0.03774306
120	0x3c8f3ab1	0.01748404
121	0xbe24bbf5	-0.16087325
122	0xbe0888cc	-0.13333434
123	0xbdf8fe1a	-0.12157841
124	0x3ce6392c	0.028103434
125	0xbe8cefeb	-0.27526793
126	0xbf1796ff	-0.59214777
127	0xbe7103dc	-0.23536628
128	0x3d823b51	0.0635897
129	0x3dff373b	0.12461706
130	0x3d709c7e	0.058742993
131	0x3e53d12d	0.20685263
132	0x3dda899e	0.1067078
133	0xbe29c90e	-0.16580603
134	0x3e85b759	0.26116446
135	0x3dcf308f	0.10116684
136	0xbdfcd17e	-0.12344645
137	0x3e36a8eb	0.17837875
138	0xbe3b42a5	-0.18287142
139	0xbc048e1f	-0.008090525
140	0x3ea47a7d	0.321247
141	0x3eb14282	0.34621054
142	0x3c1c2bb4	0.009531904
143	0x3e95e843	0.29278764
144	0xbdbdf8e0	-0.09275985
145	0x3e4a6555	0.19765218
146	0xbd38a7ac	-0.04508178
147	0x3e41d9e1	0.1893077
148	0x3e1ce260	0.1532073
149	0x3dc550b8	0.096345365
150	0x3e2d6417	0.16932712
151	0x3e757964	0.23972088
152	0x3da25559	0.07926435
153	0x3dc17a5b	0.094471656
154	0xbd41674b	-0.04721765
155	0x3c2fe732	0.010736274
156	0x3e223989	0.1584226
157	0x3c4b21a2	0.012398155
158	0x3d082921	0.03324235
159	0xbe70d6f5	-0.235195
160	0x3e0fe4c0	0.14052105
161	0xbcfde23e	-0.03099167
162	0x3e212530	0.15736842
163	0x3e433328	0.19062483
164	0xbcd3bce3	-0.025846904
165	0xbe24c245	-0.16089733
166	0x3dfc5032	0.123199835
167	0x3dc24e6e	0.094876155
168	0x3c9e7e42	0.019347314
169	0x3d9b8e74	0.0759553
170	0x3e9dff13	0.3085867
171	0xbd88094b	-0.066423975
172	0x3eaaaefc	0.33336627
173	0x3e55e21c	0.20887035
174	0x3d8a9eda	0.0676858
175	0x3d3a714e	0.045518212
176	0xbd7a7582	-0.06114722
177	0x3ec8ef4f	0.39245078
178	0x3e9b6c53	0.30356082
179	0x3e2d7bd3	0.16941766
180	0x3cd44bd9	0.025915073
181	0x3ece2d38	0.40268874
182	0xbd55b2c4	-0.052172437
183	0x3e06441a	0.13111916
184	0x3d65560e	0.05599027
185	0xbdce8826	-0.10084562
186	0xbe278a92	-0.16361454
187	0x3cae0448	0.021242276
188	0x3eb333a2	0.3500033
189	0xbe10f2f4	-0.1415518
190	0xbdbc5d68	-0.09197503
191	0xbe187e4d	-0.1489193
192	0xbd547a12	-0.051874228
193	0x3cd34031	0.025787445
194	0x3d86ffe9	0.0659178
195	0x3d8c9221	0.068638094
196	0xbc621ec8	-0.013801284
197	0x3c823972	0.015896533
198	0x3db8ba12	0.09019865
199	0xbd0b48d3	-0.034004997
200	0x3d52316a	0.051316656
201	0xbc29f3a4	-0.01037303
202	0xbc311cf8	-0.010810129
203	0xbde8b53e	-0.11362694
204	0xbd43828b	-0.047731917
205	0xbda990a4	-0.08279541
206	0xbdf29e93	-0.11846652
207	0xbe08986b	-0.13339393
208	0xbd802f4d	-0.06259022
209	0xbd01c8ce	-0.031685643
210	0xbdbf87ec	-0.09352097
211	0x3dbc7075	0.09201137
212	0xbd605f41	-0.05477834
213	0x3b9cf2d8	0.0047896914
214	0x3d1108f2	0.03540892
215	0xbc4a1ec7	-0.012336439
216	0xbe2b84fe	-0.16749951
217	0x3c9ed7fe	0.019390102
218	0xbd8ba409	-0.068183966
219	0xbe0c662d	-0.13710852
220	0xbe0e6670	-0.13906264
221	0xbd334324	-0.043765202
222	0x3c97c116	0.018524688
223	0xbd764769	-0.060126696
224	0xbe3c3827	-0.18380795
225	0xbc9262f0	-0.017869443
226	0xbd75a96d	-0.05997603
227	0x3c3285db	0.010896171
228	0x3d045851	0.032310788
229	0xbd9c278d	-0.07624731
230	0xbdddd156	-0.10830943
231	0x3d9c5e46	0.07635169
232	0xbc1467e5	-0.0090579735
233	0xbdbc3d22	-0.09191348
234	0xbd86b17e	-0.06576823
235	0x3dc54863	0.09632947
236	0xbe47a277	-0.19495569
237	0xbb134882	-0.0022473638
238	0xbd4b3e76	-0.049620114
239	0xbddcc6ad	-0.10780082
240	0xbd1856e2	-0.037192233
241	0x3d18a0cb	0.03726272
242	0xb9aff4f9	-0.0003356112
243	0xbe054cd9	-0.13017596
244	0x3c1d90b5	0.00961702
245	0xbe2b84fc	-0.16749948
246	0xbe1d7ff3	-0.1538084
247	0xbd23d9af	-0.04000252
248	0x3d16e4f2	0.036839433
249	0x3c4c5cbb	0.012473281
250	0xbd9b8fc2	-0.07595779
251	0xbdde0724	-0.10841206
252	0x3d39b492	0.04533822
253	0x3cc3fabc	0.02392327
254	0xbe329f65	-0.17443617
255	0xbdc4fd55	-0.09618632
