models/samples/gat_decoder.pth (torch, 61820 bytes, 21 tensors)

conv1.att f4 [1, 8, 8]
0	0x3cfacf8c	0.030616544
1	0xbefc4c4e	-0.49276966
2	0xbd7de75e	-0.061988227
3	0x3f012eff	0.50462335
4	0x3f1efa0d	0.621003
5	0x3ed0fdf0	0.4081874
6	0x3eb6787f	0.35638806
7	0xbe420236	-0.18946156
8	0xbd962813	-0.07331862
9	0x3e9eab6d	0.30990162
10	0xbe8c81b4	-0.27442706
11	0x3df70a9a	0.12062569
12	0xbf1ebc31	-0.6200591
13	0x3ea66216	0.3249671
14	0xbeede938	-0.46466994
15	0xbce3416d	-0.027741158
16	0x3fa2e1ab	1.2725118
17	0xbf45d20a	-0.7727362
18	0x3e714454	0.23561221
19	0x3e71b7d8	0.23605287
20	0xbf29cddb	-0.66329736
21	0x3f02a155	0.51027423
22	0x3f944960	1.1584892
23	0xbf24711e	-0.64235103
24	0xbdf02cf0	-0.11727321
25	0xbe939611	-0.2882543
26	0xbe4cf32d	-0.20014639
27	0xbe9d2397	-0.30691215
28	0xbf041484	-0.51593804
29	0xbd587b2d	-0.052851845
30	0x3e7a46ca	0.24441066
31	0xbdc0a9ad	-0.09407363
32	0xbf7175bc	-0.94320273
33	0xbf382799	-0.7193542
34	0xbf947700	-1.1598816
35	0xbefa4193	-0.48878154
36	0xbf80b91e	-1.0056493
37	0xbf1da74f	-0.6158342
38	0xbf7f2194	-0.9966061
39	0xbf818835	-1.0119692
40	0xbfc682f6	-1.5508716
41	0xbc98f29d	-0.018670375
42	0xbfba4a41	-1.455391
43	0xbf1c043f	-0.6094398
44	0x3f397ba2	0.72454274
45	0x3e4ca31a	0.19984093
46	0x3ee444c1	0.44583705
47	0xbf2dc403	-0.67877215
48	0xbee32fb6	-0.44372338
49	0xbe09fd5c	-0.13475555
50	0x3f1c7e67	0.61130375
51	0xbd888e8b	-0.06667813
52	0xbf07f37e	-0.53105915
53	0xbe692f74	-0.22772008
54	0xbf154af0	-0.5831747
55	0xbe637ad6	-0.22214827
56	0xbfa479d6	-1.2849681
57	0x3f5504f9	0.8321071
58	0x3f0cbd9e	0.5497683
59	0xbf58845d	-0.8457697
60	0x3ee3390f	0.4437947
61	0xbed50d42	-0.41611677
62	0x3f833dbd	1.0253216
63	0x3dcc2faf	0.099700324

conv1.bias f4 [64]
0	0x3cc15ec9	0.023604767
1	0x3cae8bb5	0.021306852
2	0xbd347830	-0.044059932
3	0xb8a9e527	-8.101231e-05
4	0x3e2576a3	0.16158538
5	0x3c2446cc	0.010026645
6	0x3e660824	0.22464043
7	0x3e92353a	0.28556234
8	0x3e06e3bd	0.13172813
9	0x3ea698d6	0.3253848
10	0xbc58ae2f	-0.013225122
11	0x3cdcf5b1	0.026972624
12	0x3e8be6fd	0.27324668
13	0xbd7543ba	-0.059879042
14	0x3ea3c5f3	0.3198696
15	0x3d4872a0	0.04893744
16	0x3dcfccac	0.1014646
17	0x3e9ea930	0.30988455
18	0x3e0fb5bf	0.14034174
19	0x3dd5f17d	0.10446451
20	0xbd21a26e	-0.039461546
21	0xbe0ca09c	-0.13733143
22	0xbdd6e3c5	-0.10492662
23	0x3e92c0dc	0.28662765
24	0x3ea23a89	0.31685284
25	0xbd96ac2c	-0.07357058
26	0x3cb8c854	0.022556461
27	0x3dcc97bf	0.09989881
28	0x3d441d72	0.047879644
29	0x3e66cfe9	0.22540249
30	0x3d05adac	0.03263633
31	0xbe7677f7	-0.240692
32	0x3dfa0c56	0.12209384
33	0x3d6272bb	0.055285197
34	0x3e9a3558	0.30118823
35	0x3e91c5d2	0.28471237
36	0x3ce3fd3b	0.02783071
37	0x3e9ed5c7	0.31022474
38	0x3daa48bc	0.08314654
39	0xbe1c89c9	-0.15286936
40	0x3ee0f317	0.43935463
41	0xbc826b74	-0.015920378
42	0x3e5bd382	0.21467403
43	0x3daecad8	0.08534783
44	0xbca712ff	-0.0203948
45	0xbdfed0db	-0.1244218
46	0x3e01e3b3	0.12684517
47	0x3e56914e	0.20953867
48	0x3eae37ee	0.34027046
49	0x3da60d88	0.0810805
50	0x3dbaf7fa	0.09129329
51	0x3e2f4041	0.17114355
52	0x3db96e65	0.09054259
53	0x3ec80d12	0.39072472
54	0xbc486422	-0.012230905
55	0x3cea6bb0	0.028615803
56	0x3ed74472	0.42044407
57	0x3ddbb06d	0.1072701
58	0xbd6dde40	-0.058073282
59	0x3e6e6efe	0.23284528
60	0x3da3cb04	0.079977065
61	0x3d92e788	0.07173067
62	0xbd10bb2a	-0.035334744
63	0x3e9f286a	0.3108552

conv1.lin_l.weight f4 [64, 2]
0	0xbe0cf4db	-0.1376528
1	0x3e74c163	0.23901896
2	0x3e12b0ad	0.14325209
3	0xbe8271ca	-0.2547744
4	0x3de757b8	0.11296028
5	0xbd5dcaf3	-0.054148626
6	0xbee02f28	-0.43785977
7	0xbedd492c	-0.43219888
8	0x3f188b2a	0.5958735
9	0x3f1da127	0.61574024
10	0x3eb8563a	0.36003286
11	0x3e6b5c86	0.22984514
12	0x3e15ce1a	0.14629403
13	0xbd3c1f14	-0.045928076
14	0xbe951a9e	-0.2912187
15	0x3ec079a7	0.37592813
16	0xbed0075f	-0.40630624
17	0xbeb00e12	-0.34385735
18	0xbe677a38	-0.22605217
19	0x3ec93824	0.39300644
20	0xbd65a442	-0.05606485
21	0xbeda908f	-0.42688414
22	0xbe92db64	-0.28683007
23	0x3e26149f	0.16218804
24	0xbec85ffd	-0.39135733
25	0xbeb2626c	-0.34840715
26	0x3cb5ad42	0.022177342
27	0xbe870a35	-0.26374975
28	0x3e922007	0.2854006
29	0x3ec97d94	0.3935362
30	0x3e970d45	0.2950231
31	0x3e94c973	0.29059944
32	0x3e8a8bfc	0.27059925
33	0x3dda737b	0.106665574
34	0xbc3bc00a	-0.01145936
35	0x3e146a3f	0.14493655
36	0x3ed22310	0.41042376
37	0x3eb44360	0.35207653
38	0x3c1d5b26	0.009604251
39	0x3e06e01f	0.13171433
40	0xbeaea6f5	-0.34111753
41	0xbed0ceec	-0.4078287
42	0x3e765c22	0.24058583
43	0x3e61d923	0.22055487
44	0x3ea20be0	0.31649685
45	0x3e1ed2dd	0.15510125
46	0xbe96fa76	-0.29487962
47	0xbea2df9b	-0.31811222
48	0xbd98c365	-0.074591435
49	0x3db5982d	0.08866916
50	0x3bbe0232	0.0057986015
51	0xbec93178	-0.39295554
52	0x3c3569c4	0.01107258
53	0xbee75f27	-0.45189783
54	0xbee67ecb	-0.4501861
55	0xbea2ccac	-0.31796777
56	0x3ec5a60a	0.3860324
57	0xbe873261	-0.26405624
58	0x3eb74bf2	0.3580013
59	0x3e56c2c6	0.20972738
60	0x3d7f8efc	0.06239222
61	0x3eb51317	0.35366127
62	0xbe05f9d2	-0.1308358
63	0x3d89823a	0.06714292
64	0x3f23d4fc	0.63996863
65	0xbf00bf85	-0.50292236
66	0x3f47489e	0.7784518
67	0x3f14cf9c	0.58129287
68	0x3e81e16d	0.253673
69	0xbb7ffbd4	-0.0039060013
70	0xbda5a7c5	-0.0808864
71	0xbcd80856	-0.026371162
72	0x3f25cd62	0.64766514
73	0x3f740ea5	0.95334846
74	0xbc432c3b	-0.011912401
75	0x3c5dd0de	0.013538567
76	0xbf044dd8	-0.5168128
77	0x3f3b4fea	0.73168814
78	0x3e315e47	0.1732112
79	0x3eca2706	0.39482898
80	0xbe950b12	-0.29110008
81	0x3eb34bcb	0.35018763
82	0xbdc03389	-0.093848296
83	0x3d898335	0.06714479
84	0x3f23e40b	0.6401984
85	0x3e1c1181	0.15241052
86	0x3edd9a8c	0.43281972
87	0x3efce104	0.49390423
88	0x3ced8144	0.028992303
89	0xbebe04ad	-0.37112942
90	0xbe9e3c33	-0.30905303
91	0x3d61c500	0.055119514
92	0xbe808630	-0.25102377
93	0x3e80f8ee	0.25189918
94	0xbe3b9f10	-0.18322396
95	0xbd4fda1d	-0.05074512
96	0x3e077547	0.13228332
97	0x3e4c763b	0.19966976
98	0x3e1d4824	0.1535955
99	0x3e99441d	0.2993478
100	0x3f091fd1	0.53564173
101	0x3f03bd3b	0.5146062
102	0x3c309751	0.010778264
103	0x3d0a74f5	0.033802945
104	0xbeb293dc	-0.34878433
105	0xbec95e61	-0.39329818
106	0x3ca038d7	0.019558353
107	0x3e219e0f	0.15782951
108	0xbf179e64	-0.5922606
109	0xbf087f52	-0.53319275
110	0xbee5fc59	-0.44919088
111	0xbee7636b	-0.45193037
112	0xbe76f90a	-0.24118438
113	0x3eaea2b7	0.34108517
114	0x3f0af196	0.5427488
115	0xbf1ce8ba	-0.6129261
116	0x3e0bf0b6	0.13666043
117	0x3e717c0e	0.2358248
118	0xbec468d7	-0.38361236
119	0xbed80409	-0.4219058
120	0x3f11e684	0.56992364
121	0xbefc26fb	-0.4924849
122	0x3ef05280	0.46937943
123	0x3edd06e4	0.4316932
124	0xbeabb952	-0.33539826
125	0xbec64ad1	-0.38728955
126	0xbe421475	-0.18953116
127	0x3e788649	0.24269976

conv1.lin_l.bias f4 [64]
0	0x3d7ffb3e	0.062495463
1	0x3e3c1865	0.18368681
2	0x3e6c3804	0.23068243
3	0x3f1eedef	0.6208181
4	0xbec946e8	-0.3931191
5	0x3cc8ae58	0.024497196
6	0xbe038e89	-0.12847342
7	0xbe8b6a32	-0.27229458
8	0x3d99d051	0.07510436
9	0xbe979f2a	-0.2961362
10	0x3ef61953	0.48066196
11	0x3ddef4e5	0.10886554
12	0xbdca62a7	-0.09882098
13	0x3e9cc421	0.30618384
14	0xbf00b49e	-0.502756
15	0xbe6613e0	-0.22468519
16	0xbd4d5b80	-0.05013609
17	0xbe94fb1e	-0.29097837
18	0xbe9e8bdf	-0.30966088
19	0xbc335f95	-0.0109480815
20	0x3f059277	0.5217661
21	0x3f0ba533	0.5454895
22	0x3eb1ea93	0.34749278
23	0xbdd41367	-0.10355263
24	0xbe153ff6	-0.1457518
25	0x3f0b91a2	0.54519093
26	0x3e8b0974	0.2715565
27	0x3de61451	0.11234344
28	0x3e130536	0.14357457
29	0xbeaf9047	-0.34289762
30	0xbe5001ec	-0.20313233
31	0x3ee14595	0.439984
32	0xbceeb3a8	-0.029138401
33	0x3ca25122	0.019814078
34	0xbe920dba	-0.28526098
35	0xbdfc8fce	-0.12332116
36	0x3c5b6980	0.013391852
37	0xbe03cb5f	-0.12870549
38	0xbcbb36c6	-0.022853266
39	0x3e0a2194	0.13489372
40	0xbeac594f	-0.33661887
41	0x3e46c1f6	0.19409928
42	0xbe92f593	-0.28702983
43	0xbe895f0f	-0.26830336
44	0x3e8023b9	0.25027254
45	0x3ee07da6	0.43845862
46	0xbd85dbac	-0.0653604
47	0xbda56eed	-0.08077798
48	0xbea5e769	-0.32403114
49	0xbe915314	-0.28383696
50	0xbeff8cf9	-0.4991224
51	0x3ca146f7	0.019687159
52	0x3e7077ca	0.23483196
53	0xbe8b226e	-0.27174705
54	0x3f1ae7ee	0.60510147
55	0x3ef05615	0.46940675
56	0xbec1860a	-0.37797576
57	0xbe41799a	-0.18894044
58	0x3e24d508	0.1609689
59	0x3d8c1285	0.0683947
60	0xbc16cb03	-0.009203675
61	0xbe7fd4a8	-0.24983466
62	0x3f0d9869	0.55310684
63	0xbdace228	-0.084415734

conv1.lin_r.weight f4 [64, 2]
0	0x3e7ff2f0	0.24995017
1	0x3c9356f9	0.017985808
2	0x3e8538f7	0.26020023
3	0x3ef158cf	0.47138068
4	0xbd25dcb2	-0.040493675
5	0xbe32d654	-0.17464572
6	0xbeb63e6c	-0.355945
7	0x3eb90240	0.3613453
8	0xbf295f13	-0.66160697
9	0x3f1dab09	0.61589104
10	0xbebe6a9e	-0.37190717
11	0x3ec8c33f	0.3921146
12	0x3dd817c5	0.10551409
13	0x3c5bf284	0.013424519
14	0xbd605076	-0.054764234
15	0x3d4bdc46	0.049770616
16	0x3e2ac982	0.16678432
17	0xbe7441cf	-0.23853229
18	0xbce2f2e7	-0.027703715
19	0x3e09ee1f	0.13469742
20	0x3f1933ad	0.59844476
21	0x3f17fb8b	0.593682
22	0xbe60a200	-0.21936798
23	0x3e6c8172	0.23096254
24	0x3ddfeafb	0.10933491
25	0x3dd3cab7	0.10341399
26	0xbedf8226	-0.43653983
27	0xbec9c538	-0.39408278
28	0xbde901b4	-0.11377278
29	0xbea35c34	-0.31906283
30	0xbe938ca1	-0.2881823
31	0x3e369a43	0.17832284
32	0x3ebec40a	0.3725894
33	0x3ec5095a	0.38483697
34	0xbe86250d	-0.26200143
35	0xbdd36209	-0.10321433
36	0xbe94d032	-0.2906509
37	0xbdeccd49	-0.115625925
38	0x3dc3b084	0.09555152
39	0x3e9b8151	0.30372098
40	0xbe66b4f1	-0.22529961
41	0x3f0f207d	0.5590895
42	0x3d82f3b6	0.063941404
43	0x3e51330d	0.2042963
44	0x3e9c75d6	0.30558652
45	0x3eaa8c34	0.33310091
46	0xbf023128	-0.50856256
47	0x3f24e72a	0.6441523
48	0x3e39a84c	0.18130606
49	0xbe0e294f	-0.13882945
50	0xbe14c7c0	-0.14529324
51	0xbe809152	-0.2511087
52	0x3e345168	0.17609179
53	0xbce24752	-0.027621899
54	0x3f164763	0.5870268
55	0x3db13afd	0.08653829
56	0xbe8cf56f	-0.27531
57	0x3db9de36	0.090755865
58	0xbcc991f7	-0.024605734
59	0x3e0c9891	0.13730074
60	0x3f40a61e	0.75253475
61	0xbe0ff3e7	-0.14057885
62	0x3e8bfd7d	0.27341834
63	0x3e82aacf	0.25520942
64	0x3dea8dee	0.11452852
65	0xbb71eda3	-0.0036915324
66	0xbdd5b8ae	-0.104356155
67	0xbde776e0	-0.113019705
68	0xbcb23f0d	-0.02175858
69	0x3c9f811b	0.019470742
70	0xbd3d5ad1	-0.046229187
71	0xba7350e6	-0.0009281769
72	0xbe36f687	-0.1786748
73	0xbc99ef18	-0.018790767
74	0x3d49ee75	0.049299676
75	0xbe9c3f3d	-0.30516997
76	0xbf22eb0d	-0.6363991
77	0xbf6583c0	-0.8965416
78	0x3e0d7a5e	0.1381621
79	0xbed2056d	-0.41019765
80	0xbdd7bda4	-0.10534218
81	0x3f3b55c2	0.7317773
82	0x3e26e6c4	0.16298968
83	0x3e7fb0c1	0.2496977
84	0xbea33fb8	-0.3188455
85	0xbdb99268	-0.09061128
86	0xbda6ffaf	-0.081542365
87	0x3f4c65be	0.79842746
88	0x3d936cef	0.07198512
89	0xbcc928fb	-0.024555674
90	0x3e0575f9	0.13033284
91	0x3e9381aa	0.28809863
92	0x3d1dbb20	0.038508534
93	0x3d3173bb	0.04332326
94	0x3e3947f5	0.18093856
95	0xbe535b6c	-0.20640343
96	0x3e28f1e7	0.16498528
97	0x3e31a458	0.17347848
98	0xbc3ee34a	-0.01165087
99	0xbb9c973e	-0.0047787717
100	0xbef50f73	-0.4786335
101	0x3f0f0375	0.5586465
102	0x3ed28bc7	0.41122267
103	0xbe1fd05c	-0.15606827
104	0xbb5cb87d	-0.00336793
105	0x3e17e908	0.14834988
106	0xbe563b66	-0.20921096
107	0x3e96ba13	0.29438838
108	0xbdffa551	-0.124827035
109	0xbe8f46be	-0.2798366
110	0x3e9bec5c	0.30453765
111	0xbee3d9be	-0.44502062
112	0xbe6e2c8d	-0.23259182
113	0x3f862caf	1.0482386
114	0x3eb54631	0.35405114
115	0x3f2e7737	0.6815066
116	0xbd99959a	-0.07499237
117	0x3f600c20	0.875185
118	0x3ebf6324	0.37380326
119	0x3f3174eb	0.6931903
120	0x3e170031	0.14746167
121	0x3f122ecf	0.57102674
122	0xbe4f77de	-0.2026057
123	0xbe3ef250	-0.18647122
124	0xbef96037	-0.4870622
125	0x3de5dc86	0.11223702
126	0x3d05312e	0.032517605
127	0xbd1e3011	-0.03862006

conv1.lin_r.bias f4 [64]
0	0x3e0b7905	0.13620384
1	0xbe88ef79	-0.26745203
2	0x3e6755df	0.22591351
3	0x3ebb9f3a	0.36644918
4	0xbf5d34da	-0.8640877
5	0xbf484062	-0.7822324
6	0x3ec33919	0.381295
7	0x3e2f2c81	0.1710682
8	0xbeb7ce64	-0.3589965
9	0x3f3212e9	0.69560105
10	0xbe92f15d	-0.2869977
11	0x3ef3a917	0.47589943
12	0x3e6ceab1	0.23136403
13	0xbea86352	-0.32888275
14	0x3ea342ad	0.31886807
15	0xbf3a1f4f	-0.72704023
16	0xbf3efa23	-0.7460043
17	0xbdff4fb0	-0.12466371
18	0xbf59b8e2	-0.85047734
19	0x3f32b901	0.69813544
20	0x3e895547	0.26822874
21	0x3e99162a	0.29899722
22	0xbf207510	-0.62678623
23	0x3f2ec886	0.68274724
24	0xbe5e6ace	-0.2172043
25	0xbf100279	-0.5625377
26	0xbcab67be	-0.020923492
27	0x3cd0344d	0.025415564
28	0x3f222a44	0.6334574
29	0xbedcda12	-0.43135124
30	0xbea94b3c	-0.33065212
31	0x3e12b6f4	0.14327604
32	0x3ef64aa2	0.48103815
33	0x3e2e9536	0.17049107
34	0x3eb383b8	0.3506143
35	0xbeeb49e9	-0.45954826
36	0x3e6b0148	0.22949708
37	0x3ecc9e87	0.39964697
38	0xbe261ca6	-0.16221866
39	0x3e992ea9	0.2991841
40	0xbd0491e3	-0.03236569
41	0x3f210748	0.62901735
42	0xbea2714e	-0.3172707
43	0xbf2177b7	-0.63073295
44	0xbea2aa5d	-0.31770602
45	0x3e554d35	0.20830233
46	0x3f344e39	0.7043186
47	0xbedfaa1b	-0.43684468
48	0xbce2559a	-0.027628709
49	0xbec49292	-0.38393074
50	0x3eec65fd	0.4617156
51	0x3e0605a9	0.13088097
52	0xbf1fe3f8	-0.6245723
53	0xbec86edd	-0.39147082
54	0xbed027f5	-0.40655485
55	0x3e59f21e	0.21283767
56	0xbed67fea	-0.41894466
57	0x3e652541	0.22377492
58	0xbdff30bb	-0.124604665
59	0xbf08edf3	-0.5348808
60	0xbbacae83	-0.005269827
61	0xbf0be164	-0.54640794
62	0xbaf39af9	-0.0018585614
63	0xbf22ca4c	-0.6358993

conv1.lin_edge.weight f4 [64, 1]
0	0x3e03c9a5	0.1286989
1	0x3dab80fa	0.0837421
2	0x3de2fd08	0.11083418
3	0xbd89d269	-0.06729586
4	0xbe154ce1	-0.14580108
5	0x3ea5e02c	0.32397592
6	0x3cb9d2d4	0.022683538
7	0xbe701a0a	-0.23447433
8	0xbee1c540	-0.44095802
9	0x3e7fc7c9	0.24978556
10	0xbe5aeee9	-0.213802
11	0xbc3d9b33	-0.011572647
12	0x3dd3f0af	0.10348641
13	0x3ea9361b	0.33049092
14	0x3e062be5	0.13102682
15	0x3e966a35	0.29377905
16	0x3d464d85	0.048413772
17	0xbf7313e6	-0.9495224
18	0x3eb74fd3	0.3580309
19	0x3ec9ad12	0.39389855
20	0xbe8be0f4	-0.27320063
21	0x3f85e37a	1.0460045
22	0x3f81e533	1.0148071
23	0xbd8483a3	-0.0647042
24	0xbbb00c35	-0.005372549
25	0xbe79db2d	-0.24400015
26	0x3e972838	0.29522872
27	0x3dacfdfa	0.0844688
28	0x3d52ef68	0.051497847
29	0xbdcf8c78	-0.10134214
30	0xbd7718c4	-0.060326353
31	0xbdb438f8	-0.087999284
32	0x3f84391a	1.0329926
33	0x3f5fdecb	0.8744933
34	0x3f84e5d8	1.0382643
35	0x3f15a4cb	0.5845458
36	0x3f738f23	0.95140284
37	0x3f7974f4	0.9744408
38	0x3f6156ee	0.8802327
39	0x3f8090d9	1.0044204
40	0x3d44a09c	0.04800473
41	0x3d5b8d51	0.053601567
42	0x3f3c2951	0.73500544
43	0x3d93f309	0.0722409
44	0xbf3dccaa	-0.7414042
45	0xbea5b4d9	-0.32364538
46	0xbec3db8a	-0.38253433
47	0x3e9d40c7	0.30713484
48	0x3e1ba95b	0.15201323
49	0x3db63c9c	0.08898279
50	0x3dfd7ccc	0.12377319
51	0x3dff6a86	0.124714896
52	0x3db6e4ed	0.08930383
53	0x3d838037	0.064209394
54	0x3c32b9ef	0.010908588
55	0x3d66f475	0.056385476
56	0x3f8e0db3	1.1097931
57	0x3dd8fc96	0.10595052
58	0xbf4f74e2	-0.81037724
59	0x3f303e64	0.688452
60	0xbe886495	-0.26639238
61	0x3f464341	0.7744637
62	0xbe59c94a	-0.21268192
63	0xbeb50bbc	-0.35360515

norm1.weight f4 [64]
0	0x3f3631c2	0.71169674
1	0x3f24bbd7	0.6434912
2	0x3f16f4d7	0.58967346
3	0x3f793e0a	0.9736029
4	0x3fc1711f	1.5112647
5	0x3f5af261	0.8552609
6	0x3f0ff95c	0.5623987
7	0x3f8371fe	1.0269163
8	0x3fbb487a	1.4631493
9	0x3f90b592	1.1305411
10	0x3f6a93c5	0.9163173
11	0x3f259513	0.64680594
12	0x3fbbda78	1.4676046
13	0x3f2b1741	0.6683236
14	0x3fb14d9b	1.3851808
15	0x3f91d66c	1.1393561
16	0x3f42fb6a	0.7616488
17	0x3f6d09d7	0.9259314
18	0x3f8f743a	1.1207345
19	0x3f0fca57	0.5616812
20	0x3f6e7527	0.9314751
21	0x3f56aa28	0.8385339
22	0x3f34b48b	0.70587987
23	0x3f8f8230	1.1211605
24	0x3f1eab5b	0.6198022
25	0x3f448a92	0.7677394
26	0x3f733a01	0.9501038
27	0x3faed5a7	1.3658952
28	0x3f7b4179	0.9814678
29	0x3f811f3e	1.0087659
30	0x3f92f8aa	1.1482136
31	0x3f1740e2	0.5908338
32	0x3fc53c2a	1.5408986
33	0x3fc20a98	1.5159483
34	0x3fb9e657	1.4523419
35	0x3f2dbb7b	0.678642
36	0x3fa9fcb7	1.3280247
37	0x3f2dcc76	0.6789011
38	0x3fc67921	1.5505716
39	0x3f5be675	0.85898525
40	0x3f4762f8	0.7788539
41	0x3f0acb80	0.54216766
42	0x3faa4044	1.3300862
43	0x401154da	2.270804
44	0x3f36f6b7	0.71470207
45	0x3f37622a	0.7163416
46	0x3f88129a	1.0630677
47	0x3f555d8c	0.83345866
48	0x3f2226ce	0.6334046
49	0x3f8a9069	1.082532
50	0x3fce143f	1.6099929
51	0x3f0dfd19	0.5546432
52	0x3f9b3831	1.2126523
53	0x3f3f5e2b	0.74753064
54	0x3f8d64a5	1.1046339
55	0x3f906cf0	1.1283245
56	0x3fa839f1	1.3142682
57	0x3fc295f1	1.5202008
58	0x3f2e6a6d	0.6813114
59	0x3f91dd44	1.139565
60	0x3fb18f47	1.387185
61	0x3fc10e76	1.5082538
62	0x3f488e64	0.7834227
63	0x3f2bf48b	0.6717002

norm1.bias f4 [64]
0	0xbe0a303e	-0.13494965
1	0xbe7b4a59	-0.2454008
2	0xbea2b81d	-0.31781092
3	0xbde56919	-0.112016864
4	0x3e1317c6	0.14364538
5	0xbe46c3a7	-0.19410573
6	0xbe6cad66	-0.23113021
7	0xbe415896	-0.18881449
8	0x3df5582e	0.119797096
9	0xbd91e51d	-0.07123778
10	0xbe3c942b	-0.18415897
11	0xbe10896a	-0.1411492
12	0x3ed537fc	0.41644275
13	0xbe91df81	-0.28490832
14	0x3c9f430c	0.01944115
15	0xbc901c97	-0.017591758
16	0xbd21ef1a	-0.039534666
17	0xbe1900a7	-0.14941655
18	0x3cc48332	0.02398834
19	0xbe9749c3	-0.29548463
20	0xbe231386	-0.15925416
21	0xbe8cd5af	-0.27506778
22	0xbea23819	-0.31683424
23	0x3e41b36a	0.18916097
24	0xbe85b99b	-0.26118168
25	0xbe86f577	-0.2635915
26	0xbe137140	-0.1439867
27	0x3d95cf45	0.07314924
28	0xbe17b81f	-0.1481633
29	0xbd4ae4d8	-0.04953465
30	0xbddf64bf	-0.10907888
31	0xbec8d71b	-0.39226612
32	0x3d0d56cd	0.034506608
33	0x3dc25928	0.094896615
34	0x3e3ddc75	0.18541129
35	0xbe85819f	-0.26075456
36	0x3d7c7aa8	0.06164041
37	0xbe93f565	-0.2889816
38	0x3cfb1a35	0.030652145
39	0xbe1fabe3	-0.15592913
40	0xbe3176ff	-0.1733055
41	0xbe9cb9bf	-0.30610463
42	0x3cdbcfe3	0.026832527
43	0xbd5d3323	-0.054003846
44	0xbdec67fc	-0.11543271
45	0xbe84d1da	-0.25941354
46	0xbe5c46a6	-0.21511325
47	0xbd5885dd	-0.052862037
48	0xbe3bdf84	-0.18346983
49	0xbe4edf11	-0.2020228
50	0xbd8a80c8	-0.06762844
51	0xbebf8644	-0.37407124
52	0x3d088d38	0.0333378
53	0xbe4d4582	-0.20046046
54	0xbd971ffa	-0.07379146
55	0xbd1807b5	-0.037116725
56	0x3d55bfbb	0.0521848
57	0x3da1dbf1	0.079032786
58	0xbe83c515	-0.257363
59	0x3dd2c352	0.10291161
60	0x3da9b169	0.082857914
61	0xbb8403c1	-0.004028768
62	0xbe5ea9ea	-0.21744505
63	0xbea68ba2	-0.32528406

conv2.att f4 [1, 8, 8]
0	0x3fc939bb	1.5720743
1	0xbf211c6f	-0.6293401
2	0xbf806b1c	-1.0032687
3	0xbf8303ad	-1.0235497
4	0x3fba4f0e	1.4555376
5	0xbf913551	-1.1344396
6	0xbf81b7e9	-1.013425
7	0x3ed29103	0.4112626
8	0x3dd4cd70	0.103907466
9	0x3e930209	0.2871249
10	0x3fb6a082	1.4267733
11	0x3edd9999	0.43281248
12	0xbe9cfaa9	-0.3065999
13	0xbde3a60f	-0.111156575
14	0xbf828336	-1.0196292
15	0xbf645713	-0.89195365
16	0x3eb61707	0.35564443
17	0xbead8133	-0.33887634
18	0x3e485287	0.19562732
19	0xbf068d50	-0.52559376
20	0x3f9335bd	1.1500775
21	0x3f01772a	0.50572455
22	0x3d8b92ec	0.068151325
23	0xbdd8529b	-0.10562631
24	0x3f8f6cbd	1.1205059
25	0xbf728e06	-0.9474796
26	0x3faae650	1.3351536
27	0x3fd11580	1.6334686
28	0x3f49ab87	0.78777355
29	0xbf596210	-0.84915257
30	0x3fa6efcc	1.304193
31	0x3f8879ce	1.0662172
32	0x3dad090c	0.08448991
33	0x3f7a295c	0.9771936
34	0x3f642c3a	0.89129984
35	0x3f8d7066	1.1049926
36	0x3f69538f	0.91143125
37	0xbf89c01e	-1.0761755
38	0x3f2f23e9	0.6841417
39	0xbf325495	-0.6966031
40	0x3e58155e	0.21101901
41	0xbf1adbcc	-0.60491633
42	0x3ef30f7b	0.47472748
43	0x3f06694b	0.52504414
44	0x3eaaada9	0.33335617
45	0xbf1a2430	-0.6021147
46	0x3ba6b1f1	0.0050871302
47	0xbed2ddc4	-0.4118482
48	0x3f21b98c	0.6317375
49	0xbf8797b7	-1.0593175
50	0x3f4c594e	0.7982377
51	0x3fd9fc72	1.7030165
52	0xbed1ffe8	-0.41015553
53	0xbf1369cf	-0.57583326
54	0xbf377067	-0.7165589
55	0x3e0012b2	0.12507132
56	0xbcdc434c	-0.026887558
57	0x3f3277a1	0.6971379
58	0x3e87948b	0.26480517
59	0xbe0475a3	-0.129355
60	0x3d875a7c	0.066090554
61	0x3e387e40	0.1801691
62	0x3e9ca865	0.30597225
63	0x3e862bf6	0.26205415

conv2.bias f4 [64]
0	0x3d6f5220	0.05842793
1	0x3e143620	0.14473772
2	0x3d5a5126	0.053300045
3	0x3e01adc5	0.12663944
4	0xbc9b8976	-0.018986445
5	0x3e068526	0.1313673
6	0x3e0029b7	0.12515913
7	0x3d873f98	0.066039264
8	0x3d8f18d2	0.06987156
9	0x3e155cc7	0.14586173
10	0xbe020ff1	-0.12701394
11	0xbc40e2b1	-0.011772797
12	0x3ce4fc0c	0.027952217
13	0x3e199ae1	0.15000488
14	0x3dbf6835	0.09346048
15	0x3d685cb5	0.056729037
16	0x3d627cad	0.05529468
17	0x3c30bf04	0.010787729
18	0xbb7fe381	-0.0039045515
19	0x3dcbf7ba	0.099593595
20	0x3dcddda1	0.10052038
21	0x3e085396	0.13313136
22	0x3dc4630e	0.09589206
23	0x3ccf21f2	0.025284741
24	0x3db757df	0.08952307
25	0x3e3b41a7	0.18286763
26	0x3d2b840d	0.04187398
27	0x3ca0642d	0.019579018
28	0xbd5db455	-0.054127056
29	0xbca5bc81	-0.020231487
30	0x3bd6e333	0.006557846
31	0xbce5ba03	-0.028042799
32	0x3da930bb	0.08261248
33	0xbdefd996	-0.11711423
34	0x3d84d549	0.064859934
35	0xbdb6d3bb	-0.08927103
36	0xbd8c55ba	-0.068522885
37	0x3d5d711d	0.05406295
38	0x3d12fe5a	0.0358871
39	0x3ddb75a6	0.10715799
40	0xbcf33f60	-0.029693305
41	0xbc1c5d19	-0.009543681
42	0xbd964c8f	-0.07338821
43	0x3de47c50	0.11156523
44	0xbb64f207	-0.0034934299
45	0x3e1b446f	0.15162824
46	0xbd3ada11	-0.04561812
47	0xbdaf7acd	-0.08568344
48	0x3c3d9a1a	0.011572385
49	0xbbb27d48	-0.0054470636
50	0xbdc7f675	-0.09763805
51	0x3dcdf56c	0.10056576
52	0xbd1b45d2	-0.037908383
53	0x3dc453ea	0.09586318
54	0x3e1fda2a	0.15610567
55	0xbcb30c93	-0.021856582
56	0x3d9e7c38	0.077385366
57	0xbd2f9edd	-0.042876113
58	0x3e1dd1dc	0.15412086
59	0xbd22d092	-0.03974969
60	0x3e07ce30	0.13262248
61	0x3d5aa2bf	0.053377863
62	0xbc0203d3	-0.007935482
63	0x3da89b9b	0.082328044

conv2.lin_l.weight f4 [64, 64]
0	0x3e92a0df	0.2863836
1	0x3e480c1f	0.19535874
2	0x3d77a03a	0.06045554
3	0x3e7f7686	0.24947557
4	0xbf0b5d21	-0.5443898
5	0x3e2f96a1	0.17147304
6	0x3d092fc8	0.033492833
7	0x3d7cf574	0.06175752
8	0xbdde8824	-0.108658105
9	0x3d02cb9e	0.031932466
10	0x3d4a07a4	0.049323693
11	0x3e5169f8	0.2045058
12	0x3f18e913	0.59730643
13	0x3da212c1	0.07913733
14	0xbe42203e	-0.18957612
15	0xbede27ee	-0.4338984
16	0x3e52c2ca	0.20582119
17	0x3e4b72d9	0.1986803
18	0x3e62c852	0.22146729
19	0x3d8bee68	0.06832582
20	0xbd93fcd9	-0.07225961
21	0x3e7cc7b0	0.2468555
22	0x3e83c1ad	0.257337
23	0x3dd795fa	0.10526653
24	0x3d715d5a	0.058926918
25	0x3dbc88ad	0.09205756
26	0x3e12f10d	0.14349766
27	0xbe146a38	-0.14493644
28	0xbe2a664f	-0.1664059
29	0xbe8db148	-0.27674317
30	0xbbbc2b6b	-0.0057424805
31	0x3e478195	0.19483025
32	0x3e61854d	0.22023506
33	0xbe31cdf7	-0.17363726
34	0xbec9b0d5	-0.39392725
35	0x3daa2235	0.08307306
36	0xbda2f18d	-0.079562284
37	0xbd2016aa	-0.039084114
38	0x3ed808bc	0.42194164
39	0x3c0c9bf7	0.008582107
40	0x3c89d90c	0.016827129
41	0x3c24c9f5	0.010057916
42	0xbe7c3e3c	-0.24633116
43	0xbe7c6f70	-0.24651885
44	0x3eaaf57c	0.33390415
45	0x3d6b1588	0.05739358
46	0x3d2fec61	0.042950038
47	0x3cb1b86d	0.021694386
48	0x3df75afe	0.12077902
49	0x3e99215c	0.29908264
50	0xbd59cdda	-0.05317483
51	0x3c87c69a	0.016574193
52	0xbe0176e1	-0.12643005
53	0x3e9f8ddb	0.31162915
54	0xbe02961f	-0.12752579
55	0xbdef02c1	-0.11670447
56	0x3dfceaeb	0.123494945
57	0x3e6520f4	0.22375852
58	0xbd738c9e	-0.059460275
59	0xbee35ebb	-0.4440821
60	0x3f168a34	0.5880463
61	0xbecff6f2	-0.40618092
62	0xbdf05694	-0.117352635
63	0xbdc48b4b	-0.095968805
64	0xbdbe3391	-0.09287179
65	0x3d732ea9	0.05937067
66	0xbc8b9484	-0.017038591
67	0x3ec04574	0.3755299
68	0x3da73de0	0.081660986
69	0x3e4890cc	0.19586486
70	0x3e4b1995	0.19833978
71	0xbeb422a7	-0.35182688
72	0xbf3d67d1	-0.73986536
73	0xbf266988	-0.6500478
74	0x3e1d9905	0.15390404
75	0xbd37a5d8	-0.044835895
76	0xbf82a9c2	-1.0208056
77	0x3e6fca9c	0.23417133
78	0x3e1cc578	0.15309703
79	0x3e0dcd38	0.13847816
80	0x3caf322f	0.021386234
81	0xbe074f78	-0.13213909
82	0xbe1a5d3f	-0.15074633
83	0xbe6eb4d9	-0.23311175
84	0x3cbe0132	0.02319393
85	0x3d82ed75	0.063929476
86	0xbd9f7906	-0.07786755
87	0xbf47f6ca	-0.78110945
88	0xbe911888	-0.28339028
89	0x3e60a166	0.21936569
90	0xbdcaeb95	-0.09908215
91	0xbee1f2da	-0.44130594
92	0x3dd80363	0.10547521
93	0x3e872d34	0.26401675
94	0xbd455b62	-0.048182853
95	0x3e52c9d3	0.20584802
96	0xbed98d75	-0.42490736
97	0xbd15f9e7	-0.03661528
98	0xbd969cd6	-0.07354133
99	0xbe8b98d9	-0.2726505
100	0xbdcde2b9	-0.100530095
101	0xbe1b2880	-0.15152168
102	0x3ebf1e1e	0.37327665
103	0x3e208017	0.15673862
104	0x3dbd1914	0.09233299
105	0xbd4a8971	-0.04944748
106	0x3db0c74c	0.08631763
107	0x3f5ef324	0.87089753
108	0x3c963c82	0.0183394
109	0xbd8bd617	-0.06827944
110	0x3d5c54d2	0.05379183
111	0xbe1b108f	-0.15143035
112	0xbe57f3fa	-0.21089163
113	0xbe1ab63a	-0.15108576
114	0xbc3b7900	-0.011442423
115	0x3e1c2151	0.15247084
116	0xbda46585	-0.08027176
117	0x3e1e7607	0.15474711
118	0x3da8e814	0.082473904
119	0x3e8940d9	0.26807287
120	0xbe57a1f4	-0.21057874
121	0x3df6f985	0.12059311
122	0xbe8b33e9	-0.27188042
123	0x3d8933c8	0.066993296
124	0x3e5a1980	0.2129879
125	0x3e6aeeca	0.22942653
126	0x3e183343	0.14863305
127	0xbdcf4ba4	-0.10121849
128	0xbe815816	-0.25262517
129	0x3e6bd999	0.23032226
130	0x3d00d8a5	0.03145661
131	0x3e03e7d1	0.128814
132	0x3e41e157	0.18933617
133	0xbdf1f525	-0.11814336
134	0x3d7f10cd	0.06227188
135	0xbeaa1e75	-0.33226362
136	0xbd62d61c	-0.05537997
137	0xbeafc213	-0.34327754
138	0x3ea0749b	0.31338963
139	0x3d9546c7	0.0728889
140	0xbed0f693	-0.4081312
141	0x3e2bfcc3	0.1679564
142	0xbdf0a326	-0.11749868
143	0x3dac1da6	0.084040925
144	0xbe87d826	-0.26532096
145	0xbe4b4a40	-0.19852543
146	0xbe65d996	-0.22446284
147	0x3d333f3f	0.043761488
148	0x3ead700d	0.3387455
149	0x3d0664b4	0.03281088
150	0xbe2e5857	-0.17025886
151	0xbeb4b962	-0.35297686
152	0x3d778f22	0.060439236
153	0x3ea0c261	0.313983
154	0x3e5fc56d	0.21852656
155	0x3e14da05	0.14536293
156	0x3e4dbab6	0.20090756
157	0x3e07ba6a	0.13254705
158	0xbf1009b4	-0.56264806
159	0x3dcfe858	0.10151738
160	0x3ca7490e	0.020420577
161	0x3e400ac0	0.18754101
162	0xbdf1840a	-0.117927626
163	0x3e11e449	0.1424724
164	0x3e1c7779	0.1527995
165	0xbd67c6db	-0.056586128
166	0x3d4a36a5	0.04936852
167	0x3e44df17	0.19225727
168	0xbe92f6c1	-0.28703883
169	0xbdfa9c0a	-0.12236793
170	0x3c820e78	0.01587604
171	0xbe351cd8	-0.17686784
172	0x3e4524c8	0.19252312
173	0x3dd043b5	0.10169164
174	0xbe0b7d08	-0.13621914
175	0xbdbee6b9	-0.093213506
176	0xbdc172c3	-0.09445717
177	0xbe4a3624	-0.19747216
178	0xbea9e8ee	-0.33185524
179	0x3e164af2	0.14677027
180	0x3e8ba227	0.2727215
181	0x3db45242	0.08804752
182	0x3e01d6b9	0.12679566
183	0x3e9a1fbb	0.30102333
184	0xbab0d2f4	-0.0013490603
185	0xbef2d3bd	-0.47427168
186	0xbe6a1550	-0.22859693
187	0x3e21c73b	0.15798657
188	0xbec4d491	-0.38443425
189	0xbe3d7085	-0.18499954
190	0x3dc48fe6	0.09597759
191	0xbde0a7d5	-0.109695114
192	0xbd26f3bb	-0.040759783
193	0x3c18e73e	0.009332476
194	0x3e8eb76b	0.27874312
195	0x3e49b485	0.19697769
196	0xbe5b1913	-0.21396284
197	0x3eddd277	0.43324634
198	0x3e60d026	0.21954402
199	0x3d84f5a1	0.064921625
200	0xbdcd5689	-0.10026271
201	0x3bdf88db	0.0068217344
202	0x3e827cfb	0.25485978
203	0xbd649c91	-0.055813376
204	0xbe251765	-0.16122206
205	0xbd82bab1	-0.06383265
206	0x3f3838f5	0.7196191
207	0x3e4a0cab	0.19731395
208	0x3e663c9b	0.22484057
209	0x3eaafb06	0.3339464
210	0x3e9cef8e	0.30651516
211	0x3e0f1f5a	0.13976803
212	0x3e3056ce	0.17220613
213	0x3ec57473	0.38565406
214	0x3e5f4ef7	0.21807466
215	0xbeb6dffe	-0.35717767
216	0x3d1045e0	0.035222888
217	0x3d927ed1	0.071530946
218	0x3d95eee9	0.07320959
219	0xbd280dee	-0.04102891
220	0xbda11a2c	-0.0786632
221	0x3ed2057e	0.41019815
222	0x3eaeda79	0.34151056
223	0x3e268147	0.16260253
224	0xbf3cabfd	-0.73699933
225	0xbf1c0b38	-0.6095462
226	0xbe2872a4	-0.16449982
227	0x3e0d7670	0.13814712
228	0xbf00db78	-0.5033488
229	0x3dac6ac2	0.084188
230	0xbf520b1c	-0.820482
231	0xbe8378d3	-0.2567812
232	0xbd1044ea	-0.03522197
233	0x3e2bd637	0.16780935
234	0x3d3f8b74	0.046763852
235	0x3f0bb5d4	0.5457432
236	0xbcb9a5e8	-0.022662118
237	0x3d598f17	0.053114977
238	0x3ea05f35	0.31322637
239	0x3d8f4f29	0.069975205
240	0x3df582db	0.11987849
241	0x3e93f764	0.28899682
242	0x3ea5dced	0.32395115
243	0x3d88a1cb	0.066714846
244	0xbe6f34c1	-0.23359968
245	0x3e3b09d3	0.18265466
246	0xbe7f3b42	-0.24924949
247	0xbe42a8e7	-0.19009744
248	0x3d4567e2	0.048194773
249	0xbdbe291c	-0.09285185
250	0x3e88f00a	0.26745635
251	0x3d52b1b2	0.051438995
252	0x3d7be254	0.06149514
253	0x3d48951c	0.048970327
254	0x3e0d376f	0.13790677
255	0x3d0c3e1a	0.034238912

conv2.lin_l.bias f4 [64]
0	0x3d0c3853	0.034233402
1	0x3e0ea41c	0.1392979
2	0x3e26ca3b	0.16288082
3	0x3e40148b	0.18757837
4	0xbd908416	-0.070564434
5	0x3e23b40b	0.1598665
6	0x3e094c99	0.13408126
7	0x3d01e623	0.031713616
8	0x3de415ae	0.111369476
9	0x3d06e066	0.032928847
10	0xbe1b8603	-0.1518784
11	0x3d86ab4f	0.06575643
12	0x3e17f782	0.1484051
13	0x3e423d9f	0.18968819
14	0x3ccc8d8e	0.024969842
15	0x3dd407e3	0.10353067
16	0xbd1388bc	-0.036019072
17	0xbd9f5c12	-0.07781233
18	0xbdc09906	-0.09404187
19	0x3caa3881	0.020778896
20	0x3dfb7fcd	0.122802354
21	0x3e1b2aa7	0.1515299
22	0x3e61416c	0.21997613
23	0x3c51317c	0.012768146
24	0x3e5c7f6f	0.21532987
25	0x3de37621	0.11106516
26	0xbc82455d	-0.015902216
27	0x3d2b4647	0.04181507
28	0x3cb3bed4	0.02194158
29	0x3d8c5f8c	0.068541616
30	0x3e0451b2	0.1292179
31	0xbd8f38cc	-0.06993255
32	0x3e4d66c6	0.20058736
33	0xbd97cfd5	-0.07412688
34	0x3dd8299f	0.105548136
35	0xbde9da8a	-0.11418636
36	0xbdf6d4f1	-0.12052334
37	0x3e1d9689	0.15389456
38	0x3d6f9617	0.058492746
39	0x3e467c36	0.1938332
40	0x3d86fab7	0.06590789
41	0xbdc9de67	-0.09856873
42	0x3d30951d	0.043110956
43	0x3d6cf2d3	0.057848763
44	0xbdbfcca3	-0.09365203
45	0x3e83e8a9	0.25763443
46	0xbd85eee4	-0.065397054
47	0xbd8eb580	-0.06968212
48	0x3d782ec3	0.06059147
49	0xbd535d3c	-0.051602587
50	0xbc944549	-0.018099444
51	0x3e28974a	0.16463962
52	0x3d81ee19	0.06344242
53	0x3d7969d6	0.06089195
54	0x3d839507	0.06424909
55	0x3b323c5a	0.0027196617
56	0x3d2f316f	0.042771753
57	0xbd5f0da3	-0.054456364
58	0x3d63b9db	0.055597167
59	0x3d8cfbe0	0.06883979
60	0x3d700ced	0.058606077
61	0x3d30d15e	0.043168418
62	0xbb07a134	-0.002069545
63	0x3cd53588	0.026026502

conv2.lin_r.weight f4 [64, 64]
0	0x3e6949cb	0.22782056
1	0xbdb2bf9c	-0.08727953
2	0x3e9d1368	0.30678868
3	0xbe332f3b	-0.17498486
4	0x3f1ccac9	0.61246926
5	0x3e4e19f8	0.20127094
6	0x3ee77da3	0.4521304
7	0xbf13d228	-0.5774255
8	0xbe1be9e1	-0.15225936
9	0xbe917dfc	-0.2841643
10	0xbe3cc4ff	-0.18434523
11	0x3e4c47f5	0.19949324
12	0xbdd5fa6e	-0.10448156
13	0x3d7fb3e0	0.0624274
14	0x3d892b78	0.06697744
15	0x3e489fad	0.19592161
16	0x3f4232ba	0.7585865
17	0xbe31a4b4	-0.17347986
18	0x3e7c7b3f	0.2465639
19	0xbe2ca856	-0.1686109
20	0xbd25a44d	-0.040439893
21	0x3e4bcffb	0.19903557
22	0x3d82b9fa	0.063831285
23	0xbed8f667	-0.4237549
24	0xbcb52073	-0.0221102
25	0x3e8324c6	0.25613993
26	0x3e70be33	0.23510055
27	0xbc247b81	-0.010039211
28	0x3f0fb9a8	0.56142664
29	0x3ef7d5f8	0.48405433
30	0x3db0c847	0.0863195
31	0x3c268d6c	0.010165554
32	0x3e399920	0.18124819
33	0xbe06b2ec	-0.13154191
34	0x3ddccf4c	0.10781726
35	0x3deb94ee	0.115030155
36	0xbe02894c	-0.12747687
37	0xbe4ba196	-0.19885859
38	0xbecb4ad5	-0.3970553
39	0xbe965965	-0.29365078
40	0xbe052b54	-0.1300481
41	0x3d89dd1c	0.067316264
42	0x3e0c2acd	0.13688202
43	0x3d4b0a2d	0.04957025
44	0x3ebda2da	0.37038308
45	0xbde135ae	-0.10996567
46	0xbeae7333	-0.34072265
47	0x3d384198	0.04498443
48	0xbda75cb9	-0.08171982
49	0x3dcf5e57	0.10125416
50	0x3ebacf25	0.36486164
51	0xbc303458	-0.010754667
52	0x3b80ae03	0.003926994
53	0xbebd7b26	-0.37008017
54	0x3e21ae82	0.15789226
55	0xbe109e10	-0.14122796
56	0xbea800b3	-0.32813033
57	0x3e8e5886	0.27801913
58	0xbd930922	-0.07179476
59	0x3cd61ae4	0.02613587
60	0x3e9e6c5f	0.30942056
61	0x3ef3c816	0.4761359
62	0x3e4111a2	0.18854383
63	0xbf1f2e08	-0.62179613
64	0x3d8a5eda	0.06756373
65	0x3e018f8a	0.12652412
66	0x3e7869cb	0.24259107
67	0x3e968561	0.29398635
68	0xbf65f501	-0.8982697
69	0xbe6723b9	-0.22572221
70	0xbeff8da5	-0.49912754
71	0xbe11bc65	-0.14232023
72	0x3e03177a	0.12801924
73	0x3dc9a66e	0.09846197
74	0xb980579c	-0.00024479337
75	0xbd215959	-0.03939185
76	0x3d6bf581	0.057607178
77	0x3e97f14b	0.2967628
78	0xbe0d20ea	-0.13782087
79	0xbf1a531b	-0.6028306
80	0xbe5282d0	-0.20557714
81	0xbe1cd8ae	-0.15317032
82	0xbf0a3884	-0.53992486
83	0xbece61d7	-0.4030902
84	0x3eb65248	0.3560965
85	0xbcd26502	-0.02568293
86	0xbd925892	-0.071458
87	0x3e302ec8	0.17205346
88	0xbf2b76b9	-0.6697803
89	0x3e08d220	0.13361406
90	0x3ed93843	0.42425737
91	0xbc620b41	-0.013796628
92	0x3ed1e7a4	0.4099704
93	0xbe07d6a6	-0.13265476
94	0x3e10fc2f	0.141587
95	0x3c1d0157	0.009582839
96	0xbe834019	-0.2563484
97	0xbed93b3f	-0.42428014
98	0xbec59de1	-0.38597015
99	0xbedc9ac2	-0.4308682
100	0xbeb4d302	-0.35317236
101	0x3d4b9aed	0.049708296
102	0xbe915e05	-0.28392044
103	0x3d91b2f3	0.0711421
104	0xbe5c5698	-0.21517408
105	0xbdd2f8a4	-0.10301331
106	0xbf21a705	-0.63145477
107	0x3daba67a	0.08381362
108	0xba6b3443	-0.0008972326
109	0x3d2ef30b	0.042712253
110	0x3e54b4fe	0.20772168
111	0x3e0aad37	0.13542639
112	0xbb93fba4	-0.004516082
113	0xbdf687e5	-0.120376386
114	0x3d3d77cf	0.046256837
115	0xbf552c34	-0.83270574
116	0x3e656c7c	0.22404665
117	0xbee15640	-0.44011116
118	0x3e6033e1	0.2189479
119	0x3e167521	0.14693119
120	0x3d2da024	0.04238905
121	0x3d947a6f	0.07249915
122	0xbd899102	-0.06717111
123	0xbe7ff7dc	-0.24996895
124	0x3b601fbf	0.003419861
125	0xbf192487	-0.5982136
126	0xbde6b6d7	-0.11265343
127	0xbdace99b	-0.08442994
128	0x3ecc735a	0.39931756
129	0x3e537e46	0.20653638
130	0x3dde516f	0.10855376
131	0xbd14ecb8	-0.036358565
132	0xbd5fbc4e	-0.05462294
133	0x3e85ba97	0.2611892
134	0x3ea18fe7	0.315551
135	0x3d31a5a1	0.043370847
136	0xbaba0e1d	-0.001419488
137	0x3dd61961	0.104540594
138	0x3ddbe80a	0.10737617
139	0x3e9410f4	0.28919184
140	0xbe39cb59	-0.18143977
141	0x3e46fa49	0.19431414
142	0x3e8717fd	0.2638549
143	0x3cf76567	0.03019972
144	0x3d48b20f	0.048997935
145	0xbd8ec9c5	-0.06972078
146	0x3e4a33b6	0.19746289
147	0x3d164129	0.036683235
148	0x3f3da27d	0.7407606
149	0x3e28943b	0.16462795
150	0xbdcd7050	-0.100311875
151	0xbd31e061	-0.043426875
152	0x3e411ef6	0.18859467
153	0xbe34a6b2	-0.17641714
154	0x3e8d4b6d	0.27596608
155	0x3e3978b8	0.18112457
156	0x3e707fdc	0.23486274
157	0xbe091adf	-0.13389157
158	0x3e514a21	0.20438434
159	0x3e9250c8	0.28577256
160	0x3a66ab1d	0.00087993016
161	0x3ecc9a9f	0.39961717
162	0x3d8aed38	0.06783527
163	0x3dbe0e6f	0.09280097
164	0x3dcbdf57	0.09954708
165	0x3d1475ba	0.036245085
166	0x3e490daf	0.19634126
167	0xbdb0a47a	-0.086251214
168	0xbdfd4e5f	-0.12368464
169	0x3e3fe78a	0.18740669
170	0x3e981dfe	0.29710382
171	0x3e9213c9	0.2853072
172	0x3dfa36d6	0.122174904
173	0x3e289fdd	0.16467233
174	0x3ead921f	0.33900544
175	0x3ea00d94	0.3126036
176	0x3df53142	0.11972286
177	0x3e73e2d6	0.23817
178	0x3efd9f80	0.4953575
179	0x3e803b7f	0.25045392
180	0x3ee9ddee	0.4567713
181	0x3ea86e7b	0.3289679
182	0x3e84859c	0.25883186
183	0x3eb7892f	0.3584685
184	0xbc35af2b	-0.011089127
185	0x3e18233c	0.14857191
186	0x3d4c8a47	0.04993656
187	0x3e9089cb	0.28230128
188	0x3d185204	0.03718759
189	0x3e817a2b	0.2528852
190	0xbe2a8477	-0.16652094
191	0x3c39ed33	0.011348057
192	0x3e4d6535	0.20058139
193	0xbe8e1ed0	-0.27757883
194	0xbbfd59ce	-0.007731653
195	0xbe5b3a41	-0.21408941
196	0x3e0fdbeb	0.14048736
197	0xbdeff0f9	-0.11715884
198	0xbdec1124	-0.11526707
199	0xbc9d1d3d	-0.019178981
200	0xbe34f234	-0.17670518
201	0xbee70d87	-0.45127508
202	0xbe579a4d	-0.21054955
203	0x3ea2ae70	0.3177371
204	0xbe56eec1	-0.20989515
205	0xbe34b77d	-0.1764812
206	0xbf372a0d	-0.7154854
207	0xbe4e1826	-0.201264
208	0xbd06c331	-0.032900993
209	0xbd5b7340	-0.053576708
210	0x3e9b9ae2	0.30391604
211	0xbdbb88f1	-0.09156979
212	0xbe987e91	-0.29784063
213	0xbd6f4ec7	-0.058424737
214	0x3c5c8271	0.013458834
215	0xbec08ed5	-0.37608972
216	0xbe24f395	-0.16108544
217	0xbd8f7c67	-0.0700615
218	0xbe06bfad	-0.13159056
219	0x3cb7de7f	0.022444962
220	0x3c96ce8b	0.018409034
221	0xbe029a27	-0.12754117
222	0xbe9273f3	-0.28604087
223	0x3d5bf46f	0.053699907
224	0x3cf264f6	0.029589158
225	0x3d6948fc	0.05695437
226	0xbed76bae	-0.4207434
227	0x3df3cf40	0.11904764
228	0x3e84e00e	0.2595219
229	0xbe701c8d	-0.23448391
230	0x3dd8fdb8	0.10595268
231	0x3e560a5f	0.20902394
232	0xbe68472f	-0.22683404
233	0x3e34dfa8	0.17663443
234	0xbc66eba1	-0.014094264
235	0xbfaa108f	-1.3286303
236	0xbe82370d	-0.25432625
237	0xbda78cf6	-0.08181183
238	0xbe3b17f3	-0.18270855
239	0xbe707b9a	-0.2348465
240	0x3df2c661	0.11854244
241	0xbe2671a0	-0.16254282
242	0x3de4502c	0.11148104
243	0xbe36c05e	-0.1784682
244	0xbe9b3eb5	-0.3032128
245	0x3a29c4aa	0.00064761436
246	0xbd80151f	-0.062540285
247	0xbe988b13	-0.29793605
248	0xbeb989f1	-0.36238053
249	0xbf2c9c8a	-0.6742636
250	0xbeba848c	-0.3642925
251	0xbe49c8fa	-0.19705573
252	0xbbb0c6db	-0.005394799
253	0xbf09bcbb	-0.53803605
254	0x3ce7b8e6	0.028286409
255	0x3d21a65a	0.039465286

conv2.lin_r.bias f4 [64]
0	0xbbf1bd50	-0.007377304
1	0xbd91e8e2	-0.07124497
2	0x3db8dcd7	0.09026497
3	0x3b5f1c98	0.0034044143
4	0xbcf05fd4	-0.02934257
5	0x3e6459e6	0.22299919
6	0xbe2d20b9	-0.16907014
7	0xbe73ec34	-0.23820573
8	0x3e3fb8d3	0.18722849
9	0xbd9b5697	-0.07584875
10	0x3ea70c1c	0.32626426
11	0xbe99897a	-0.299877
12	0xbe24151c	-0.16023678
13	0x3cc26bae	0.023732986
14	0xbded1f22	-0.11578204
15	0x3e6d61d7	0.23181854
16	0xbe487495	-0.19575723
17	0xbc8951d5	-0.016762653
18	0xbeb1f816	-0.34759587
19	0xbec67f6e	-0.38769096
20	0xbc9152d9	-0.0177397
21	0xbd67af65	-0.056563754
22	0x3de8d4b4	0.11368695
23	0xbe62a280	-0.22132301
24	0x3e867d35	0.262674
25	0x3cda3775	0.026637772
26	0x3e116636	0.14199147
27	0x3e79fe90	0.24413514
28	0x3e94d209	0.29066494
29	0x3e6956ae	0.22786972
30	0x3d895194	0.06705013
31	0xbbcf1989	-0.0063201827
32	0x3d970e98	0.073758304
33	0x3ea6475e	0.32476324
34	0x3e50f898	0.20407331
35	0xbddd683d	-0.108108975
36	0x3e70115b	0.2344412
37	0x3e604de5	0.21904714
38	0xbd897b7d	-0.06713007
39	0x3e68c434	0.22731096
40	0x3e3b9e96	0.18322214
41	0x3e518863	0.20462184
42	0x3e768b07	0.24076472
43	0xbd3ab808	-0.045585662
44	0xbe4fa3be	-0.20277306
45	0xbdda5178	-0.1066007
46	0xbea4bef0	-0.32176924
47	0xbe0a853d	-0.13527389
48	0x3eca4a8c	0.3951
49	0x3de60f74	0.11233416
50	0x3e0f617a	0.14002028
51	0x3db43b26	0.08800344
52	0x3db0631e	0.08612655
53	0xbed8ebcc	-0.423674
54	0x3a74ba1c	0.0009335594
55	0xbdf2c69a	-0.118542865
56	0xbe8b2121	-0.27173713
57	0xbe8c4afe	-0.27400964
58	0x3e314960	0.17313147
59	0xbd503e62	-0.050840743
60	0xbe113c5a	-0.14183179
61	0x3ec54df1	0.38536027
62	0x3e256011	0.16149928
63	0x3d64ffe0	0.055908084

conv2.lin_edge.weight f4 [64, 1]
0	0x3f93758a	1.1520245
1	0xbf992619	-1.1964751
2	0xbf86f34c	-1.0542998
3	0xbf8afc13	-1.0858177
4	0x3fa70dcc	1.3051085
5	0xbf85a2f1	-1.0440351
6	0xbfa3a730	-1.2785397
7	0x3f5a5798	0.8528991
8	0x3f1267fe	0.5718993
9	0x3e0da02a	0.13830629
10	0xbdf3f456	-0.11911838
11	0xbca6125a	-0.020272423
12	0x3e8f3a5b	0.2797421
13	0xbe33f177	-0.1757258
14	0x3e859ba6	0.26095313
15	0x3d3152d6	0.04329189
16	0x3d368449	0.04455975
17	0xbeb3b093	-0.35095653
18	0xbe9825f3	-0.29716453
19	0xbeebb646	-0.460375
20	0x3ea80bba	0.32821447
21	0xbf091429	-0.53546387
22	0xbeacd480	-0.33755875
23	0x3e77be27	0.24193631
24	0xbf9b48cf	-1.2131594
25	0x3f994fe6	1.1977508
26	0xbf95913e	-1.1684949
27	0xbfb803b0	-1.4376125
28	0xbf9757eb	-1.1823705
29	0x3fbb19e6	1.4617279
30	0xbfafa6ec	-1.3722816
31	0xbf8eb912	-1.1150229
32	0x3fb150f3	1.3852829
33	0x3fd9eaca	1.7024777
34	0x3fce08e4	1.6096463
35	0x3f205dde	0.6264323
36	0x3fe4882c	1.7854056
37	0xbfaae8dc	-1.3352313
38	0x3f9d3d61	1.2284356
39	0xbfa8e3c9	-1.3194515
40	0xbe808a80	-0.25105667
41	0x3e9fa842	0.31183058
42	0xbeda4d3e	-0.42637056
43	0xbe9268f0	-0.28595686
44	0xbed8c717	-0.42339393
45	0xbcf34bb3	-0.029699182
46	0xbf5d0b20	-0.863451
47	0x3ec8e31a	0.39235765
48	0xbf10fc5b	-0.56635064
49	0x3e900ea1	0.2813616
50	0xbf116759	-0.5679832
51	0xbd538720	-0.051642537
52	0xbf94301a	-1.157718
53	0x3ef70712	0.48247582
54	0x3fae1d0b	1.3602613
55	0xbf2abe09	-0.6669622
56	0x3e109277	0.14118372
57	0xbf3ef0a1	-0.7458592
58	0xbed605cc	-0.41801298
59	0x3e2a88a3	0.16653685
60	0xbf61d309	-0.8821264
61	0xbf6be3c1	-0.921444
62	0xbe5c3db3	-0.21507911
63	0xbf2fb8a8	-0.6864114

norm2.weight f4 [64]
0	0x3f985ae7	1.1902741
1	0x3f262804	0.6490481
2	0x3f85c013	1.0449241
3	0x3fb4090d	1.4065262
4	0x3f5e1428	0.86749506
5	0x3f63c3c7	0.8897061
6	0x3f904e5b	1.1273912
7	0x3f47af30	0.7800169
8	0x3f0cc3ab	0.54986066
9	0x3f8b7ea2	1.089802
10	0x3f7e2bf4	0.9928582
11	0x3f88fb46	1.0701683
12	0x3f67d0c5	0.9055293
13	0x3f871524	1.0553327
14	0x3fad3cde	1.35342
15	0x3f808a1e	1.004215
16	0x3fb2854b	1.3946928
17	0x3f7520a6	0.9575294
18	0x3fbe6e27	1.4877366
19	0x3fbaa9f7	1.4583119
20	0x3f620c4e	0.88300025
21	0x3f718b9d	0.9435366
22	0x3f1a13a4	0.6018622
23	0x3f5ea97d	0.8697737
24	0x3fa25238	1.2681341
25	0x3f1923d2	0.5982028
26	0x3f6e2562	0.9302579
27	0x3fa6325e	1.2984121
28	0x3fbbf175	1.4683062
29	0x3f392e74	0.72336507
30	0x3f73bb84	0.95208
31	0x3f875399	1.0572387
32	0x3f83e774	1.0305009
33	0x3f7d7b24	0.9901602
34	0x3f685fc1	0.9077111
35	0x3f921ec0	1.1415634
36	0x3f89c02d	1.0761772
37	0x3f97ab7b	1.1849207
38	0x3f638609	0.88876396
39	0x3f81cfd0	1.0141544
40	0x3f85e1f4	1.045958
41	0x3fbc5b57	1.4715375
42	0x3f88071c	1.062717
43	0x3f6a822b	0.9160487
44	0x3f8a258e	1.0792711
45	0x3f73c188	0.9521718
46	0x3f9de2eb	1.2334875
47	0x3f861cb2	1.0477507
48	0x3f33eb77	0.70281166
49	0x3f875712	1.0573447
50	0x3fab1022	1.3364298
51	0x3f573096	0.8405851
52	0x3fae7555	1.3629557
53	0x3f940c90	1.1566334
54	0x3f784a1b	0.96988076
55	0x3ef8d657	0.48601028
56	0x3f32befc	0.6982267
57	0x3fa805ce	1.3126771
58	0x3f0268de	0.50941265
59	0x3f74d2df	0.95634264
60	0x3f20e4fb	0.62849396
61	0x3f6d5adb	0.9271676
62	0x3f63acd8	0.88935614
63	0x3f2bb2eb	0.6706988

norm2.bias f4 [64]
0	0xbd46ed15	-0.048565943
1	0xbeabe56c	-0.33573472
2	0xbe2116ed	-0.15731402
3	0x3ea1fe15	0.31639162
4	0xbe5bd6bb	-0.21468632
5	0x3d929c75	0.07158748
6	0xbc906bc5	-0.017629514
7	0xbec0513e	-0.37561983
8	0xbecb76ee	-0.39739174
9	0xbcdd8de6	-0.027045202
10	0xbe0be360	-0.13660955
11	0xbd50d4e7	-0.05098429
12	0xbce7987a	-0.028270949
13	0xbe3f2c2a	-0.18669191
14	0x3e0596a2	0.13045743
15	0xbd48ad75	-0.048993547
16	0x3c939a9f	0.018018065
17	0xbe495c6f	-0.19664167
18	0xbd7b439f	-0.061343785
19	0x3d027a7d	0.031855095
20	0xbe10d381	-0.14143182
21	0xbe52e3b3	-0.20594673
22	0xbead1cc9	-0.33811024
23	0xbe896419	-0.2683418
24	0xbd372749	-0.0447152
25	0xbec78c1d	-0.38974085
26	0xbe1f858f	-0.15578292
27	0x3e008b99	0.12553252
28	0x3d824b19	0.0636198
29	0xbe00e417	-0.1258701
30	0xbe1e42a2	-0.15455106
31	0xbda07de9	-0.078365155
32	0xbd20fe65	-0.03930511
33	0xbcefbf27	-0.029265953
34	0xbe5e10d2	-0.21686104
35	0x3e16fd31	0.14745022
36	0x3d54a392	0.051913805
37	0xbd12078f	-0.03565174
38	0xbe445e94	-0.19176704
39	0xbd4a8ce3	-0.049450766
40	0xbe3adf03	-0.18249135
41	0xbd4f904d	-0.050674725
42	0xbe75bf5e	-0.23998782
43	0xbd8f2d4c	-0.069910616
44	0xbca5d938	-0.02024518
45	0xbe0ef80e	-0.13961813
46	0xbe2fb45b	-0.17158644
47	0xbe092fa5	-0.13397081
48	0xbe899c06	-0.2687685
49	0xbb957ebd	-0.0045622275
50	0x3d205288	0.039141208
51	0xbe90e52a	-0.28299838
52	0x3e139fa0	0.14416361
53	0x3e02c2a9	0.1276957
54	0xbe5267f8	-0.20547473
55	0xbe0f4273	-0.13990192
56	0xbeac039a	-0.33596498
57	0xbcfefd8d	-0.031126762
58	0xbed69147	-0.41907713
59	0xbe28bd4e	-0.16478464
60	0xbeb0476e	-0.34429497
61	0xbe5bd0d9	-0.21466388
62	0xbe53a8b6	-0.20669827
63	0xbea7288c	-0.32648122

classifier.0.weight f4 [64, 64]
0	0x3d102bd8	0.035198063
1	0x3db45f5f	0.08807253
2	0x3dc12399	0.09430618
3	0xbe8163b4	-0.2527138
4	0x3d1a256f	0.037633356
5	0xbc437581	-0.011929871
6	0xbdbed72e	-0.09318386
7	0x3d358f9f	0.04432642
8	0x3d3c1705	0.04592039
9	0x3e01d2bf	0.1267805
10	0xbe8f4b8b	-0.27987322
11	0xbed8d7f9	-0.42352274
12	0xbce2c289	-0.027680652
13	0x3e38439e	0.17994544
14	0xbf82edf5	-1.0228869
15	0x3e3cf010	0.18450952
16	0xbea2503d	-0.31701842
17	0xbcf918f0	-0.030407399
18	0xbe5bb699	-0.21456374
19	0xbe30bcef	-0.17259572
20	0x3d42927f	0.04750299
21	0x3c7eae73	0.015544522
22	0xbde56e1d	-0.11202643
23	0x3e6400bc	0.22265905
24	0xbe600045	-0.21875103
25	0x3dc240e6	0.09485035
26	0xbbee2477	-0.0072675305
27	0xbec20ef7	-0.37902042
28	0xbecb4671	-0.3970218
29	0xbe617d55	-0.22020467
30	0xbdef9f2b	-0.11700281
31	0xbc31379b	-0.01081648
32	0x3de9c53f	0.11414575
33	0xbd23530b	-0.039874118
34	0xbdebe052	-0.11517395
35	0xbe130eca	-0.1436111
36	0xbbde9421	-0.0067925607
37	0xbe6b8e05	-0.23003395
38	0x3ca3d3c7	0.019998444
39	0x3d6862ef	0.056734975
40	0x3e7697f3	0.24081402
41	0xbe87c666	-0.26518553
42	0x3ed785db	0.4209431
43	0x3cda6d46	0.026663434
44	0xbe927991	-0.28608373
45	0x3cd3d5e2	0.025858823
46	0x3df5c62a	0.120006874
47	0xbcc35cae	-0.023847904
48	0x3de02dea	0.109462574
49	0xbeb31969	-0.34980324
50	0xbf3c7559	-0.7361656
51	0x3e4e7797	0.20162807
52	0xbd126222	-0.035738118
53	0xbe038f49	-0.12847628
54	0x3e929a87	0.2863352
55	0xbe476996	-0.19473872
56	0x3e6367aa	0.22207513
57	0xbe234fd0	-0.15948415
58	0x3ddb089d	0.10695002
59	0x3e185b32	0.14878538
60	0x3df8adb7	0.121425085
61	0x3e10064c	0.14064902
62	0x3ee9bdbf	0.45652577
63	0x3c4e8ba7	0.012606538
64	0xbe32db1d	-0.17466398
65	0x3e649055	0.22320683
66	0x3e510494	0.20411903
67	0xbd4b59e8	-0.04964629
68	0x3de29c01	0.11064912
69	0xbdfd104f	-0.12356626
70	0xbcb24f20	-0.021766245
71	0x3e2eaa08	0.1705705
72	0x3e0a4650	0.13503385
73	0x3e242a1c	0.16031688
74	0xbf2b5a9a	-0.6693512
75	0xbeff225a	-0.49830896
76	0xbdb90681	-0.09034444
77	0x3e3c041a	0.1836094
78	0xbf5df39e	-0.86699855
79	0xbd592d91	-0.05302197
80	0xbe639e91	-0.22228457
81	0x3e5bf72b	0.21481006
82	0xbe46abbc	-0.19401449
83	0xbeb8c2fa	-0.36086255
84	0x3e229504	0.15877157
85	0xbc014edc	-0.007892337
86	0xbde221a8	-0.11041576
87	0xbe2abf0f	-0.16674446
88	0x3dda361e	0.10654853
89	0x3bee34d3	0.0072694807
90	0xbcdc1852	-0.026867066
91	0xbf195598	-0.5989623
92	0xbebf9a08	-0.37422204
93	0xbe79355a	-0.24336758
94	0x3e490e2c	0.19634312
95	0x3d7a70b2	0.06114263
96	0x3cf72a39	0.0301715
97	0x3da6f7f5	0.08152763
98	0x3d86488a	0.065568045
99	0x3e77275b	0.24136107
100	0x3baa1857	0.00519089
101	0xbf503b7b	-0.8134076
102	0x3ab0e391	0.0013495554
103	0xbe86a695	-0.26298967
104	0x3ec39a66	0.38203734
105	0xbde2e3a3	-0.110785745
106	0x3e6d4c35	0.23173602
107	0x3dcf9379	0.1013555
108	0xbe21b5df	-0.15792035
109	0x3dad030e	0.08447848
110	0x3e9898e5	0.2980415
111	0x3d393691	0.045218054
112	0x3e01c07c	0.12671083
113	0xbeb8bbc0	-0.36080742
114	0xbf8296b4	-1.0202241
115	0x3e56c76d	0.20974512
116	0xbd559e91	-0.052153174
117	0xbe6040e6	-0.21899757
118	0x3e70e4d5	0.23524792
119	0xbe2b99d9	-0.16757907
120	0x3d27fc10	0.04101187
121	0xbdc91165	-0.09817771
122	0x3e091896	0.13388285
123	0x3e6d49cb	0.23172681
124	0xbc5ef439	-0.013608032
125	0x3d0b574b	0.034018796
126	0x3eacbbfe	0.33737177
127	0x3d5cd565	0.053914446
128	0x3da7c459	0.08191747
129	0xbdbc43b2	-0.09192599
130	0xbe3b953f	-0.18318652
131	0x3e21e790	0.1581099
132	0xbe8eeefa	-0.279167
133	0x3e3b6127	0.1829878
134	0xbd9af028	-0.075653374
135	0xbe1e1735	-0.1543854
136	0xbdb54e93	-0.088528775
137	0x3bf63e4d	0.007514751
138	0xbcf2f27b	-0.02965664
139	0x3dad8be1	0.084739454
140	0x3ea8d998	0.3297851
141	0xbded124a	-0.11575754
142	0xbbbc8222	-0.0057528177
143	0x3e90bc6e	0.2826876
144	0x3e00037d	0.1250133
145	0x3f41ad8e	0.7565545
146	0x3db1372a	0.086531
147	0xbda78902	-0.08180429
148	0xbe9ce4f8	-0.3064344
149	0xbe7f8fbf	-0.24957179
150	0xbb767b08	-0.0037609953
151	0x3f301c67	0.6879334
152	0x3d12ddb6	0.03585597
153	0xbd584101	-0.052796368
154	0xbd8554d5	-0.06510321
155	0x3e060a98	0.13089979
156	0xbd8a4e85	-0.06753258
157	0x3e0303dd	0.12794442
158	0xbd8080fc	-0.06274602
159	0xbe0f7147	-0.14008056
160	0xbe81612d	-0.25269452
161	0x3e8df1c7	0.27723524
162	0x3ddc6939	0.10762257
163	0x3dbfa5dd	0.09357808
164	0x3da427ee	0.080154285
165	0x3ed02e6c	0.40660417
166	0x3dbb37bb	0.09141489
167	0x3d9aed53	0.07564797
168	0x3e983709	0.29729488
169	0x3f128d31	0.5724669
170	0x3eb74cb7	0.35800716
171	0x3e7bbc3b	0.24583523
172	0x3d28e02a	0.041229405
173	0xbdfbcc15	-0.12294785
174	0x3f883608	1.0641489
175	0x3e72c490	0.23707795
176	0x3e4b2ef7	0.19842134
177	0xbd3b4e77	-0.045729127
178	0xbd984ab4	-0.074361235
179	0xbd73d2da	-0.059527256
180	0x3e4aaf4e	0.19793436
181	0xbe529740	-0.2056551
182	0xbeab3d2b	-0.33445105
183	0x3d8166db	0.06318446
184	0x3e9259c7	0.2858412
185	0x3cc0d9b7	0.023541315
186	0x3e4ec8a1	0.20193721
187	0x3e7cafea	0.24676481
188	0x3c7109c3	0.0147118
189	0x3ea9b87f	0.33148572
190	0x3d8735c2	0.0660205
191	0x3e27b310	0.163769
192	0x3a99afc5	0.0011725357
193	0xbe192157	-0.14954124
194	0xbcc21eb7	-0.023696287
195	0xbe00c68d	-0.12575741
196	0x3cfaf577	0.030634625
197	0x3bddf537	0.0067736167
198	0xbd3e6ab7	-0.04648849
199	0xbdf15e7a	-0.11785598
200	0xbb17388e	-0.002307448
201	0xbd287260	-0.0411247
202	0x3d3d7298	0.046251863
203	0xbdfeedc3	-0.12447693
204	0xbd4a4f0d	-0.049391795
205	0xbd33141f	-0.04372036
206	0xbda90601	-0.08253098
207	0xbd9c2bde	-0.076255545
208	0xbd9b1624	-0.07572582
209	0x3dfb83f0	0.122810245
210	0xbe182f35	-0.14861758
211	0xbd2aaa1b	-0.04166613
212	0xbc8f780a	-0.017513294
213	0xbdbc6aea	-0.0920008
214	0xbce59359	-0.028024362
215	0x3d50970f	0.05092531
216	0xbd1fdb19	-0.039027307
217	0xbd67cd5b	-0.056592327
218	0x3d4c2d85	0.0498481
219	0xbdce5a21	-0.100757845
220	0xbd271b8e	-0.040797763
221	0x3d9e6047	0.07733207
222	0xbdc9888a	-0.09840496
223	0xbe04362c	-0.1291129
224	0x3d102d05	0.035199184
225	0xbe00f85e	-0.12594745
226	0xbde78e93	-0.11306491
227	0xbd8943d5	-0.06702391
228	0xbd09915a	-0.033585884
229	0x3ddb2849	0.10701043
230	0xbdf1b0a6	-0.11801271
231	0xbdadb6c4	-0.084821254
232	0x3def180f	0.11674511
233	0x3e0bd7b8	0.13656509
234	0x3d3baa09	0.045816455
235	0xbdcccdbb	-0.100001775
236	0x3d80074f	0.06251394
237	0xbd7ae145	-0.06124999
238	0xbdd314c0	-0.10306692
239	0x3d804505	0.062631644
240	0xbddefbef	-0.10887896
241	0x3c23915b	0.009983386
242	0xbd937704	-0.07200435
243	0x3d8a3026	0.06747465
244	0xbc08ad0c	-0.008342039
245	0xbd6f2764	-0.058387175
246	0x3ce007b1	0.027347418
247	0x3d959448	0.07303673
248	0xbc818123	-0.015808647
249	0x3d494ef9	0.04914758
250	0xbdc1483d	-0.094376065
251	0xbdc9a1c8	-0.098453104
252	0xbd85706e	-0.06515585
253	0xbe243632	-0.16036299
254	0x3db08210	0.086185575
255	0xbd0d1a39	-0.034448836
