models/samples/robust_gat_decoder.pth (torch, 62002 bytes, 21 tensors)

conv1.att f4 [1, 8, 8]
000000 c4 a8 cf 3c d0 12 f8 be 4b 82 48 bd 81 64 ff 3e
       0.025349028 -0.48451853 -0.048952382 0.49881366
000010 0d a3 26 3f dc dd de 3e a5 c6 b9 3e 17 15 66 be
       0.65092546 0.4352864 0.36284366 -0.22468983
000020 4a f9 9b bd 6e b1 ad 3e a1 91 a5 be d2 b4 31 3e
       -0.076159075 0.3392443 -0.3233767 0.17354134
000030 c9 ad 1f bf e7 63 b8 3e 2c 68 fe be 41 de a2 bc
       -0.6237455 0.3601372 -0.49688852 -0.01988137
000040 48 0e a3 3f 70 87 3a bf 66 0b 73 3e b1 f1 67 3e
       1.2738733 -0.7286291 0.23734817 0.22650792
000050 07 3d 2c bf af 5e f9 3e 51 7b 90 3f 37 72 26 bf
       -0.6728062 0.4870505 1.1287633 -0.6501803
000060 1b aa f6 bd 49 c8 9c be f5 e3 49 be b9 79 9e be
       -0.12044164 -0.30621555 -0.19715865 -0.30952242
000070 76 7d 04 bf 82 f5 7c bd f8 6c 68 3e 44 01 e8 bd
       -0.5175394 -0.061757572 0.22697818 -0.113283664
000080 08 07 74 bf 66 de 40 bf ef bc 98 bf bb e4 04 bf
       -0.9532323 -0.75339353 -1.1932658 -0.51911515
000090 32 22 84 bf 3f b7 25 bf 71 34 79 bf e8 9f 88 bf
       -1.0322936 -0.64732736 -0.97345644 -1.06738
0000a0 87 46 c9 bf 04 a1 d1 bb 1c fd bb bf 03 da 21 bf
       -1.5724648 -0.0063973684 -1.4686618 -0.63223284
0000b0 9d 2a 38 3f 0f dc 64 3e 98 1b eb 3e 5c c2 2e bf
       0.7194002 0.2234957 0.4591949 -0.6826532
0000c0 6d 3c ea be 19 05 f0 bd 5e 6d 1e 3f eb 7b 0d bd
       -0.45749226 -0.11719722 0.6188563 -0.034542006
0000d0 eb ca 0a bf 63 3e 50 be 66 12 19 bf b1 a1 6f be
       -0.5421588 -0.20336299 -0.597937 -0.23401524
0000e0 4d fa a1 bf f9 f1 4a 3f a0 33 10 3f ca 95 5f bf
       -1.2654511 0.7927547 0.56328773 -0.87337935
0000f0 a0 17 d7 3e 41 6b c5 be f5 a2 78 3f 5d 9f 01 3e
       0.42010212 -0.3855839 0.9712365 0.12658449

conv1.bias f4 [64]
000000 cc 06 67 3c f3 ca 39 3d cf c9 ab bc 4a 4f b8 bb
       0.014100742 0.045359563 -0.020970253 -0.0056246864
000010 5e 11 24 3e 1c 87 88 b9 c7 48 85 3e c7 62 8c 3e
       0.1602225 -0.00026040606 0.26032087 0.2741911
000020 f3 b8 09 3e f7 25 a6 3e d9 fc 95 bc a1 f1 fe 3b
       0.13449459 0.3245084 -0.018309044 0.0077802693
000030 0c c3 8d 3e 71 e5 33 bd 8c f5 ab 3e e6 f2 84 3d
       0.2768787 -0.043919984 0.33585775 0.06491642
000040 b8 c9 f6 3d b8 95 aa 3e bd fb 1f 3e 1f 42 01 3e
       0.120501935 0.3331735 0.15623374 0.1262288
000050 52 27 5f bd 76 4d 0e be 77 ef ca bd 1a 81 98 3e
       -0.05448086 -0.13896737 -0.099089555 0.29785997
000060 f6 28 9e 3e a7 df 9c bd da 0f 4b 3d f7 df ef 3d
       0.30890626 -0.07659846 0.049575664 0.1171264
000070 c3 4e aa 3d 09 29 71 3e 80 7e 54 3d 6c e4 63 be
       0.08315804 0.2355081 0.051878452 -0.22255105
000080 fc ef 06 3e 49 10 6a 3d 0f 13 a2 3e b6 97 9e 3e
       0.13177484 0.057144437 0.31655166 0.3097512
000090 8a bf 07 3d f8 4a b1 3e e7 94 90 3d 0f ff 18 be
       0.03314165 0.3462751 0.07059651 -0.14941047
0000a0 d3 75 d8 3e 2e 09 6c 3c b3 99 7f 3e 75 6e db 3d
       0.42277393 0.0144064855 0.24960975 0.107144274
0000b0 aa e0 de b9 04 4e 04 be 7e 45 15 3e 32 ba 66 3e
       -0.00042510527 -0.12920386 0.1457729 0.22531965
0000c0 37 4d b4 3e a2 6f d7 3d 2d e0 b3 3d 77 2c 45 3e
       0.3521516 0.10519339 0.087829925 0.19255243
0000d0 ed 6b f8 3d f8 e6 c9 3e f2 73 2b bd cc 08 5f 3c
       0.1212996 0.39434028 -0.04185862 0.013612937
0000e0 60 c3 e0 3e 90 ed f3 3d d0 ca 19 bd c7 14 5a 3e
       0.4389906 0.11910546 -0.037546933 0.21296988
0000f0 22 9a c9 3d 46 8d b8 3d 09 16 2b bd 75 74 99 3e
       0.098438516 0.09011321 -0.04176906 0.29971662

conv1.lin_l.weight f4 [64, 2]
000000 be 2d d3 bd 4d f3 7b 3e d3 84 05 3e 07 9a 79 be
       -0.10311459 0.2460453 0.1303895 -0.24375163
000010 a1 69 d4 3d a9 32 0e bd ab 06 e3 be e6 8a e4 be
       0.103717096 -0.034716282 -0.44341025 -0.4463722
000020 51 16 1c 3f 3c 17 1d 3f f0 bb b3 3e d8 3d 69 3e
       0.6097155 0.6136358 0.35104322 0.22777498
000030 8d 90 1a 3e 9b 1a fb bc 1a 56 8e be 8d 6b c0 3e
       0.15094204 -0.030652335 -0.27800065 0.37582055
000040 35 fb ca be 97 c9 88 be 61 38 65 be 73 8c cf 3e
       -0.3964478 -0.267163 -0.22384788 0.40536842
000050 49 e5 99 bd 8d 08 e1 be 8c 54 a4 be da 58 1e 3e
       -0.07514436 -0.43951836 -0.32095754 0.15463582
000060 a2 86 bd be aa 87 95 be e6 4e a4 3b 0e 80 82 be
       -0.3701678 -0.29205066 0.0050142882 -0.25488323
000070 ec 0b 91 3e f6 b9 d4 3e 61 89 8c 3e 9d 8b 99 3e
       0.28329408 0.41548127 0.27448562 0.2998933
000080 17 94 88 3e 96 e9 08 3e 09 67 11 bd 5a bb 33 3e
       0.26675484 0.13370356 -0.035498653 0.17551938
000090 90 84 c0 3e c4 73 bb 3e 00 22 13 bd a6 ce 22 3e
       0.37601137 0.3661176 -0.035921097 0.15899143
0000a0 81 ff a3 be 03 ac da be 04 ca 53 3e 30 25 5b 3e
       -0.32030872 -0.4270936 0.20682532 0.21400905
0000b0 03 e9 92 3e 16 9e 26 3e 0f ad 89 be a0 86 95 be
       0.286934 0.16271242 -0.26889846 -0.29204273
0000c0 a4 d9 b6 bd 96 ae a8 3d 36 79 92 3b 4b 1b cc be
       -0.089282304 0.082364246 0.004470016 -0.39864573
0000d0 6f 4a 8a 3c 66 08 d8 be 5e 62 f1 be f8 83 89 be
       0.016881196 -0.42193907 -0.4714536 -0.26858497
0000e0 35 e3 d6 3e e9 9b 6b be a4 d9 b0 3e 02 63 5d 3e
       0.4197022 -0.23008694 0.34541047 0.216198
0000f0 01 09 05 3d f3 93 bd 3e 8c d2 24 be 3b 5e bc 3d
       0.03247929 0.3702694 -0.16095942 0.091976605
000100 51 26 29 3f e3 09 fb be ac f7 4b 3f 6d d8 16 3f
       0.6607409 -0.4903098 0.7967479 0.5892399
000110 53 6e 85 3e 12 34 a0 3b 61 5f 96 bd 4f 27 b1 b9
       0.26060733 0.0048890198 -0.07342411 -0.00033789358
000120 ea 4e 27 3f eb 66 78 3f 19 99 0a bc 1d 40 ec 3c
       0.6535479 0.9703204 -0.008459353 0.028839165
000130 f2 56 e8 be 1e bb 3f 3f 86 17 32 3e 0c 69 ce 3e
       -0.45378834 0.74894893 0.17391786 0.4031452
000140 48 e1 8a be cd df b8 3e aa f0 01 be fd d8 ec 3d
       -0.27125 0.36108246 -0.12689462 0.11564825
000150 32 4f 2c 3f 1c 39 28 3e 9c b7 e4 3e e6 da 07 3f
       0.6730834 0.16428035 0.44671333 0.5306839
000160 b8 ce 2e bb fe 08 b5 be 88 90 ab be c3 f1 89 3d
       -0.0026673507 -0.35358423 -0.33508706 0.067355655
000170 27 12 85 be 90 65 8b 3e c8 c8 3f be 93 95 e3 bc
       -0.25990412 0.27225924 -0.18728936 -0.027781283
000180 78 7e 0f 3e 9c 94 4c 3e 7c 90 15 3e 47 33 a7 3e
       0.14013088 0.19978565 0.14605898 0.3265631
000190 9c d1 05 3f 74 c4 04 3f 17 2f bd bc ec fb 63 3d
       0.52272964 0.51862264 -0.023093743 0.055660173
0001a0 48 e6 a2 be 71 ff c0 be 3c d1 ae 3b a7 8b 20 3e
       -0.31816316 -0.37694886 0.0053350013 0.15678273
0001b0 9d 2d 0f bf 38 ad 12 bf 94 5d da be d8 cf f3 be
       -0.55928975 -0.5729556 -0.4264952 -0.4761951
0001c0 02 98 87 be 73 ee ae 3e 70 e1 0b 3f 8c d8 14 bf
       -0.2648316 0.34166297 0.54640865 -0.58142924
0001d0 e7 fe 08 3e 00 e3 84 3e 52 b3 b7 be c7 a5 d5 be
       0.13378488 0.25954437 -0.35878998 -0.4172804
0001e0 ca 4d 11 3f 32 e5 f5 be 76 ef ee 3e 0b 59 d9 3e
       0.5675932 -0.48026425 0.4666707 0.42450747
0001f0 5b 82 b0 be fd f5 c8 be fc 24 52 be b8 92 7e 3e
       -0.34474453 -0.39250174 -0.20521921 0.24860656

conv1.lin_l.bias f4 [64]
000000 92 0d 59 3d f2 70 54 3e 84 ee 81 3e 29 19 1e 3f
       0.052991457 0.2074621 0.25377285 0.6175714
000010 71 bd c8 be d3 5c 80 3c ed 0a be bd af ef 90 be
       -0.39207032 0.015669262 -0.09279428 -0.28307864
000020 dd 7a 9f 3d 09 12 98 be 32 cd f2 3e b7 a6 b7 3d
       0.07787106 -0.2970126 0.47422177 0.08967345
000030 cb 38 cd bd b5 4b a6 3e af 74 f9 be 8c b9 55 be
       -0.10020598 0.32479635 -0.48721835 -0.20871562
000040 e1 67 fc bc 95 0e 89 be ce 68 96 be 13 36 31 3c
       -0.030811252 -0.26768938 -0.29376835 0.010816115
000050 57 cb 01 3f f4 39 0b 3f 54 0c b5 3e 45 7a bc bd
       0.50700897 0.54385304 0.35360968 -0.092030086
000060 c0 62 1d be 5b cb 0a 3f 3f 80 98 3e 07 3b 04 3e
       -0.15369701 0.54216546 0.29785344 0.12913142
000070 24 25 37 3e d2 63 aa be b5 4d 3c be 09 8f ea 3e
       0.17885262 -0.33279282 -0.18389018 0.45812252
000080 c1 65 9f bc 82 8c b1 3c 05 30 8a be 00 43 b7 bd
       -0.0194577 0.021673445 -0.2698976 -0.08948326
000090 fc 36 99 3c d9 c0 bd bd 86 ac f8 bc 4e ac 0d 3e
       0.018702976 -0.092652984 -0.030355703 0.1383526
0000a0 df 2b b6 be 07 d0 65 3e 1e 22 7e be 49 09 7a be
       -0.35580346 0.22442637 -0.24817702 -0.24417605
0000b0 eb 5c 8a 3e 17 0c de 3e f7 2f 3e bd 7f 1d 85 bd
       0.27024016 0.433686 -0.04643246 -0.064997666
0000c0 ec e0 a4 be 94 fa 84 be c3 88 00 bf 72 54 28 3d
       -0.32202852 -0.25972426 -0.5020868 0.04109616
0000d0 29 fb 87 3e 89 48 89 be 3e 32 13 3f b8 66 e8 3e
       0.26558807 -0.26813152 0.5749854 0.45390868
0000e0 b8 5a b8 be 17 c9 4a be 49 2f 36 3e ce 42 5b 3d
       -0.36006713 -0.19803272 0.17791475 0.053530507
0000f0 c8 e2 8e 3b 4e 3e 77 be 1b 31 09 3f 05 b1 c3 bd
       0.0043605305 -0.24144861 0.53590554 -0.09555248

conv1.lin_r.weight f4 [64, 2]
000000 24 eb 7f 3e 64 25 94 3c 01 be 83 3e 78 3b f0 3e
       0.24992043 0.018084235 0.257309 0.4692037
000010 88 ff 24 bd 6f c3 32 be f4 90 a7 be af a9 ba 3e
       -0.040282756 -0.17457364 -0.32727778 0.36457583
000020 f9 c8 32 bf 0b 0a 2e 3f 73 82 c9 be 13 6d dd 3e
       -0.6983791 0.67984074 -0.39357337 0.4324728
000030 16 1a d9 3d d2 48 7a 3c 1b 08 19 3c ee f4 8a 3d
       0.106006786 0.015276151 0.009340311 0.06784998
000040 2f bb 2a 3e c9 40 74 be b1 ac d7 bc 51 fe 09 3e
       0.16672967 -0.23852839 -0.026327463 0.1347592
000050 32 4e 1a 3f 31 df 1c 3f 6b 46 60 be 6e e0 6b 3e
       0.60275567 0.61278063 -0.21901862 0.23034832
000060 14 3e 1f 3e 91 d4 f3 3d f4 64 df be 24 bb c9 be
       0.15551025 0.11905778 -0.4363171 -0.3940059
000070 47 4c 29 be dd 4f be be fc 8b 93 be af 24 37 3e
       -0.16533004 -0.37170306 -0.28817737 0.17885087
000080 27 83 c1 3e 27 ec c1 3e e3 1a 85 be a6 5f d2 bd
       0.37795374 0.37875482 -0.25997075 -0.1027215
000090 28 34 95 be 29 0d ed bd bb 20 bd 3d 37 5e 9b 3e
       -0.29141355 -0.11574776 0.092347585 0.30345318
0000a0 3b 81 49 be 65 19 0f 3f ba 96 6d 3d bf c8 50 3e
       -0.19678204 0.55898124 0.058005072 0.20389079
0000b0 68 58 97 3e 62 55 aa 3e 91 de f6 be 1e 29 25 3f
       0.29559636 0.33268267 -0.4821668 0.64515865
0000c0 63 8c 39 3e 32 19 0e be b4 07 15 be 0e 77 80 be
       0.1811996 -0.13876799 -0.1455372 -0.25090832
0000d0 58 e2 24 3e 4e 6b 04 bd ce a7 0b 3f e7 a9 8e 3d
       0.16101968 -0.032328896 0.54552925 0.06966
0000e0 8c 27 8e be 7a 75 bb 3d ba 1f ca bc cd 9c 0c 3e
       -0.27764547 0.09153266 -0.024673332 0.1373169
0000f0 16 dd 40 3f 71 b6 0f be 2f c3 8b 3e de cb 82 3e
       0.7533735 -0.1403444 0.2729735 0.25546163
000100 69 ad e6 3d 33 09 21 b9 54 ff d5 bd ab ed e0 bd
       0.11263544 -0.00015357583 -0.104490906 -0.109828316
000110 6c 29 ca bc de 8e b3 3c 78 31 16 bd 05 a6 50 3d
       -0.024677955 0.02191871 -0.03666827 0.05093958
000120 24 b0 39 be 3a c4 82 bc 36 ec 48 3d ea ef 99 be
       -0.18133599 -0.015962709 0.049053393 -0.30065852
000130 91 ad 1f bf 78 c0 4d bf 41 b3 09 3e ad b0 d0 be
       -0.62374216 -0.8037181 0.13447286 -0.40759793
000140 57 73 cc bd f5 b4 3c 3f b5 dd 26 3e 57 98 7f 3e
       -0.09982937 0.7371362 0.16295512 0.24960457
000150 f2 0d a3 be 01 92 8a bd a3 ec 5e bd 32 9d 51 3f
       -0.31846577 -0.06766129 -0.054424893 0.81880486
000160 70 ee 91 3d cd 6d ce bc 58 8e 05 3e 8b c6 93 3e
       0.071255565 -0.025198841 0.13042581 0.28862414
000170 30 65 1e 3d 45 64 39 3d aa ef 38 3e 8f 99 53 be
       0.03867072 0.04526164 0.18060175 -0.20664047
000180 06 aa 1e 3e ba 88 0d 3e 1f 15 3f bc 31 43 9d bb
       0.15494546 0.13821688 -0.0116627505 -0.0047992696
000190 9e 97 eb be 8a 17 0f 3f 15 95 d2 3e 45 db 1f be
       -0.46014112 0.5589529 0.41129366 -0.15610988
0001a0 c2 2d 43 bb ca fd 17 3e 58 18 56 be 37 c5 96 3e
       -0.0029781912 0.14842907 -0.20907724 0.29447338
0001b0 33 b8 d9 bd ce 31 8f be 8b 1b 5d 3e 75 ba ea be
       -0.10630836 -0.27967685 0.21592538 -0.4584538
0001c0 17 bd 81 be e3 20 85 3f 1a c0 9d 3e d3 ce 2b 3f
       -0.25339577 1.0400661 0.30810624 0.67112464
0001d0 1d 4c 9e bd 35 76 5e 3f d9 73 bf 3e 42 93 4d 3f
       -0.07729361 0.8689912 0.37393072 0.8030282
0001e0 fa 35 ed 3d 2f 57 19 3f bc b0 31 be 9a 2b 8d be
       0.11582561 0.59898657 -0.17352575 -0.27572328
0001f0 a4 49 d2 be eb 98 95 3d 9e a8 03 3d d9 21 20 bd
       -0.41071808 0.073045574 0.032143228 -0.03909478

conv1.lin_r.bias f4 [64]
000000 10 7d 0b 3e 89 75 8b be f0 05 68 3e d7 39 ca 3e
       0.13621926 -0.2723811 0.22658515 0.39497253
000010 c8 6a 4c bf 07 28 48 bf 9e 3d c3 3e c2 16 41 3e
       -0.79850435 -0.78186077 0.38132948 0.18856338
000020 f2 d0 b7 be 55 3d 32 3f 61 66 a4 be 03 83 f3 3e
       -0.359016 0.69624835 -0.3210936 0.47560892
000030 20 f2 53 3e 66 03 93 be ad bb a4 3e be fc 39 bf
       0.20697832 -0.2871353 0.32174435 -0.7265128
000040 6d 6a 40 bf a3 13 f9 bd 83 0d 5a bf 7e b3 31 3f
       -0.7516239 -0.121619485 -0.8517687 0.6941451
000050 1d 6d 89 3e f4 26 96 3e 36 a7 11 bf 9a 2a 2f 3f
       0.2684106 0.29326594 -0.5689577 0.6842438
000060 55 7d 5e be c9 08 10 bf b8 3f 78 bd 30 f0 12 3c
       -0.21727498 -0.56263405 -0.060607642 0.008968398
000070 78 90 21 3f b1 e1 dc be 5f d7 a8 be cc 55 12 3e
       0.63111067 -0.4314094 -0.32976815 0.14290541
000080 98 a1 f0 3e 20 3d 28 3e d2 ab ad 3e 08 08 de be
       0.46998286 0.16429567 0.3392015 -0.43365502
000090 85 1d 64 3e 17 65 c9 3e 83 b8 cb bd 06 37 94 3e
       0.22276886 0.39334938 -0.09947302 0.2894823
0000a0 c7 2b 21 bd 35 fd 20 3f 21 41 9f be 45 b8 1a bf
       -0.03934839 0.62886363 -0.31104377 -0.60437423
0000b0 39 a4 a2 be 41 d5 59 3e f0 c5 34 3f 24 32 e0 be
       -0.31765917 0.21272756 0.7061453 -0.43788254
0000c0 fe 5c 7c bd f5 82 c4 be a6 97 f1 3e 66 c2 06 3e
       -0.06161212 -0.38381162 0.4718601 0.13160095
0000d0 7e 75 1f bf f3 6c c8 be b8 84 c5 be c6 43 55 3e
       -0.62288654 -0.39145622 -0.3857782 0.20826635
0000e0 14 10 e1 be 88 28 34 3e 7a 71 13 be 3e c9 fa be
       -0.4395758 0.17593586 -0.14398757 -0.4898166
0000f0 30 6f b9 bc 63 df 1c bf 24 16 3f bd a7 f2 22 bf
       -0.022636026 -0.6127836 -0.046651974 -0.6365151

conv1.lin_edge.weight f4 [64, 1]
000000 52 7e fe 3d 32 d2 6d 3d 42 96 ed 3d db 33 8d bd
       0.124264374 0.058061786 0.11600925 -0.06894656
000010 8f 6e fb bd 06 0b 9f 3e d2 74 8d 3c e4 f3 78 be
       -0.12276947 0.31063098 0.017267618 -0.24311787
000020 91 4a e4 be 28 2a 82 3e 78 21 89 be 01 81 ed bb
       -0.4458814 0.25422788 -0.26783347 -0.0072480445
000030 ed 6a 93 3d ba d5 af 3e 6b 6e 04 3e c9 bf 8f 3e
       0.07198129 0.34342748 0.12932746 0.28076008
000040 85 f9 1b 3d 7f aa 65 bf 59 80 9c 3e fe da ae 3e
       0.038079757 -0.8971328 0.30566671 0.34151453
000050 ac e1 85 be a3 62 7e 3f 6e 7f 76 3f d8 68 4e bd
       -0.26148736 0.9936926 0.9628819 -0.050392956
000060 bf 40 51 bd 55 a2 94 be 88 73 84 3e 60 f6 98 3d
       -0.051087137 -0.290301 0.25869393 0.07468867
000070 4b f6 b0 3b cb 6a 16 be 48 f0 2b bd 5f 67 09 be
       0.005400454 -0.14689176 -0.041977197 -0.13418339
000080 b2 09 88 3f cf 8b 67 3f 78 b7 88 3f 69 d2 20 3f
       1.0627959 0.90447706 1.068099 0.6282106
000090 fc 37 7b 3f c9 8b 80 3f 54 06 6a 3f 2a 65 84 3f
       0.981323 1.0042659 0.91415906 1.0343373
0000a0 44 40 9a 3c 66 d4 87 3d 92 90 3f 3f 03 a0 c2 3d
       0.018829472 0.06632309 0.7482997 0.09503176
0000b0 dd 3f 3f bf d7 7d a8 be b2 b1 c6 be 11 20 a0 3e
       -0.7470682 -0.32908508 -0.38807446 0.31274465
0000c0 0a 21 f5 3d e6 1f b3 3d b6 b5 04 3e 8e b6 fa 3d
       0.11969192 0.087463185 0.12959942 0.12241851
0000d0 b3 eb b2 3d 47 19 80 3d 38 eb 1b 3d 36 03 37 3d
       0.08736362 0.06254821 0.03806612 0.044680797
0000e0 0f d0 8b 3f e8 ec a8 3d 80 19 4c bf 17 23 37 3f
       1.092287 0.08248311 -0.7972641 0.7153792
0000f0 2e b7 88 be 91 a5 39 3f a9 45 65 be 83 12 ac be
       -0.26702255 0.7251826 -0.22389854 -0.33607873

norm1.weight f4 [64]
000000 b5 04 38 3f 81 9e 27 3f 70 5e 1a 3f 0d b6 79 3f
       0.7188218 0.6547623 0.6030035 0.9754341
000010 57 c3 c2 3f fd d5 59 3f 8d 22 14 3f af e8 83 3f
       1.5215863 0.85092145 0.5786522 1.0305384
000020 64 17 ba 3f 50 c6 93 3f eb 89 69 3f 4e fc 1f 3f
       1.4538388 1.1544895 0.9122607 0.6249436
000030 b6 0e bb 3f 32 9a 2b 3f e5 8b b4 3f 91 26 90 3f
       1.4613864 0.6703216 1.4105192 1.126177
000040 06 55 4c 3f cf 11 76 3f c6 a2 89 3f 16 40 12 3f
       0.79817235 0.96120924 1.07528 0.5712904
000050 a6 90 6e 3f 84 64 56 3f 9c dc 35 3f 77 ea 8d 3f
       0.93189466 0.83747125 0.7103975 1.1087178
000060 0f 78 19 3f 73 74 44 3f f3 a0 77 3f 3f 2c b1 3f
       0.5994882 0.7674019 0.96729964 1.3841628
000070 0a d5 81 3f 9e 37 80 3f 5b 90 8d 3f e5 ae 1d 3f
       1.0143139 1.0016973 1.1059679 0.6159499
000080 79 24 c7 3f 91 a5 c3 3f 03 83 bf 3f 8b 00 32 3f
       1.5558006 1.5284902 1.4961857 0.6953208
000090 b7 99 ab 3f 77 99 36 3f 49 31 c7 3f a2 64 57 3f
       1.3406285 0.7132792 1.5561916 0.8413793
0000a0 9c e6 44 3f 10 c1 14 3f 7d fa af 3f ff c1 13 40
       0.7691438 0.5810709 1.3748318 2.3087156
0000b0 58 09 3a 3f 41 ba 34 3f 5e eb 89 3f 50 82 58 3f
       0.7267051 0.705967 1.0774953 0.8457384
0000c0 cd 8c 24 3f 4d 71 8a 3f 72 b0 cc 3f c3 09 0d 3f
       0.64277345 1.0815827 1.5991347 0.5509302
0000d0 f8 0b 9e 3f 44 d7 3a 3f c9 fe 8b 3f 8a 9d 90 3f
       1.2347403 0.7298472 1.0937129 1.1298077
0000e0 4f b1 aa 3f db 7b c5 3f 1a f2 2d 3f b7 b9 8c 3f
       1.333536 1.5428423 0.6794754 1.0994176
0000f0 06 3c b4 3f b6 99 c1 3f f0 7f 49 3f 13 f0 27 3f
       1.4080818 1.5125034 0.7871084 0.656007

norm1.bias f4 [64]
000000 cc 01 18 be 8e 1d 72 be b8 0f a0 be 39 9d 00 be
       -0.14844435 -0.23644087 -0.31261992 -0.12559976
000010 ae 24 05 3e dc 2c 6c be fe 8e 5c be fa 5e 55 be
       0.13002273 -0.23063987 -0.21538922 -0.20837012
000020 ea b2 d0 3d 1b b2 9c bd d9 11 46 be 4a 07 30 be
       0.10190375 -0.076511584 -0.19342746 -0.1719028
000030 9a 57 ca 3e 22 bb 94 be 2c d4 e3 3c bd 93 89 bd
       0.3951996 -0.2904902 0.027811132 -0.06717632
000040 3c fb 66 bc b5 99 0c be 53 34 da 3c 4c 13 92 be
       -0.014097985 -0.1373051 0.026636278 -0.28530347
000050 8b 99 30 be 5c a6 8a be 4e 06 9d be f8 2c 2f 3e
       -0.17246072 -0.27080047 -0.30668873 0.17106998
000060 01 3c 90 be e6 3c 89 be 41 a9 0c be 41 26 9f 3d
       -0.2817078 -0.26804274 -0.1373644 0.07770968
000070 7b 70 f8 bd f1 4b 97 bd 5f 48 19 be da 6e c5 be
       -0.12130829 -0.073875315 -0.14969014 -0.38561136
000080 6d b0 25 3d 4d 01 ce 3d 71 0e 36 3e 3a fe 7d be
       0.040451456 0.10058842 0.17778946 -0.24804011
000090 9f 95 93 3d da 4d 87 be be fa c5 3c 73 d5 28 be
       0.07206272 -0.26426584 0.024167415 -0.16487674
0000a0 9f 79 5e be 01 2c 93 be 49 81 0f 3d 88 c7 4c bd
       -0.21726082 -0.2874451 0.035035405 -0.049994975
0000b0 01 4d f3 bd 41 c9 8c be ef 4b 52 be 52 cb 30 bd
       -0.11879922 -0.27497295 -0.20536779 -0.04316265
0000c0 13 c7 52 be 0d cb 4f be 56 64 c5 bd fa ad c4 be
       -0.20583753 -0.20292301 -0.09638278 -0.38413984
0000d0 5f 78 49 3d 7e 29 66 be fd 8a c9 bd 56 29 52 bd
       0.04918706 -0.22476766 -0.09840963 -0.051308952
0000e0 0b 69 80 3d a9 59 b5 3d 70 ea 81 be a3 44 a5 3d
       0.06270035 0.08854992 -0.25374174 0.08069732
0000f0 6f a3 ad 3d 62 54 25 3b 00 21 71 be 5b 1d b2 be
       0.08478438 0.0025227298 -0.23547745 -0.3478802

conv2.att f4 [1, 8, 8]
000000 ec b6 c5 3f a9 b2 2a bf 73 4a 7f bf 78 f0 84 bf
       1.5446448 -0.66678864 -0.99722975 -1.0385885
000010 f2 4d bc 3f 56 5b 91 bf c8 b8 80 bf ff f1 d2 3e
       1.4711287 -1.1355999 -1.0056391 0.41200253
000020 f0 ec 2a 3e 63 d8 8b 3e bb 64 b9 3f bd 89 d6 3e
       0.16691947 0.27313527 1.4483865 0.4190196
000030 32 ef ab be 22 21 d2 bd 70 06 7f bf 84 73 57 bf
       -0.3358093 -0.10260226 -0.996192 -0.8416064
000040 be 72 b1 3e ac 5c c6 be 6a c8 3f 3e 53 8d 0d bf
       0.34657854 -0.38742578 0.18728796 -0.5529377
000050 99 c9 99 3f 52 82 03 3f a7 a6 af 3d e8 6c b2 bd
       1.2014648 0.5137073 0.08576708 -0.087121785
000060 c4 35 90 3f 65 4e 7b bf f9 88 ac 3f 68 de d0 3f
       1.1266408 -0.98166496 1.3479301 1.6317873
000070 89 cf 47 3f 1d 1b 5c bf fd 24 a7 3f 10 db 8a 3f
       0.7805105 -0.8597887 1.3058163 1.0848103
000080 d6 12 88 3d 89 99 7e 3f 07 69 60 3f 5a 92 8e 3f
       0.06644218 0.99453026 0.8766026 1.1138413
000090 29 80 65 3f 07 2b 8c bf 81 de 30 3f f7 43 34 bf
       0.8964868 -1.0950631 0.69089514 -0.70416206
0000a0 48 ee 79 3e 9d eb 1b bf 3f 21 05 3f c8 11 0f 3f
       0.24407303 -0.6090639 0.52003855 0.5588651
0000b0 31 26 9a 3e d0 0c 25 bf c6 31 3c 3d eb d7 bc be
       0.30107263 -0.64472675 0.045945905 -0.36883482
0000c0 aa de 23 3f 32 d0 8a bf 17 90 53 3f 95 ad d8 3f
       0.64011633 -1.0844786 0.8264174 1.6927973
0000d0 6b d0 c4 be bd 88 18 bf 34 cf 43 bf 06 8f f0 3d
       -0.3844026 -0.59583646 -0.7648804 0.117460296
0000e0 68 06 f3 bb e6 cf 2b 3f 9f 7c 99 3e e4 2a e4 bd
       -0.007416535 0.671141 0.2997789 -0.11140993
0000f0 98 87 ba 3d 55 28 4c 3e bf a7 a8 3e 41 20 9a 3e
       0.09107894 0.1993726 0.3294048 0.30102733

conv2.bias f4 [64]
000000 d4 7f dc 3d 29 39 31 3e 0f 81 40 3d 54 2d 01 3e
       0.10766569 0.17306961 0.04699808 0.12614948
000010 52 3e 34 bd 70 f2 06 3e d3 53 06 3e 32 bb 8c 3d
       -0.044004746 0.1317842 0.13117914 0.06871642
000020 86 c6 3b 3d dc 8f 1d 3e 39 dd d9 bd c8 68 52 3b
       0.045843624 0.15386909 -0.10637898 0.0032105912
000030 41 e4 25 3d df db 38 3e 3e 16 a5 3d f3 b7 52 3d
       0.040500883 0.18052624 0.08060883 0.05144496
000040 21 0c 4e 3d 7a 1d 4a 3c 14 3e b4 bc db 62 ca 3d
       0.050304536 0.012336129 -0.022002257 0.098821364
000050 44 06 a6 3d 5d c8 e9 3d 1c 32 73 3d 5d 4f 13 3d
       0.08106664 0.114151694 0.05937396 0.03596436
000060 f3 0c 96 3d 2d 93 2b 3e 0a 3f 28 3d fa c9 1d 3d
       0.073266886 0.16755362 0.041075744 0.038522698
000070 61 dd 56 bd 43 5e a9 3c d7 c5 ea bc 07 ad 07 bd
       -0.052457217 0.02067483 -0.02865879 -0.033123996
000080 2d 79 53 3d b6 e1 c3 bd 19 e6 2d 3d 57 48 a1 bd
       0.051629234 -0.09564535 0.042455766 -0.07875126
000090 bd 2f 6f bd 5c 4f a0 3d 1d e3 51 3d 02 15 f9 3d
       -0.058395136 0.078276366 0.051241983 0.1216221
0000a0 61 7b 47 bd ad a6 b9 bc 48 25 b2 bd 01 bd 0b 3e
       -0.048701648 -0.022662485 -0.08698517 0.13646318
0000b0 bb 46 5e bc fc ed 04 3e 6c 83 9a bd 6f 5c 98 bd
       -0.013566668 0.12981409 -0.07544598 -0.07439505
0000c0 31 70 78 bb 76 68 97 bc 31 a0 af bd 5e 4b be 3d
       -0.0037908668 -0.018482428 -0.08575476 0.09291719
0000d0 60 81 14 bd e4 b7 a0 3d b7 fc 21 3e 2b 2a f5 bc
       -0.036256194 0.07847574 0.1581906 -0.029927334
0000e0 93 99 a7 3d 8f a0 41 bd ad c9 10 3e 30 c4 dc bc
       0.08183589 -0.04727226 0.14139433 -0.026949018
0000f0 9f c3 03 3e 43 7f 27 3d 27 a7 ac 3c 20 aa b4 3d
       0.12867592 0.04089285 0.021075798 0.08821511

conv2.lin_l.weight f4 [64, 64]
000000 8a a7 a1 3e 10 63 2f 3e f7 48 65 3d e8 a9 81 3e
       0.31573135 0.17127633 0.055977788 0.2532494
000010 8e ff f6 be 6d 4f 6e 3e 77 55 81 ba 5b 8d ba 3d
       -0.48241848 0.23272486 -0.000986739 0.09108993
000020 d8 b9 03 be 1d 6e 8b 3d a1 46 09 3d 8b d3 57 3e
       -0.12863863 0.06808112 0.033514623 0.21076791
000030 07 db 13 3f 80 71 a5 3d 60 05 50 be 97 06 e7 be
       0.57756084 0.08078289 -0.2031455 -0.45122215
000040 0f 47 7e 3e 4d a8 60 3e 90 db 88 3e c0 aa a9 3d
       0.24831794 0.21939202 0.26730013 0.08284521
000050 b9 96 85 bd 22 72 90 3e b5 10 95 3e 46 d2 f4 3d
       -0.06522889 0.28212076 0.2911431 0.11954169
000060 d2 ab 66 3d 66 28 c8 3d 10 94 0e 3e d3 d0 21 be
       0.056316204 0.097733304 0.13923669 -0.15802316
000070 f7 a4 1e be 4a 6d 92 be 30 e5 82 bc 3d 50 45 3e
       -0.15492617 -0.28599006 -0.015978426 0.1926889
000080 05 c7 6b 3e 33 00 26 be 5a 90 c6 be 4e 9e e1 3d
       0.23025139 -0.16211013 -0.38782007 0.11016522
000090 01 ac 8f bd 59 3d 95 bc 97 7d dc 3e 1e d1 fc 3c
       -0.07015229 -0.01821773 0.43064567 0.030861434
0000a0 85 ca fb bc e7 5d b2 bc ca f5 89 be 67 ae 6d be
       -0.030736217 -0.021773292 -0.26945335 -0.2321106
0000b0 3a c6 a5 3e cb 10 88 3d c5 1a e1 bc db dc 5e 3b
       0.32377797 0.06643828 -0.027478585 0.0034006152
0000c0 3f 70 2e 3e c1 60 99 3e 1c 66 27 bc 37 35 27 3d
       0.17035006 0.2995663 -0.010217216 0.040822234
0000d0 fa 2a 05 be 6a 49 aa 3e da 57 d9 bd e8 b7 c2 bd
       -0.13004676 0.33259135 -0.106124595 -0.095077336
0000e0 05 52 05 3e 9a 26 5a 3e a4 c2 3c bd db e0 d3 be
       0.13019569 0.21303788 -0.04608406 -0.4138249
0000f0 8c c7 17 3f 11 26 e3 be 19 78 ea bd bb d9 b0 bd
       0.5928886 -0.4436498 -0.11448688 -0.08635279
000100 6c 54 a2 bd c5 12 b9 3d 01 30 59 3b 48 b7 d7 3e
       -0.079262584 0.09036783 0.0033140185 0.4213202
000110 fd 41 0a 3d 32 99 06 3e 35 01 23 3e 21 0c a3 be
       0.033754338 0.13144377 0.15918429 -0.3184519
000120 34 48 3b bf cd 3f 20 bf 2b 39 45 3e 0b f2 f0 bc
       -0.7315705 -0.6259735 0.19260089 -0.02941229
000130 8d 9f 81 bf d4 42 86 3e a7 9d 2a 3e 41 e2 12 3e
       -1.0126816 0.2622286 0.16661702 0.14344122
000140 83 21 e1 3c 95 43 0b be 2f fe 25 be 27 71 6b be
       0.0274818 -0.13599999 -0.16210245 -0.22992383
000150 0e 47 31 3d 8d 7e c9 3d 27 ca 41 bd 98 23 42 bf
       0.043280654 0.09838591 -0.047311928 -0.7583556
000160 50 2f 84 be 9b c9 80 3e c6 1e 93 bd 7d b0 de be
       -0.25817347 0.25153813 -0.07183604 -0.43494025
000170 f9 f4 e4 3d e7 1a 88 3e d6 fc 76 bd 9f 02 81 3e
       0.11179537 0.26583025 -0.060299717 0.25197312
000180 a1 c6 d9 be 66 19 0e bd 01 0c 9d bd 09 b1 8a be
       -0.42534354 -0.03469219 -0.07668305 -0.27088192
000190 1d 88 c4 bd ef 72 f1 bd 6d 39 c2 3e 40 66 18 3e
       -0.09596274 -0.117895 0.37934437 0.14882755
0001a0 9b 33 0a 3e 41 d1 2e 3c 90 ef 6f 3d 76 c6 5a 3f
       0.13496248 0.010670007 0.058578074 0.8545908
0001b0 97 42 25 3d ae 4a e1 bc 5d 2e 07 3e 44 2f 36 be
       0.04034671 -0.02750143 0.1320128 -0.17791468
0001c0 39 69 87 be 67 64 1a be 3e 4c 58 bd c8 5b 2c 3e
       -0.26447466 -0.15077363 -0.052807085 0.16831887
0001d0 d1 65 86 bd aa 84 37 3e 7d 7a de 3d ee 05 96 3e
       -0.06562389 0.17921701 0.108632065 0.293014
0001e0 71 16 46 be ae c8 a8 3d 04 cf 8c be 71 66 34 3d
       -0.19344498 0.082414016 -0.2750169 0.04404301
0001f0 cf d0 5c 3e 3b fa 7b 3e 01 66 41 3e 46 bf a7 bd
       0.21564029 0.24607174 0.18886568 -0.081907794
000200 bc 72 8e be 1b c8 81 3e d5 df 94 3c cc d7 ea 3d
       -0.2782191 0.2534798 0.018173138 0.11466941
000210 80 0a d8 3d c6 c3 64 be f8 45 49 3d 14 09 b9 be
       0.10548878 -0.22340307 0.049138993 -0.3613974
000220 95 ec 0e bd 0f 64 c1 be 42 61 a4 3e b4 35 89 3d
       -0.03489359 -0.3777165 0.32105452 0.06699696
000230 fe 07 c8 be a1 2e 40 3e bd eb e7 bd 5a 26 b8 3d
       -0.39068598 0.18767788 -0.113242604 0.0899169
000240 88 b0 99 be 0c 75 70 be 20 17 86 be 74 3a 9f 3c
       -0.30017495 -0.2348215 -0.26189518 0.019437052
000250 ab f9 ae 3e 27 ba 25 3c a3 16 46 be 91 01 a4 be
       0.34174857 0.010115183 -0.19344573 -0.32032445
000260 ba 17 67 3d 28 9f 9a 3e 86 83 71 3e 8e ad 20 3e
       0.05641911 0.30199552 0.23585328 0.15691206
000270 a9 03 3f 3e ea 3d 02 3e fb 44 0e bf 30 d1 bb 3d
       0.1865374 0.12718931 -0.55574006 0.09170759
000280 d3 32 97 3c 20 13 3d 3e a7 c1 ed bd 30 66 df 3d
       0.018456852 0.18464327 -0.11609202 0.109081626
000290 a0 c0 1b 3e ba c1 c6 bd 77 33 44 3d 45 ef 30 3e
       0.152102 -0.09704919 0.047900643 0.17278774
0002a0 c0 2b 82 be 91 10 09 be 60 7f fb 3c 89 95 2f be
       -0.25424004 -0.13385226 0.030700386 -0.17146887
0002b0 8c 2a 5b 3e 23 44 b2 3d b7 c5 31 bd 10 bb ce bd
       0.21402949 0.08704402 -0.043401446 -0.10094273
0002c0 2c c8 1d be fa bf 47 be c5 dc c3 be 5e 01 ed 3d
       -0.15408391 -0.19506827 -0.3825437 0.115725264
0002d0 52 da 93 3e 11 78 9a 3d 25 05 df 3d 77 73 92 3e
       0.28877503 0.07542432 0.10889653 0.28603718
0002e0 00 51 6e 3a ee a3 07 bf 08 04 74 be a0 fd 0b 3e
       0.00090910494 -0.5298451 -0.23829663 0.13670969
0002f0 3c da d0 be 30 95 19 be e0 59 b3 3d 0c d9 0b be
       -0.407915 -0.14998317 0.08757377 -0.13657016
000300 42 42 21 3b 4d 8f 21 3c 79 09 83 3e 12 4d 64 3e
       0.0024606143 0.009860826 0.25593165 0.22295025
000310 20 30 85 be b9 6a ce 3e 0c 43 85 3e 3d 8d bc 3d
       -0.2601328 0.40315798 0.26027715 0.092066266
000320 65 ef d5 bd 7e d8 83 3d f1 5a 83 3e 6d 02 f8 bc
       -0.104460515 0.06437777 0.2565532 -0.030274594
000330 e1 13 25 be db f5 73 bd 50 aa 3e 3f e4 5f 79 3e
       -0.16120864 -0.059560638 0.74478626 0.24352986
000340 83 a0 25 3e fe 99 a2 3e 60 8f 73 3e 56 00 01 3e
       0.16174512 0.31758112 0.23785162 0.12597784
000350 e2 f5 37 3e 4e 00 c2 3e ee cf 48 3e 13 5e be be
       0.1796489 0.37890857 0.19610569 -0.37181148
000360 b0 0d 8f 3d 70 48 96 3d 3b 7b 8c 3d 10 3f 4e bd
       0.069850326 0.07338035 0.06859442 -0.05035311
000370 1c 47 ea bd 37 42 d2 3e 04 df ad 3e f9 4e 7b 3e
       -0.11439344 0.41066143 0.3395921 0.24541844
000380 40 b3 3f bf 9f 02 1e bf 86 c8 32 be d0 ad 45 3e
       -0.7488289 -0.6172275 -0.17459306 0.19304585
000390 a9 6f 01 bf 03 18 e3 3d a1 cd 51 bf 2f 3f 8e be
       -0.50561005 0.11088564 -0.8195439 -0.2778258
0003a0 68 24 48 bb 95 78 6d 3e ad c5 4f 3d 8d c5 06 3f
       -0.0030539278 0.2319053 0.050725628 0.5264519
0003b0 11 bc 3b bd a0 1a 9e 3d 6b 46 c2 3e 22 e3 9d 3d
       -0.04583365 0.07719922 0.3794435 0.07709338
0003c0 0e 51 5d 3d cf 1e b0 3e 85 89 9c 3e 21 1e 08 3e
       0.054032378 0.34398505 0.3057367 0.13292743
0003d0 2d bb 70 be dc ef 3e 3e ef 5b 5d be e2 43 28 be
       -0.23508902 0.18646187 -0.21617101 -0.16432145
0003e0 cc 9f 9c 3d 87 89 18 be fa de 60 3e f7 19 8c 3d
       0.07647666 -0.14896213 0.21960059 0.0684089
0003f0 1c a5 1b 3d d8 1e 3d 3d a1 6b 37 3e c5 67 77 3d
       0.037999257 0.046171993 0.17912151 0.060401697

conv2.lin_l.bias f4 [64]
000000 de 0c a7 3d fa 22 2f 3e 39 3f 0d 3e 2e 6f 3e 3e
       0.08156751 0.17103186 0.13793649 0.18597099
000010 dd d0 be bd 9b df 2a 3e af 5e 12 3e 11 ce 06 3d
       -0.09317181 0.16686861 0.14293931 0.032911364
000020 17 e0 b2 3d 9d 3f 27 3d b1 6e 06 be e5 2f a5 3d
       0.08734148 0.04083215 -0.13128163 0.08065776
000030 20 88 24 3e 4b aa 61 3e 5b 76 4b 3c 64 03 c5 3d
       0.16067553 0.22037618 0.012418355 0.09619787
000040 ee 22 2c bd 5c 44 4b bd 18 aa e5 bd 98 9a 0c 3d
       -0.0420255 -0.04962574 -0.112140834 0.03432712
000050 97 b8 d5 3d c0 e3 0b 3e 0a 79 3d 3e a7 01 c0 3c
       0.10435598 0.13661098 0.18503204 0.023438288
000060 40 5f 4d 3e 1b d3 c9 3d ec 58 6e bc 5f 73 77 3d
       0.20055866 0.09854718 -0.014547568 0.06041276
000070 92 6c c1 3c 23 f2 e1 3d 8c 83 c0 3d b2 b7 85 bd
       0.02361134 0.11032512 0.094000906 -0.06529178
000080 68 dd 2d 3e 93 af 57 bd 65 47 aa 3d c9 de e0 bd
       0.16978991 -0.052657675 0.08314399 -0.10979993
000090 9e 41 e2 bd 33 05 36 3e 18 41 8f 3d 06 4c 55 3e
       -0.11047672 0.17775421 0.069948375 0.20829782
0000a0 a3 4a 60 3d 9d 49 ec bd 1c 0b f2 3c 13 cc 9e 3d
       0.05475868 -0.11537478 0.029546313 0.07753768
0000b0 ce cd d4 bd 4b 7c 71 3e 5e 05 c3 bd 6b f1 79 bd
       -0.10390817 0.2358257 -0.09522508 -0.06102125
0000c0 4f 99 2d 3d f0 37 8c bd 4d b0 cb bb 69 82 19 3e
       0.042382535 -0.06846607 -0.006216085 0.14991154
0000d0 5c ce 80 3d a5 4c 32 3d 14 e7 88 3d dc a5 ea bb
       0.0628936 0.043530125 0.066847 -0.0071608853
0000e0 f6 6b 41 3d 85 fe 6d bd ef 15 2e 3d 04 92 a7 3d
       0.0472221 -0.058104057 0.042501386 0.08182147
0000f0 12 3b 5f 3d 66 82 fd 3c 8f 79 e0 3c 4d 54 fc 3c
       0.054499693 0.030945968 0.027401714 0.030801916

conv2.lin_r.weight f4 [64, 64]
000000 2a 28 84 3e dd 04 b3 bd 50 1b 9d 3e 07 78 2c be
       0.25811893 -0.08741162 0.306849 -0.16842662
000010 1d 8c 21 3f c5 ff 54 3e 08 7a e7 3e 27 c1 0f bf
       0.6310442 0.20800693 0.4521029 -0.561541
000020 63 ce 1b be 99 fe 86 be 7b 71 40 be 8c 18 4b 3e
       -0.15215449 -0.26366118 -0.1879329 0.19833583
000030 63 cc d5 bd ed 32 8a 3d be c8 7f 3d 3d 87 3c 3e
       -0.10439374 0.067479946 0.062447302 0.18410964
000040 e5 55 47 3f 17 df 0c be f0 9e 7e 3e cd 70 01 be
       0.7786544 -0.13756977 0.24865317 -0.12640686
000050 3d f0 41 bd 7a 24 58 3e d6 14 9d 3d 04 cc da be
       -0.04734825 0.21107665 0.0766999 -0.42733777
000060 1e c0 c8 bc 41 86 7f 3e 23 e4 65 3e cc 34 f5 bc
       -0.024505671 0.24953558 0.22450309 -0.029932402
000070 3f f6 12 3f d7 b0 fa 3e 50 ab 94 3b 5c ab e8 3c
       0.5740699 0.48963043 0.0045370236 0.028402023
000080 d0 1f 44 3e f6 7b f7 bd bd 4b cb 3d 69 54 02 3e
       0.1915276 -0.120841905 0.09926555 0.12727512
000090 e6 12 ef bd a3 ec 47 be 20 da c5 be b7 49 92 be
       -0.116735265 -0.19523863 -0.3864298 -0.28571865
0000a0 ee 85 ea bd 2c e4 a8 3d 85 ae 0e 3e 73 0b 97 3d
       -0.11451326 0.08246645 0.13933761 0.07375231
0000b0 32 4c bd 3e 36 02 cb bd ae 2d a9 be 89 96 38 3d
       0.36972195 -0.09912531 -0.33042663 0.045065437
0000c0 12 55 c9 bd da 55 cf 3d 2c 73 b7 3e 43 7b 3f bc
       -0.09830679 0.10123797 0.35830057 -0.011687103
0000d0 a7 5d aa bb b7 86 b2 be 61 ed 18 3e 63 52 1a be
       -0.0051991525 -0.34868404 0.14934303 -0.1507049
0000e0 7d 7e a2 be 23 3a 8e 3e 18 fe 3a bd 37 ca 50 3c
       -0.31737128 0.2777873 -0.04565248 0.012743524
0000f0 35 19 b4 3e 86 9f fa 3e 5b b6 40 3e 3f 0a 1d bf
       0.3517548 0.48949832 0.18819563 -0.6134376
000100 d2 01 80 3d 3e 5e 16 3e 3f 80 84 3e 6b 3f 99 3e
       0.06250347 0.14684388 0.25879094 0.29931197
000110 c9 4e 6d bf 05 68 7a be 08 e4 05 bf f7 3f 16 be
       -0.9269834 -0.24453743 -0.52301073 -0.14672838
000120 12 0c 03 3e ed 69 ae 3d f4 87 8f 3c bf aa 26 bd
       0.12797573 0.085162975 0.017520882 -0.04069018
000130 ec ff 7d 3d af 0a a3 3e e5 af 1b be f2 51 1a bf
       0.062011644 0.31844088 -0.15203817 -0.6028129
000140 a0 78 44 be 14 5f 18 be cb 16 07 bf a7 0a d3 be
       -0.1918664 -0.1488002 -0.52769154 -0.41219065
000150 f8 af b7 3e 2d 7e ab bc fe 12 83 bd 6d c6 3f 3e
       0.3587644 -0.020934189 -0.06400107 0.18728037
000160 54 6c 2e bf 3a 1a 19 3e f7 6a e6 3e e5 77 a0 3b
       -0.68134046 0.14951411 0.45003483 0.004897105
000170 04 de db 3e 28 06 08 be 3d fc 10 3e f0 eb 33 bb
       0.42942822 -0.13283598 0.14158721 -0.0027453862
000180 27 fb 90 be 56 c1 e1 be a7 d0 cb be ec c3 d4 be
       -0.28316614 -0.44092816 -0.39807627 -0.41555727
000190 01 42 bd be e2 02 6b 3d d9 69 97 be 32 db 9b 3d
       -0.3696442 0.057375796 -0.29572943 0.076101676
0001a0 ab 99 68 be 46 68 ca bd fc 70 2c bf 96 ce ab 3d
       -0.2271487 -0.0988317 -0.673599 0.083890125
0001b0 94 74 a9 3c 4e 15 31 3d 32 da 4b 3e c8 2f 15 3e
       0.020685472 0.04323321 0.19907454 0.14569008
0001c0 e8 21 b1 bb 25 87 f6 bd 6c ed 0e bb e1 64 55 bf
       -0.0054056533 -0.120374955 -0.0021808995 -0.83357054
0001d0 24 e2 83 3e 6e 3a e8 be 1b ba 68 3e fe 78 25 3e
       0.2575847 -0.45357078 0.22727244 0.16159436
0001e0 05 33 ff 3c d4 d2 01 3d 0e 0b 97 bd 05 69 84 be
       0.031152258 0.031695202 -0.073751554 -0.25861374
0001f0 6b eb b6 3c 2a fd 23 bf 70 f2 df bd d0 ef ca bd
       0.022329053 -0.6405817 -0.10934913 -0.09909022
000200 c0 b9 d4 3e 27 7d 3d 3e f4 ea c8 3d bf bf b3 bd
       0.41547966 0.18504773 0.09810439 -0.08776807
000210 00 d0 61 bd 69 24 87 3e bb ce b4 3e 8e 5f 21 3d
       -0.055130005 0.26394966 0.35313973 0.03939777
000220 20 ea c2 ba b9 bf cd 3d 0a 65 3a 3d 84 11 99 3e
       -0.00148708 0.10046334 0.045506515 0.29896176
000230 95 da 39 be 7c e9 35 3e ba e7 8f 3e 91 45 b7 3c
       -0.18149789 0.17764848 0.2810648 0.022372039
000240 79 0a 56 3c ed 38 03 be b3 bf 2c 3e ce 84 a2 bc
       0.01306402 -0.12814684 0.16870002 -0.019838717
000250 30 bc 4d 3f 36 3f fd 3d cd e2 0d be 2d 0d 32 bd
       0.80365276 0.12365572 -0.13856049 -0.043469597
000260 4a 2f 24 3e 1e 73 6e be cd d4 80 3e 27 6b 39 3e
       0.16033664 -0.23286101 0.25162354 0.18107282
000270 f5 3c 46 3e 9f 6e 25 be 15 74 51 3e df c3 9a 3e
       0.19359191 -0.1615548 0.20454438 0.30227563
000280 c6 cc 19 bd b6 26 b5 3e 01 0a 07 3d f3 17 80 3d
       -0.037548803 0.35381097 0.032968525 0.06254568
000290 f7 d8 80 3d 30 95 0b bc db d8 1d 3e c5 7a 9f bd
       0.06291383 -0.008519456 0.15414755 -0.07787088
0002a0 65 01 12 be 6b b0 2d 3e 2f f6 89 3e 69 80 6c 3e
       -0.14258344 0.1696183 0.26945636 0.2309586
0002b0 71 e2 d1 3d f1 69 fa 3d 06 e6 a4 3e 96 7b 92 3e
       0.102482684 0.12227238 0.32206744 0.28609914
0002c0 7f 23 a7 3d 7a b8 78 3e 8f 72 f3 3e 3b a2 7c 3e
       0.08161067 0.24289122 0.4754834 0.24671261
0002d0 f2 f0 ea 3e 9f 37 95 3e fa a0 72 3e af 91 ac 3e
       0.45886952 0.29143998 0.2369422 0.33704898
0002e0 1b 79 14 bd e2 2d 04 3e 28 fd 21 3d 3a 2d 6d 3e
       -0.036248308 0.12908128 0.03954807 0.23161784
0002f0 ef 51 46 3d e0 79 83 3e c7 d7 59 be 46 10 08 bd
       0.04841798 0.2567892 -0.21273719 -0.033218645
000300 27 84 55 3e 14 b4 74 be d1 95 00 3d dd 6b 5f be
       0.20851193 -0.2389682 0.031392876 -0.2181849
000310 20 33 fc 3d cd 9a f8 bd ac 38 1f be f7 07 bd bb
       0.12314439 -0.12138901 -0.15548962 -0.0057687717
000320 15 f6 34 be 59 fb f2 be 23 1f 3f be 89 1a 9c 3e
       -0.17671998 -0.47457388 -0.18664221 0.30488995
000330 17 dd 56 be 03 6f 17 be 76 c8 3e bf c4 b4 32 be
       -0.20982777 -0.14788441 -0.7452463 -0.17451769
000340 f0 8c c3 bc 90 64 5e bd 92 a0 9d 3e c3 24 c3 bd
       -0.023870915 -0.054295123 0.30786568 -0.09528496
000350 6a ac 99 be d8 ae 83 bd d3 39 1b 3c a5 a2 ca be
       -0.30014354 -0.06429833 0.009474236 -0.39577213
000360 5e 93 26 be 57 20 53 bd 56 2b c0 bd fd 3f a5 3c
       -0.16267154 -0.051544514 -0.09383266 0.020172114
000370 b4 8b 93 3d 88 76 c5 bd cb 22 8e be 38 7c e3 3c
       0.07204381 -0.09641749 -0.2776092 0.027769193
000380 fd 62 e5 3c 52 16 16 3d c2 fd d9 be 23 d4 0e 3e
       0.028001303 0.03664238 -0.42576414 0.13948111
000390 02 2e 73 3e df ed 86 be 83 11 b7 3d 5c ce 41 3e
       0.2374802 -0.26353356 0.08938887 0.18926376
0003a0 7a 1c 70 be 35 b7 1a 3e 57 84 3e 3c f1 c5 ad bf
       -0.23448363 0.1510895 0.011628232 -1.3576032
0003b0 62 35 5d be a3 dc b4 bd 9a 11 3e be 82 8b 76 be
       -0.21602395 -0.088311456 -0.18561402 -0.24076656
0003c0 9e 2f 14 3e 3a 82 26 be 07 db 02 3e 72 da 3d be
       0.1447129 -0.16260615 0.12778865 -0.18540362
0003d0 2b c1 96 be 5b 99 9a bb e4 dd b4 bd 3f db a2 be
       -0.2944425 -0.0047179884 -0.08831385 -0.31807896
0003e0 ab 6c c4 be 5b c0 26 bf b7 f3 d1 be 44 44 4c be
       -0.38364157 -0.6513726 -0.41006252 -0.19947916
0003f0 79 79 85 3b b8 4d 17 bf e1 7f e1 3c a7 4a ce 3c
       0.0040733186 -0.59102964 0.027526798 0.025182081

conv2.lin_r.bias f4 [64]
000000 59 bd 3b 3b 14 f2 89 bd 8a 37 3f 3d ba bf 40 bb
       0.0028646796 -0.06735626 0.046683826 -0.0029411153
000010 5b 53 9c bc cc 71 8c 3e 79 70 23 be 6f eb 9d be
       -0.019082716 0.2743057 -0.15960874 -0.30843684
000020 2a f1 3e 3e 17 9c a7 bd 9b 6f 90 3e 57 23 9f be
       0.18646684 -0.08184069 0.28210148 -0.3108165
000030 27 1f 2b be dc a2 67 3d f6 93 0a be 3b 4b 48 3e
       -0.16711102 0.0565518 -0.13533005 0.19559948
000040 07 a6 5f be 89 9c bc 3c 27 46 ba be b0 f6 b3 be
       -0.21840678 0.02302386 -0.36381647 -0.35149145
000050 4c 25 23 bc 8d a0 1b bd f1 95 35 3e c5 14 7c be
       -0.009957623 -0.03799491 0.1773298 -0.24617298
000060 73 3b 8e 3e a1 dc 1c 3d da 4e 11 3e 71 4b 7a 3e
       0.2777973 0.038296346 0.14190236 0.24442841
000070 a8 bb 86 3e 94 78 69 3e 8f 61 9d 3d e8 28 bc 3c
       0.26315045 0.22799903 0.076846235 0.022968724
000080 17 bb bb 3d a6 e5 ae 3e f3 b8 51 3e 9f 59 05 be
       0.09166544 0.34159583 0.20480709 -0.13022469
000090 b6 d8 60 3e 9c 48 29 3e 7a 8b 89 bd 62 29 68 3e
       0.21957669 0.16531605 -0.06716056 0.22672036
0000a0 ca 1d 82 3e e0 a5 15 3e 0d f8 8c 3e 19 56 37 bd
       0.25413352 0.14614058 0.27532998 -0.044759843
0000b0 e4 22 5e be aa 0d d5 bd a3 c1 a4 be c8 c0 0c be
       -0.21692997 -0.10402997 -0.32178983 -0.13745415
0000c0 25 bc cb 3e cd bb e5 3d 46 59 0f 3e b6 5f 49 3d
       0.3979198 0.11217461 0.13998899 0.049163543
0000d0 4c 16 6f 3d 3f ac d6 be 0e 5b 39 3c d4 65 31 be
       0.058370873 -0.41928288 0.011313213 -0.17324
0000e0 ca 20 8b be 2d e5 88 be 50 ab 1d 3e 6a 03 54 bd
       -0.27173454 -0.26737347 0.15397382 -0.05176107
0000f0 fa b7 14 be a5 51 e7 3e 8f ad 31 3e 2c f9 2f 3d
       -0.14523306 0.45179477 0.17351364 0.04296224

conv2.lin_edge.weight f4 [64, 1]
000000 3e 57 8d 3f 49 94 96 bf e3 21 8b bf de 22 8a bf
       1.1042249 -1.1764003 -1.0869716 -1.0791891
000010 14 b0 a0 3f 3d 25 7b bf e9 3e a3 bf d2 62 47 3f
       1.2553735 -0.98103696 -1.2753574 0.7788516
000020 cd c9 0c 3f 50 b8 e8 3d b4 7f 1b be 61 ce 1a bd
       0.54995424 0.1136328 -0.15185434 -0.037794475
000030 14 2c 9a 3e e3 9c 0e be 94 b7 83 3e 16 89 16 3d
       0.30111754 -0.13927035 0.25725996 0.03675183
000040 57 bc f9 bb 7b f3 89 be ba 98 b2 be f2 08 d8 be
       -0.007621329 -0.26943573 -0.34882146 -0.42194325
000050 8d 8e 9f 3e 5d 9e 0d bf 00 84 ba be c8 cb 95 3e
       0.31163445 -0.5531977 -0.36428833 0.29257035
000060 83 6e 9e bf f4 4b 9d 3f 0d 33 98 bf b6 f5 bb bf
       -1.2377476 1.2288804 -1.189058 -1.468436
000070 24 4f 9b bf 30 14 bf 3f 2d 9d b3 bf a8 24 8f bf
       -1.2133527 1.4928036 -1.4032341 -1.1183062
000080 44 f0 a6 3f d0 02 cd 3f 3c 29 c1 3f 38 fc 0e 3f
       1.3042073 1.6016483 1.5090709 0.55853605
000090 f0 61 d7 3f 66 0f 9f bf 77 73 97 3f 48 fe 9b bf
       1.6826763 -1.2426574 1.1832112 -1.2186975
0000a0 ab 50 68 be 0a a1 99 3e c0 db dc be ce ab 86 be
       -0.22687022 0.30005676 -0.43136406 -0.26302952
0000b0 48 25 e2 be 1e 04 d5 bc 19 5b 5e bf 60 ea c6 3e
       -0.44169068 -0.02600294 -0.86857754 0.3885069
0000c0 97 0e 11 bf 2a ff 89 3e 8f 10 0f bf a1 95 c2 bd
       -0.5666289 0.26952487 -0.5588464 -0.09501196
0000d0 08 47 9a bf ed 72 f2 3e 3b e1 af 3f e5 1c 31 bf
       -1.2052927 0.47353306 1.374061 -0.69184715
0000e0 fe 41 18 3e 4d d9 3b bf 04 99 dd be c2 a9 30 3e
       0.14868924 -0.7337845 -0.43280804 0.17252257
0000f0 f4 bc 63 bf ba a2 6c bf 7e b4 67 be 37 51 33 bf
       -0.88960195 -0.924358 -0.22627446 -0.700458

norm2.weight f4 [64]
000000 59 57 9d 3f 87 f6 2f 3f 8b 05 86 3f 39 d1 b2 3f
       1.2292281 0.68735546 1.0470442 1.39701
000010 e1 ea 59 3f 38 98 6e 3f d6 6a 96 3f 29 8e 4d 3f
       0.8512402 0.9320102 1.1751354 0.80295044
000020 ce 97 10 3f b5 62 8c 3f 28 03 82 3f 50 27 8e 3f
       0.56481636 1.0967623 1.0157213 1.1105747
000030 4a 19 67 3f 39 9e 8a 3f 6e c3 ac 3f 74 7f 7f 3f
       0.90272963 1.0829536 1.349714 0.99803853
000040 30 d4 ac 3f 18 a6 77 3f 3c 5d ba 3f 33 38 b6 3f
       1.3502254 0.96737814 1.4559703 1.4235901
000050 66 65 5f 3f e9 88 6f 3f 36 d1 15 3f 11 5e 65 3f
       0.87264097 0.93568283 0.58522356 0.8959666
000060 3c a7 a4 3f dc fa 18 3f 67 e7 71 3f dd 6a a6 3f
       1.2863536 0.5975778 0.94493717 1.3001362
000070 d5 b5 bb 3f 3c f5 3d 3f 0a ea 6f 3f 59 b3 85 3f
       1.4664866 0.7420232 0.9371649 1.0445358
000080 14 5c 85 3f c1 d5 82 3f 2e 34 67 3f 09 f3 97 3f
       1.0418725 1.0221483 0.90313995 1.1871043
000090 ba 66 8e 3f 04 e8 98 3f 24 01 68 3f 79 22 87 3f
       1.11251 1.1945806 0.9062674 1.0557395
0000a0 0d bf 87 3f a9 e4 ba 3f 26 e6 89 3f 0c 4f 70 3f
       1.0605179 1.4601032 1.0773361 0.93870616
0000b0 1f 2c 88 3f 46 ae 72 3f aa 57 9f 3f 13 8f 90 3f
       1.0638465 0.9479717 1.2448628 1.1293663
0000c0 38 ef 2c 3f 7a a1 85 3f e4 24 ab 3f f2 de 56 3f
       0.6755252 1.0439904 1.3370633 0.8393394
0000d0 28 7f b0 3f a0 d4 92 3f ef 9b 78 3f 2a 83 f7 3e
       1.3788805 1.1471138 0.97112936 0.48342258
0000e0 b2 96 36 3f 58 04 a7 3f 91 2e 0a 3f b4 dd 75 3f
       0.7132369 1.3048201 0.53977305 0.9604142
0000f0 ad 61 24 3f e2 8e 6d 3f 1b d5 6b 3f cc 63 33 3f
       0.6421154 0.92796147 0.9212205 0.7007415

norm2.bias f4 [64]
000000 f3 7c 89 bc b5 0d 9d be ac 68 1c be 50 87 a0 3e
       -0.016783213 -0.3067452 -0.15274304 0.31353235
000010 8a 12 60 be 47 ce bb 3d d2 5f 7f bb 2e 92 b6 be
       -0.21882072 0.09170204 -0.0038967025 -0.356584
000020 ae 00 c6 be 12 7f fa bb c6 dc f4 bd f8 ff 0e bd
       -0.38672394 -0.0076445425 -0.11956172 -0.03491208
000030 23 36 16 bd ab 72 2d be a9 97 f1 3d c4 ce 68 bd
       -0.036672723 -0.16938274 0.11796505 -0.056837812
000040 df 07 9f bc 2a 50 4c be fa 76 b4 bd 2e fa b3 3b
       -0.019412933 -0.19952455 -0.088117555 0.00549247
000050 ed 0e 15 be 79 a5 63 be 8f 80 b3 be 2f 2e 87 be
       -0.14556475 -0.22231092 -0.3505902 -0.26402423
000060 14 45 a2 bd cb 9a c4 be 59 7f 17 be 48 84 03 3e
       -0.07923332 -0.38399348 -0.14794673 0.1284343
000070 5b 43 77 3d 09 a0 c1 bd d5 35 3a be eb 2e 94 bd
       0.06036697 -0.094543524 -0.18184598 -0.072355114
000080 b8 c2 7f bd a4 29 01 bd f3 ff 76 be 5e 4c 07 3e
       -0.062441558 -0.031533852 -0.24121074 0.13212726
000090 90 cf 4c 3d 38 b9 1a bd a0 72 36 be f9 31 0f bd
       0.050002635 -0.037774295 -0.17817163 -0.034959767
0000a0 e3 06 31 be 56 c8 70 bd 61 7d 6b be b0 ae 84 bd
       -0.17287783 -0.058784805 -0.22997047 -0.064786315
0000b0 bc c6 8e bd d3 c2 1d be ce aa 3a be b7 ce be bd
       -0.06971499 -0.15406351 -0.1822922 -0.093167715
0000c0 d5 7a 96 be e5 5d c0 bc 5f 3a 3b 3d 13 03 93 be
       -0.29390588 -0.023482272 0.045709964 -0.28713283
0000d0 48 6d 11 3e 3d 1b e1 3d bf 7c 4a be 38 2a 15 be
       0.14201844 0.109915234 -0.1977415 -0.14566886
0000e0 1b 53 a7 be 5a 9e 5d bd 21 b1 c7 be 6f e6 1e be
       -0.32680592 -0.054106094 -0.39002326 -0.15517591
0000f0 91 5f aa be 9f a6 5c be 80 76 47 be c5 c3 9f be
       -0.33276036 -0.21547936 -0.19478798 -0.31204048
